qt_digit_recognize/mnist-code/mnist_cnn.onnx (onnx, 265114 bytes, 10 tensors)

classifier.1.weight f4 [10, 64]
000000 5a f2 31 bf 17 46 8c 3e c3 cd 8a 3d 43 ad 05 bf
       -0.69510424 0.27397224 0.06777527 -0.522175
000010 7b 90 15 3e 50 5e 5e 3e 9c ce 9d 3e 95 e4 a4 be
       0.14605896 0.21715665 0.30821693 -0.32205644
000020 85 15 82 3e 1b 4e 8b 3e a6 57 89 be 6d 3e 43 3e
       0.25407043 0.27208027 -0.26824683 0.19066782
000030 f1 90 0f 3e 49 3a 0d bd e9 fc fa be 09 43 83 3e
       0.14020135 -0.034479413 -0.4902108 0.2563708
000040 35 24 94 3e 01 5a 86 be 49 73 f3 be 6f 7b 9f 3e
       0.28933874 -0.26240543 -0.47548893 0.3114886
000050 57 c7 37 3d a1 4c 18 be 2a 90 87 be 10 e6 38 bf
       0.04486784 -0.14872982 -0.26477176 -0.7222605
000060 c8 07 a6 3e 0d 75 28 be 3b 35 5a 3e 39 9d 59 3e
       0.32427812 -0.16450901 0.21309368 0.21251382
000070 5f 41 ed 3d 80 27 4d 3e 0f ac 1a bf d1 a2 8d 3b
       0.11584734 0.200346 -0.6041879 0.0043223877
000080 18 52 08 3e 2b 8c 9a bd c2 6b 18 bf bf 84 c1 3d
       0.13312566 -0.07546266 -0.59539425 0.094491474
000090 83 42 13 bf 74 63 82 be f3 1c 0a 3e 05 1e 3d 3e
       -0.57523364 -0.25466502 0.13487606 0.18468483
0000a0 03 92 5c 3e 5d e3 cd be 39 71 4a bd 72 a9 64 3e
       0.21540074 -0.40212527 -0.049424384 0.22330263
0000b0 31 72 50 3e 56 7b 2e 3e bd 65 87 3e 05 5d 02 bd
       0.2035606 0.17039236 0.26444808 -0.03182699
0000c0 df dd a8 be 56 48 ff be c7 d9 1d bf e6 a6 44 3e
       -0.32981774 -0.49859875 -0.61660427 0.19204292
0000d0 d5 03 f0 be f7 f3 7a 3c 98 90 bf be b2 00 43 3e
       -0.46877924 0.015316955 -0.37415004 0.19043234
0000e0 ce db 8c 3e 5d 36 77 3e fb f1 84 3e f2 e4 ec be
       0.27511448 0.24141832 0.25965866 -0.4626842
0000f0 65 f2 64 3e 98 cd 4d be ef f7 07 bf 30 82 ea bd
       0.22358091 -0.20097959 -0.5311269 -0.114506125
000100 af 23 86 3e fb a6 3b be 89 72 93 3e 4d 53 0c 3e
       0.261991 -0.18325417 0.2879832 0.13703652
000110 ac de 43 bf fe ce 6c be 20 fd a8 3e dc 6a 7f bd
       -0.76511645 -0.23125836 0.3300562 -0.06235777
000120 f3 e1 05 bf ef 32 d6 be 19 3a 45 3e 26 f7 68 3e
       -0.52297896 -0.41835734 0.19260444 0.2275053
000130 71 0f 8b 3e cc 07 08 be 69 5a de 3d 1b c3 85 3e
       0.27160218 -0.13284224 0.10857088 0.26125416
000140 7d e1 99 3e 66 2f 7f 3e 2a 42 4d 3d 75 9d 91 3e
       0.30054846 0.24920425 0.050111927 0.28440443
000150 33 47 32 bf c3 b6 37 bf 0a ab cb be bd f3 8e 3e
       -0.6963989 -0.7176325 -0.3977893 0.27920333
000160 91 39 9d 3e d9 ed 81 be 3e 36 7c 3e f3 97 20 bf
       0.30707982 -0.25376776 0.24630067 -0.62731856
000170 f3 54 e6 be c9 86 f8 be e0 77 8d 3e 89 50 02 bf
       -0.44986686 -0.48540333 0.2763052 -0.50904137
000180 6c 58 8e 3e a2 56 30 bf e5 63 1e bd 87 c3 70 3e
       0.27801836 -0.6888219 -0.038669486 0.23512088
000190 0c f1 79 3e cf 32 03 bc 05 7b 6b 3e 58 ed 5f 3e
       0.24408358 -0.008007719 0.22996147 0.21867883
0001a0 93 c1 2e be ce 62 0e bf 85 e7 de 3d 9a 88 86 3e
       -0.1706603 -0.55619514 0.108840026 0.26276094
0001b0 bc af 1b bf e3 6d 5b 3e 10 3c d8 be 28 22 2d bf
       -0.60815024 0.21428637 -0.42233324 -0.67630243
0001c0 78 1e 62 3d 59 e0 25 be 1e 74 33 3e d0 af 2d bf
       0.05520484 -0.16198863 0.17524764 -0.67846394
0001d0 ce 79 76 3e 5a b4 f0 be d9 24 91 be 50 d1 38 bf
       0.24069902 -0.47012597 -0.28348425 -0.72194386
0001e0 96 4c f0 be 78 b4 8a 3e 22 d1 c5 be 11 60 69 3e
       -0.4693343 0.27090812 -0.38636118 0.22790553
0001f0 93 d5 53 bf b4 13 65 3d 82 09 1f be 5f ef c3 be
       -0.82747763 0.055926993 -0.1553097 -0.38268563
000200 6a 67 32 3e fb 02 61 be 4b 3f 27 bf 9d fd e1 3d
       0.17422262 -0.21973793 -0.6533095 0.11034701
000210 5c 0f 7b bd b2 5e fb bb 05 1b f5 bd f4 af 6a 3e
       -0.061293945 -0.0076712007 -0.11968044 0.22918683
000220 8d ab 1a be 41 16 34 bd 9f d9 3f be 49 e0 a8 3d
       -0.15104504 -0.043966535 -0.1873536 0.08245904
000230 47 0d f7 be 86 88 5f 3e 72 75 04 bf a9 07 0f 3e
       -0.48252317 0.21829423 -0.5174171 0.13967766
000240 45 69 f4 be 84 f7 2d 3e 39 dc 94 be 72 5d 88 be
       -0.47736564 0.16988951 -0.29074267 -0.26633793
000250 38 e4 5b 3e 6c 4d 72 be 00 ff cf bb 43 b3 30 3e
       0.21473777 -0.23662347 -0.006347537 0.17255883
000260 64 41 0c 3e eb ab a0 3e 31 f4 77 3e 24 13 35 3e
       0.1369682 0.31381163 0.24214245 0.17683083
000270 27 a8 5e 3e 55 d3 82 3e e4 f3 6d be af e2 8d 3e
       0.21743833 0.2555186 -0.23237568 0.27712008
000280 d3 8f 07 bf a1 df 41 3e 5c d5 05 3e 26 a3 8a 3e
       -0.52953833 0.18932964 0.13069671 0.27077597
000290 28 0a 37 be 88 17 92 be 4e 5a 50 3e 85 bf 99 be
       -0.17874968 -0.28533578 0.20346949 -0.3002893
0002a0 ab df 96 3e a8 54 79 bd 9d 9f cd 3d b3 4d 02 bf
       0.2946752 -0.06087175 0.100402094 -0.5089981
0002b0 12 c8 7b 3e eb ff d6 be a0 5b a2 3e b7 59 19 be
       0.2458804 -0.41992125 0.3171053 -0.1497563
0002c0 50 0e 52 3e fc 7a e5 be 4c db 0c 3e 33 3b fb 3d
       0.20513272 -0.44820392 0.1375553 0.12267151
0002d0 b7 cc ac be ee 4b 9d 3e 99 c9 cb 3c c6 24 9e 3d
       -0.33749935 0.30721992 0.024876403 0.07721858
0002e0 81 e0 8b 3e 99 80 08 bf c2 8f b7 3d c0 70 9d be
       0.2731972 -0.53321224 0.089629665 -0.30750084
0002f0 10 4b 31 be 9d 76 0e 3e 6e df 5d 3e 2f bf e2 3c
       -0.1731379 0.13912435 0.21667263 0.027679054
000300 27 c0 6f 3e 93 69 96 3e f0 f3 08 bf 56 b1 94 3e
       0.23413144 0.29377422 -0.5349722 0.29041547
000310 67 3e a2 3d a6 20 8d 3e b1 de c5 be ac 47 9b 3e
       0.079220586 0.2756397 -0.38646463 0.3032812
000320 9e c8 65 3e d5 f3 95 be 8e fb 0c 3e e6 31 0f bf
       0.2243981 -0.29287592 0.13767835 -0.55935514
000330 bc 2e 2c bf 20 83 94 3e be 31 5c 3e 2b 21 48 be
       -0.6725881 0.2900629 0.2150335 -0.19543903
000340 5f 44 0e bf 32 cd 05 bf 17 2e 47 3e 42 06 c4 be
       -0.55573076 -0.5226623 0.19451176 -0.38286024
000350 7f 44 96 3d 6f 87 23 3e 21 73 e2 3c 4a ff 2e 3e
       0.07337283 0.15969633 0.027642788 0.17089573
000360 f0 68 a5 be c2 4f 11 bd d8 6c ea be fa 6d a4 bd
       -0.32306623 -0.035476454 -0.45786166 -0.08028789
000370 76 74 c0 be bc 1b 92 be ef 2c 96 3d b9 64 88 3e
       -0.37588853 -0.28536785 0.07332789 0.26639345
000380 80 ec b6 3d 34 4e 0a bf 65 fe 99 3e 2d 82 a9 be
       0.089318275 -0.5402558 0.300769 -0.3310713
000390 c8 93 a0 be 04 c4 b9 be a9 d1 47 3e 6f 0b 93 be
       -0.31362748 -0.3628236 0.19513573 -0.2871966
0003a0 52 99 8e 3e 33 9d 83 3e 4b 7d 17 bf 48 dc e2 be
       0.2785135 0.2570587 -0.59175557 -0.44308686
0003b0 50 8e 43 bd cd 29 04 bf b0 21 c6 be 60 1b 31 3e
       -0.04774314 -0.5162628 -0.38697577 0.17295599
0003c0 43 bc bf be c4 b7 d4 be bc ef 00 bf 4a 50 4f 3e
       -0.3744832 -0.41546452 -0.50365806 0.20245472
0003d0 bc b5 c6 3e 97 a3 89 3e 68 81 94 3e 2c b9 ec be
       0.38810527 0.26882622 0.2900498 -0.46235025
0003e0 be ec de be 91 0d 4b bf 0e 46 7c 3e 44 ed d8 bd
       -0.43539995 -0.79317576 0.24636099 -0.1059213
0003f0 d1 1d d4 be 1d f3 43 bf c4 b5 8d 3e fb 12 8a 3e
       -0.41428998 -0.76542836 0.2767774 0.26967606

classifier.1.bias f4 [10]
000000 ee a0 c4 bd 5e 37 b1 3e 10 df c6 bd 6c c0 54 3b
       -0.096010074 0.34612554 -0.097105145 0.0032463325
000010 98 9f b5 be 77 ca ac 3d 6f 2a 09 3c 93 83 95 bc
       -0.35473323 0.084370546 0.008371933 -0.018251216
000020 af df b6 bc d1 68 11 3e
       -0.022323458 0.1420014

onnx::Conv_49 f4 [32, 1, 3, 3]
000000 02 d0 4b 3d b9 5f 2d be 98 b8 62 3f 6f ac 53 bf
       0.04975892 -0.16931047 0.8856292 -0.8268499
000010 e6 d3 a0 be 2e 68 da 3e 9a 10 91 be 93 09 24 3f
       -0.31411666 0.42657608 -0.28332978 0.6407711
000020 3d 61 f4 be 8b 79 0b 3f 53 7c 76 3e 33 a7 7d bd
       -0.47730437 0.54482335 0.24070863 -0.06192703
000030 72 d3 82 3e 17 fb a0 bd 7b b5 f2 be 0f f5 d6 3e
       0.25551945 -0.078603916 -0.47404084 0.4198384
000040 32 f9 dc bd 91 7d e8 be 01 ea 1a bf 52 8a 58 3d
       -0.10789718 -0.454083 -0.6051331 0.052866288
000050 a2 1a 6b be 5e 2e 60 bf 1d 50 11 3f 0b 1a 60 3f
       -0.22959378 -0.8757075 0.5676287 0.8753974
000060 12 01 0f 3f 17 a3 48 bf f4 2c 0e bf 5a de 5e 3e
       0.5586101 -0.78373855 -0.55537343 0.21764508
000070 4e 46 04 3f 74 1c 0c 3f 49 30 00 bf f2 7e 88 3d
       0.51669776 0.54730916 -0.5007368 0.06664838
000080 5b 1a 95 be 7c 3e fc be 79 54 d6 be 2f f8 4d be
       -0.2912167 -0.49266422 -0.41861323 -0.20114206
000090 0f 31 3f bf 3c 91 b5 bc 84 ee c8 3e 48 cf 88 3e
       -0.7468423 -0.02216398 0.39244473 0.26720643
0000a0 e4 57 fd be a3 bd 2a be e2 d1 99 be 7d d5 ba 3e
       -0.49481118 -0.16673903 -0.3004294 0.36491004
0000b0 a2 09 2c bf 37 a6 4b be f7 9d 1f 3f c7 7e e4 bd
       -0.672022 -0.19887625 0.6235041 -0.11156993
0000c0 e9 d9 57 3f 85 25 8e 3b 60 e6 0f 3f 1a 17 57 bf
       0.8431688 0.004337969 0.562109 -0.84019625
0000d0 34 a3 27 bf 65 60 4a be 3c 6a 00 3f d6 95 25 3e
       -0.65483403 -0.19763334 0.501621 0.16170439
0000e0 32 2b 00 3f 94 ea 3a bf 80 80 48 bf b4 72 a6 3e
       0.5006591 -0.7301419 -0.78321075 0.32509387
0000f0 89 07 af be 9b 20 9d 3e 8b b2 bd 3e 56 82 f6 be
       -0.34185436 0.30688938 0.3705028 -0.48146313
000100 dd cc 83 3d f3 0f 2b 3e 6c a9 f3 be 13 f2 10 be
       0.06435559 0.16705303 -0.47590196 -0.14154844
000110 63 49 00 3f 50 c0 08 3e 2f 63 dd be 1c 11 3e 3f
       0.5011198 0.13354611 -0.43239734 0.74244857
000120 77 bc af 3e 60 f8 f8 bd 55 93 e2 3e 50 82 45 3e
       0.34323475 -0.12156749 0.4425303 0.19287992
000130 c9 e8 ab be cb b1 5d 3e ad cf 2a bf 71 19 9e 3d
       -0.33576038 0.21649854 -0.6672314 0.07719696
000140 fd 2b f4 3e 57 3c 13 3f 8a 48 9a be 43 c0 8c 3e
       0.4768981 0.57513946 -0.30133468 0.27490434
000150 90 42 f0 3c 88 6e b4 bf 9f 49 19 3f 81 7d 3f 3f
       0.029328614 -1.4096231 0.5987796 0.7480088
000160 1d 4e 18 3f 82 b8 bc be bd 28 31 bf 02 04 54 3e
       0.5949419 -0.36859518 -0.69202787 0.20704654
000170 a0 bc 6a 3e 9e de 14 3f 3c c9 a2 3d a4 6d b2 3e
       0.22923517 0.58152187 0.07948539 0.34849274
000180 77 6f 48 bf e2 f3 7c 3e 8a 98 aa 3d 77 c6 0f 3f
       -0.7829508 0.24702409 0.08329876 0.5616221
000190 48 bb da bd 51 b5 ee bd 42 01 95 3e 65 6f 07 3e
       -0.10680252 -0.11655677 0.29102522 0.13226087
0001a0 34 ef 24 3f 56 71 4d bf dc 51 ca be 9f 97 f5 3d
       0.64427495 -0.8025106 -0.3951558 0.1199181
0001b0 5c f8 d1 3e a8 b3 ac be b9 97 0a bf d9 01 0b 3f
       0.41009796 -0.33730817 -0.5413776 0.54299694
0001c0 b8 87 b4 3d ea 32 97 be 2b ae 48 3e 96 7c d6 3e
       0.08814949 -0.29531032 0.1959769 0.41891927
0001d0 78 68 bb be b7 5c b7 3e a2 68 b6 3e 67 06 3c 3e
       -0.3660314 0.35812923 0.35626704 0.18361817
0001e0 f8 8f d5 3e b0 d0 71 be c9 4b cc 3d 0e d4 d6 be
       0.41711402 -0.23614764 0.09975392 -0.4195866
0001f0 0f df 01 3e ca 89 25 bf e4 d0 ea 3e a2 4c ae 3e
       0.12682746 -0.64663374 0.45862496 0.3404284
000200 d6 95 36 bf a4 44 66 bc e4 d7 e9 be 14 27 21 bf
       -0.7132238 -0.014054451 -0.45672524 -0.62950253
000210 ef 4c 8c 3e 61 18 31 3f ce b6 b6 3e 49 5d 0b 3f
       0.27402446 0.69177824 0.35686344 0.54439217
000220 b4 5e e1 3b 99 3d 25 3d a3 8b d3 3e f8 1a 8b be
       0.0068777446 0.040341947 0.41317472 -0.27169013
000230 44 9d 49 bd db 7b 10 3e 03 4f ef be 03 ab c6 3e
       -0.049222246 0.14109747 -0.4673997 0.38802347
000240 95 5b 30 3f ba 7a 51 bf de 06 3d 3f 2d 4e 6c 3e
       0.68889743 -0.8182789 0.73838603 0.23076697
000250 6f 89 88 bf 93 e7 91 bf 1d ed 58 3e 38 24 c6 3e
       -1.0666941 -1.1398796 0.21184202 0.38699508
000260 d5 ef 4e 3f c2 cc 9a 3e 38 1b 78 be a9 79 08 3e
       0.80834705 0.30234343 -0.24229133 0.1332766
000270 c0 7f 54 be 9c 91 02 3e d1 83 20 3d b2 4e 02 3f
       -0.20751858 0.12750858 0.03918821 0.5090133
000280 b6 4b 67 3d 8d 31 ae 3e 3c cc a7 3e fc b5 27 be
       0.056468688 0.3402218 0.32773006 -0.16378015
000290 a1 b9 38 be 3e f6 99 3e 3f 6f b2 bd 19 41 9f bc
       -0.18039562 0.3007068 -0.08712625 -0.01944022
0002a0 15 0a b8 3e 8b 66 a9 3e e6 eb 2f be 78 7d 3b bf
       0.35945192 0.33086047 -0.17179832 -0.73238325
0002b0 6c d5 e3 be b1 b2 3b 3f 33 1d fd 3e c7 38 ce bc
       -0.44498765 0.73319536 0.4943634 -0.025173558
0002c0 3e c8 2a bd e1 67 0c bf 0d 16 cf 3e 7c 3b e4 3e
       -0.041694872 -0.54846007 0.4044651 0.44576633
0002d0 9e da 19 bf df 87 d6 be 08 af 88 be 09 15 2a 3e
       -0.6009921 -0.41900536 -0.26696038 0.16609587
0002e0 23 c5 bc be fd a5 a9 bd 6c fe 39 be 81 68 1f 3f
       -0.36869153 -0.08283613 -0.1816346 0.62268835
0002f0 ed 46 d1 3e e9 40 18 3e bf 88 20 3f 47 fb aa 3d
       0.40874425 0.14868511 0.6270866 0.083487086
000300 25 36 3c bf a1 81 12 3e b1 6f 0b 3f a9 a0 c4 be
       -0.7352012 0.14307262 0.544673 -0.38403824
000310 ae 69 14 bf e6 de a4 3e 5d f6 5c 3f a6 a1 1b 3e
       -0.57973754 0.32201308 0.8631342 0.15198383
000320 5f 32 43 bf b8 f2 b0 be fe 41 a8 3c 00 bd 44 bf
       -0.76248735 -0.3456018 0.02053928 -0.7685089
000330 82 fd 2d bf 2b 35 20 3f 07 d7 62 3f dc 9a e1 be
       -0.6796495 0.6258113 0.88609356 -0.4406346
000340 28 73 40 be d0 b1 ce be c4 93 25 be 57 e0 8c be
       -0.18793929 -0.40370035 -0.1616965 -0.27514908
000350 dd 77 99 be 54 c7 1c 3f f5 90 d9 3e 3c e7 09 bf
       -0.2997426 0.6124165 0.42493406 -0.5386846
000360 ef ad c1 bd 85 ac 3d bd 59 64 f2 bd ea c6 12 3f
       -0.09457003 -0.046307106 -0.11835546 0.5733477
000370 27 06 58 3e 80 ac d6 3e d1 a1 3a bf 96 11 1c bd
       0.21096097 0.41928482 -0.7290316 -0.03810271
000380 32 23 f5 3e bf 36 fd be 99 fb bd 3e 96 ab a4 bd
       0.47878414 -0.4945583 0.37106016 -0.0804054
000390 44 ed e2 be 38 cc 3c 3e 7d 38 bf 3e 09 e5 19 bf
       -0.44321644 0.18437278 0.37347785 -0.60115105
0003a0 51 be 9d 3e 77 2e ef 3e 05 2a d4 be 57 fb fb be
       0.30809262 0.46715137 -0.41438308 -0.49215195
0003b0 4b 75 8b be a6 5c 55 be b1 4a 19 3f da c1 d2 bd
       -0.27237925 -0.20836124 0.59879595 -0.102908805
0003c0 1e d3 4e 3e df c7 93 3e b0 a5 13 3f d3 bd 41 3f
       0.20197722 0.28863427 0.57674694 0.75680274
0003d0 65 ce 08 be 93 46 15 3f 64 87 6e bf 6b 7a 32 3f
       -0.13359983 0.5831081 -0.9317534 0.69718045
0003e0 8f b9 d4 3c d4 19 3b 3e 3f 03 11 bf fc 6c 1c bf
       0.025967387 0.18271571 -0.5664558 -0.61103797
0003f0 06 18 95 3e b1 21 83 3c ab 34 ff bd 9e 61 b2 be
       0.2911989 0.016007276 -0.124612175 -0.348401

onnx::Conv_50 f4 [32]
000000 2d 05 1f bd 20 b3 0b 3d 46 68 21 3e 12 08 c4 bd
       -0.038823295 0.034106374 0.15762433 -0.09571852
000010 0c 50 b2 3d 8e 6d ad bd bc 5d f5 bd b3 79 5c 3c
       0.08706674 -0.084681615 -0.11980769 0.01345675
000020 61 5f 07 be 21 23 0f be 86 a2 ec bd 29 d9 19 be
       -0.13219978 -0.13978244 -0.115544364 -0.15024246
000030 6d 87 0f 3d c9 d4 b6 bc ee 77 10 be 62 63 53 bd
       0.03504126 -0.02231826 -0.1410825 -0.05160845
000040 18 05 4e 3c 81 85 61 bc 65 02 87 be 06 c9 ad bd
       0.012574457 -0.01376474 -0.26369014 -0.08485608
000050 a8 53 9e 3d ee 7a 99 3c 3e ef 8e bb b8 7a 46 3d
       0.077308 0.018735375 -0.004362016 0.048456877
000060 0a 1f 0d be 9e b5 1c 3e 74 94 de bc e3 16 c5 bc
       -0.13781372 0.15303656 -0.027170397 -0.024058765
000070 5b 1d 13 be 5c a3 1e be a8 1c 03 bd 4c ca 22 bd
       -0.14366667 -0.15492004 -0.03200975 -0.039743707

onnx::Conv_52 f4 [32, 32, 3, 3]
000000 2b e0 ee bd 86 82 1a be 3c cc eb bc f3 be 66 bb
       -0.116638504 -0.15088853 -0.02878391 -0.003520903
000010 26 d2 ee bc 4d 57 d9 3c bd 9b 6d 3d ed 6c c7 ba
       -0.029152941 0.026530886 0.05800985 -0.0015214958
000020 85 e1 ad bb 2a f2 4c be 2a 4c 2c bd 2c 05 09 be
       -0.005306425 -0.20014253 -0.042064823 -0.13380879
000030 df 35 aa 3d 80 97 ef 3c d0 8b 1a bd 18 65 82 3e
       0.08311056 0.029247046 -0.03773099 0.25467753
000040 99 aa fb 3d 1c d2 dd 3d 36 fb b9 bd 1c 56 66 bd
       0.12288398 0.10831091 -0.09081118 -0.056234464
000050 ec ae 8b be 93 a2 1f bd a3 96 78 3d e9 42 09 3d
       -0.27281892 -0.038973402 0.060690533 0.033511076
000060 da 5d 2e 3d c4 70 9f bc 6d 74 ea 3a b1 a7 76 3e
       0.042569973 -0.01946295 0.0017887481 0.24087407
000070 77 22 99 3e a6 98 bd 3d 1d 48 ce 3c cc 14 b1 3d
       0.29909107 0.09257631 0.02518087 0.08646545
000080 3e bd 36 3d 0f 63 e8 bd 61 72 ea bc ad d4 78 bd
       0.04461407 -0.11347019 -0.028618993 -0.0607497
000090 95 e0 e6 3d 37 31 8a 39 0f c7 51 bc 39 9c 29 bd
       0.112733044 0.0002635808 -0.012803807 -0.04140875
0000a0 e9 9b 85 3d 21 35 04 3c c7 0f 19 be cf 9a 47 bd
       0.06523878 0.008069308 -0.14947425 -0.04873162
0000b0 58 83 80 3d 33 4e 6c 3d d8 37 57 bd dd 49 4c bd
       0.06275052 0.057691764 -0.05254349 -0.04987513
0000c0 86 04 37 bd 2f bf 69 bd ad 1a c6 bd d2 6c 8a bd
       -0.04468205 -0.057067093 -0.09673057 -0.06759037
0000d0 f3 5d b6 bb 7b 7c d8 bc 98 95 7b 3d 8b d1 87 bc
       -0.005565399 -0.026426544 0.06142196 -0.01657941
0000e0 3a d9 c1 bc 0c aa f5 3c 2e fa a4 3d e0 1d 67 bd
       -0.023663152 0.029988311 0.080555305 -0.056424975
0000f0 36 2f 65 3d 9a 23 f1 3d 7b eb b0 3d 87 92 1d be
       0.055953227 0.117743686 0.08638664 -0.15387927
000100 d4 bd f8 bd c1 4a 06 be df 85 2d bd da 84 d5 bc
       -0.12145582 -0.13114454 -0.042363998 -0.026064325
000110 66 5b f1 bd d1 22 02 bd a6 f8 25 3d db c0 92 bd
       -0.11785011 -0.031771485 0.040520333 -0.071656905
000120 85 f5 72 3d 7b f3 48 bd 15 5f eb 3c 7d 16 be bc
       0.059316177 -0.049060326 0.028731862 -0.023204083
000130 24 71 9e bc ed 02 81 3d 5a 5b c5 3d 30 b0 94 3d
       -0.019341059 0.06299386 0.096365646 0.072601676
000140 a3 16 de bc 68 1e 27 bd ed 44 7c bd 54 d4 f6 bb
       -0.027110403 -0.040800482 -0.06158917 -0.0075326357
000150 ca 08 d8 3c c0 72 69 bd e7 74 e7 bc c9 b7 8c 3d
       0.026371378 -0.0569942 -0.028253986 0.06870992
000160 1e c5 4f 3c 7e 1d 14 bd be 88 12 be d8 5a d6 ba
       0.012681274 -0.03616094 -0.14309976 -0.0016353978
000170 b6 a8 bb bc a1 c5 82 bc 26 cd b1 bd d5 67 2c 3d
       -0.022907596 -0.015963377 -0.08681707 0.04209121
000180 46 75 62 3d 41 3f 87 bb 4e b4 88 bc 50 29 0e bd
       0.055287622 -0.0041274135 -0.016687538 -0.034707367
000190 88 34 f1 bc cc 96 82 3d df c4 45 3c cb 47 0e 3d
       -0.029443994 0.063764185 0.0120708635 0.034736436
0001a0 7d b5 43 3d f8 04 11 bd ca 92 4a 3d 76 bc 82 3b
       0.047780503 -0.03540513 0.049456395 0.0039897515
0001b0 57 92 85 bd 32 d7 af 3c cd f9 c4 3d dc fc a3 3d
       -0.06522053 0.021464918 0.09617958 0.080072135
0001c0 26 98 b9 3d ba ae 11 3e 75 d8 c8 3d 75 93 2b 3e
       0.09062223 0.14226809 0.09806911 0.16755469
0001d0 08 79 c3 3d 56 f9 cc bc d1 e8 29 be bc 54 2b be
       0.09544569 -0.025021236 -0.16592719 -0.16731542
0001e0 cd f1 0e 3d 37 9f 1c bd 4c 38 f1 bd 57 23 1d 3e
       0.034898568 -0.038237777 -0.11778316 0.15345512
0001f0 da 62 57 bc 6a bf b2 bb 3d 9e 15 be 84 ea d5 bd
       -0.013146127 -0.0054549472 -0.14611144 -0.10445121
000200 b5 d4 d3 bc ca 0b 32 bc ab 98 84 bd 57 21 06 3d
       -0.025858263 -0.010867069 -0.064744316 0.03274664
000210 a2 22 44 bd cf b7 9e 3c 0d e8 f2 3c 83 d2 69 bd
       -0.04788459 0.019374756 0.029651666 -0.057085525
000220 14 72 20 be 47 51 05 be 53 c6 cf 3c 85 7c 26 bd
       -0.15668517 -0.13019286 0.025363123 -0.040646095
000230 86 f6 5e bd 3e e0 38 bd 96 64 be 3c 72 db f3 bc
       -0.05443432 -0.04513573 0.023241322 -0.029767726
000240 11 58 4c be 3d ea 9c bd 6b ff 00 be 3c 28 e2 bb
       -0.1995547 -0.07661865 -0.12597434 -0.006901769
000250 9a cf 30 bd c8 33 d8 bd 7f 25 85 bd eb 4e fb bd
       -0.043166734 -0.105567515 -0.065012924 -0.12270912
000260 0c be 03 be 6d 42 af bb ab 2d a3 bd d2 43 a2 bd
       -0.12865466 -0.0053484947 -0.07967695 -0.07923092
000270 b1 36 50 3d 15 83 99 bc 49 b8 df bd 4c 69 a6 bc
       0.050833408 -0.018739263 -0.109238215 -0.020313881
000280 44 1c 12 bd 06 98 ab bd 9b 70 8f bd 85 9e 9a bd
       -0.035671487 -0.083786055 -0.070039 -0.075497665
000290 3c 00 3d 3b 4e 3d 27 bd 5d b7 e2 3d 82 7c 3a bd
       0.002883925 -0.04082995 0.1107013 -0.045528896
0002a0 06 bb c3 3d e4 46 63 3d f4 45 8c bd 76 ad 7e bd
       0.09557156 0.05548753 -0.0684928 -0.062177144
0002b0 63 1a 9d bd db b3 42 be 14 c0 f4 3c 90 69 ab bd
       -0.076710485 -0.19013922 0.029876746 -0.08369744
0002c0 f5 be ce bd 5f 52 06 3d 79 13 e9 bc 5c aa 97 bd
       -0.10095016 0.0327934 -0.028451668 -0.0740554
0002d0 01 e7 7e 3e 95 8c bd 3d 0b 5f a8 bd 49 4a 28 3e
       0.24892808 0.092553295 -0.08221253 0.16434588
0002e0 b0 49 d6 bc 2a 2b e9 bd b0 66 11 3c 04 64 dc bc
       -0.026158184 -0.11385186 0.00887458 -0.02690316
0002f0 b6 ad 76 be 9d 35 5c 3c 17 93 80 3d 39 61 56 3e
       -0.24089703 0.013440517 0.06278055 0.20935525
000300 75 c9 6a bd af a8 ec 3d fd 21 d2 3d 9b c6 1a bd
       -0.05732103 0.11555611 0.10260389 -0.03778706
000310 a7 e5 18 bd 8f e9 45 3d f2 35 4b bd 2c da 5c bd
       -0.03732839 0.048318442 -0.049611993 -0.053919002
000320 c1 ba 6a bd 2e bf cf 3d 1a 84 5a 3c 4c 1b 4d bd
       -0.05730701 0.101438865 0.0133371595 -0.05007486
000330 b2 bb 37 3d f3 55 a5 3d 31 83 83 3c 20 dd 2f 3e
       0.044856735 0.08073034 0.016053768 0.17174196
000340 24 f9 a3 3e 54 61 ae 3e eb 7b 4f bd 31 d5 dc 3d
       0.32026017 0.3405863 -0.050655287 0.107828505
000350 89 3c aa 3e f3 db 1e 3e 5b 01 81 3d 47 75 b5 3e
       0.3324931 0.15513591 0.06299087 0.35441038
000360 dd 63 48 3d ce fc 84 bb 6b 99 3e bd 98 0a a5 3b
       0.048923362 -0.004058457 -0.04653303 0.0050366633
000370 0a c5 9b 3d 79 c2 c1 3d 9b 35 07 3d 89 b2 47 3d
       0.076059416 0.09460921 0.033010107 0.04875425
000380 6b 0c 02 3d 5f 12 99 bd fb 4b 1c be b1 a5 5c bd
       0.031750124 -0.07474207 -0.15263359 -0.053868953
000390 3d a0 1b 3d 9b 31 95 3d 31 2f af 3d 43 c8 27 3e
       0.037994612 0.07284852 0.08553923 0.16384988
0003a0 0f c5 42 3e d0 cc 11 3e 6a 0a a1 3d 17 5c 9e 3d
       0.19020484 0.14238286 0.078633144 0.077324085
0003b0 73 7f a6 3c 86 67 ca 3d 2c a9 b7 3d e2 4f f8 bd
       0.020324444 0.09883027 0.08967814 -0.121246114
0003c0 58 31 c1 3d e5 ff 23 3d 87 f7 3c be c3 ce 0a bd
       0.0943324 0.040038962 -0.18453799 -0.03388859
0003d0 42 25 05 3d 63 00 cf 3b ec 68 ad bc 57 38 6d 3d
       0.032506235 0.006317185 -0.021168195 0.057915058
0003e0 52 9c 1a bd 17 91 50 bd 9c 37 80 3d 80 dd 16 be
       -0.037746735 -0.05091962 0.06260607 -0.14732933
0003f0 3b d8 d3 bc 23 bc 9e 3d 3b bb b7 3b 60 29 11 3e
       -0.025859943 0.07750728 0.0056070364 0.1417594

onnx::Conv_53 f4 [32]
000000 bc ad 42 bf 80 53 9e bd d9 42 9e bd b8 e2 eb be
       -0.7604635 -0.0773077 -0.07727594 -0.4607141
000010 d0 f8 94 3e 1f 7b 00 3f 70 27 63 3f 60 83 a5 3e
       0.2909608 0.5018787 0.8873205 0.32326794
000020 e0 54 99 3f 1f 2d 46 3f 5e d8 17 3f 52 e9 9e 3e
       1.1979027 0.774126 0.59314525 0.31037384
000030 df 2b 81 3f 84 81 82 3e ee 30 b8 3f 24 db 41 3f
       1.0091513 0.25489438 1.4389932 0.7572501
000040 ec 64 54 bf 16 9d a8 3e 0d c7 0f be ae 95 37 3f
       -0.82966495 0.32932347 -0.14040776 0.7171277
000050 e4 88 bb bc aa f1 85 3f 74 fc 79 3e 40 0f 32 3d
       -0.022892423 1.0464375 0.2441271 0.043471575
000060 d3 09 18 be bc 43 20 3f d2 bd 84 3e a4 bd fb 3d
       -0.14847498 0.62603354 0.2592607 0.122920305
000070 30 b3 ff 3c c8 f0 f6 be 30 9b b9 3e 06 27 33 be
       0.031213373 -0.48230577 0.3625121 -0.17495355

onnx::Conv_55 f4 [64, 32, 3, 3]
000000 39 27 8d 3c 0d 0a 82 3a ff da 38 bd 45 4f a8 bd
       0.017230617 0.0009921208 -0.045130726 -0.082182445
000010 b9 fd 9b bb c4 64 8f bd c8 6c 0c 3d 79 49 be 3c
       -0.0047604707 -0.070016414 0.03428343 0.023228394
000020 7d e9 b4 bd 9e 50 41 3d 65 9b 74 bc 3a 81 ea bc
       -0.08833597 0.047196023 -0.014929627 -0.028626073
000030 5e 88 14 3d 0e 27 24 3d b7 81 14 3d b1 75 00 3d
       0.036262862 0.040076308 0.03625652 0.03136224
000040 1b bd 6d 3d 28 53 7f 3d 69 8a ea bc a3 c6 c9 bc
       0.058041673 0.062335163 -0.028630452 -0.02463085
000050 93 1c eb ba 86 cc 6c bd 36 9f e5 bc ba b2 2f 3c
       -0.0017937593 -0.057812236 -0.02803002 0.010723764
000060 34 a8 22 3d e2 e4 58 3d be 14 27 3d 1e 84 61 bd
       0.039711192 0.052952655 0.040791266 -0.055057637
000070 5d 16 6e bc 3c 96 18 bd 9a 1b 9c bd 13 a8 4a bd
       -0.014531699 -0.03725265 -0.07622452 -0.049476694
000080 a2 d3 ef bc 36 f9 0b be e9 ac 52 3c 74 46 4c 3c
       -0.02927572 -0.13669285 0.012858608 0.012467969
000090 b2 04 29 bc 61 3c cd bc 95 1b 83 3d fa fc 91 bc
       -0.010316061 -0.025053205 0.06401745 -0.017820824
0000a0 c9 b3 79 bd 51 07 10 bd e1 a5 ca 3c be 85 91 3c
       -0.060962472 -0.035163227 0.0247373 0.017763969
0000b0 d0 51 7e 3d b8 f1 f1 bc e8 aa c1 3b 0f 84 a1 3c
       0.06208974 -0.029534206 0.005910266 0.01971629
0000c0 f9 db 80 bb f6 27 53 bc 6b c9 77 3c 3c f2 83 bb
       -0.003932473 -0.012887945 0.015123705 -0.0040266793
0000d0 8e aa 3b bd 1f 0a be bd cb b6 35 bd 8a 6f 0b 3d
       -0.04581695 -0.09279274 -0.044363778 0.03404192
0000e0 45 67 e8 3c d9 19 8f bd d2 cf 84 3d 62 e5 eb 3d
       0.028369555 -0.06987352 0.06484951 0.11518361
0000f0 78 80 13 be b5 97 2f bd 22 11 7a 3c df a2 89 bc
       -0.14404476 -0.04286929 0.015262874 -0.016801296
000100 83 80 eb bc b3 d0 b2 bc 44 0b 0b 3d db a3 87 3d
       -0.028747803 -0.021828031 0.03394629 0.0662305
000110 05 54 20 3d ba fb 2d 3e c4 7c d2 3d c0 5e 69 3d
       0.039142627 0.16990557 0.102777034 0.056975126
000120 0c a4 f4 bc 76 e1 09 3d b9 d4 42 3d 65 b2 67 bd
       -0.02986338 0.033662282 0.04756615 -0.056566615
000130 28 5d 22 3c 92 84 5a bd d6 5f a5 bd 01 9f a8 bd
       0.0099099055 -0.053349085 -0.0807492 -0.082334526
000140 e6 fa f8 bd 49 4d 60 be 54 57 b3 bd 18 96 a0 bd
       -0.1215723 -0.21904482 -0.08756891 -0.07841128
000150 8a 59 46 bd c9 d0 38 bd 52 00 3b bd 8a 91 dd 3d
       -0.048425235 -0.045120988 -0.045654602 0.10818775
000160 d1 c7 85 3d 0c 14 a0 bc 8b bb 3b 3c db b8 03 3c
       0.065322526 -0.01954081 0.011458288 0.008039678
000170 b5 39 26 3d ac bb 2d bd 83 4e 10 bd 67 4f 97 3d
       0.040582377 -0.042415306 -0.035231125 0.07388192
000180 ea bb 3d 3d 94 ad 62 ba 5b ce a8 3d e0 54 92 bd
       0.046321787 -0.0008647081 0.08242484 -0.07145095
000190 5a d4 8d bd 0c 47 5a bb 6c b1 50 bd d9 43 d8 ba
       -0.069252685 -0.0033306507 -0.050950453 -0.0016499712
0001a0 34 bf 2b 3c 07 70 18 bc aa 8a bd 3b 18 92 80 3d
       0.010482598 -0.009304053 0.0057843523 0.06277865
0001b0 de 43 82 be 47 6e ab bd b4 de 9a bc 86 7a 4b 3c
       -0.25442404 -0.08370643 -0.018905021 0.012419349
0001c0 0e 75 96 3d 0b d0 4a 3d 50 03 a0 3d 27 54 d6 3c
       0.07346545 0.04951481 0.07813132 0.026163174
0001d0 1a 66 a0 3b f1 a0 ba bd fa 8d 28 bc 3d 9e 7f 3c
       0.004894984 -0.091127284 -0.010287756 0.015601692
0001e0 76 34 d5 bd 78 df f3 bc 38 97 90 bd 6c 54 e4 bd
       -0.10410397 -0.029769644 -0.07060093 -0.11148915
0001f0 de 0c 2c bd 72 ce 60 3d 88 30 bb 3c 69 37 21 3d
       -0.04200446 0.05488438 0.02285029 0.039359484
000200 94 ba e0 ba d1 ed 79 3b e0 74 6d 3c 39 50 b0 3c
       -0.0017145448 0.0038136134 0.014493197 0.021522628
000210 ed 7b 64 bd 10 65 36 3d c3 11 3b 3d e0 c6 ab bc
       -0.055782247 0.044529974 0.045671236 -0.020968854
000220 10 db b3 3c 32 06 ef bc 00 4a 54 3c 6c 30 58 3b
       0.021955043 -0.029177759 0.012957096 0.0032987846
000230 8c 72 1e 3c ab fb 99 bc 54 45 03 bd 6c ac 54 bc
       0.009670865 -0.018796762 -0.03204854 -0.012980562
000240 5e 87 96 bd d5 3c 70 3c 58 52 1d 3d e2 0b 9c bb
       -0.07350038 0.014662941 0.038408607 -0.0047621587
000250 35 7b 08 bc b9 08 02 3c 36 03 3a bc 96 6e 01 bd
       -0.008330156 0.00793665 -0.011353305 -0.031599604
000260 fd de a3 bd bb 1e 05 bd 29 8d a7 3d 77 3b 8c bc
       -0.08001516 -0.03250001 0.08181221 -0.017118199
000270 9e ac 3e bc 2d bd d9 bc ef 31 cd bb b2 6b 01 bc
       -0.011637835 -0.026579464 -0.006262056 -0.007899212
000280 2a c7 06 bd 0d a1 de bc e4 f7 46 bd 86 c9 84 bd
       -0.03290478 -0.027176404 -0.04857625 -0.0648375
000290 11 49 af bd b9 b1 3e bd 74 34 39 bd fa 21 7a bc
       -0.08558858 -0.04655621 -0.04521604 -0.01526689
0002a0 a5 5d 6e 3d 49 29 60 3d d6 70 24 3d a4 ef 80 bd
       0.058194775 0.054726873 0.04014667 -0.06295708
0002b0 9e 13 d7 3c 3b 66 f9 3c ef 03 4e bd 27 33 e3 bc
       0.026254471 0.030444255 -0.05029672 -0.027734352
0002c0 33 1c 00 3d 21 a3 61 bd 5a 97 27 bd 87 ca 5a 3c
       0.031276893 -0.055087212 -0.040915824 0.01335395
0002d0 01 35 b4 3d bd 64 b2 3d c6 72 a8 3d c1 32 74 bc
       0.08799172 0.087106206 0.08225016 -0.014904679
0002e0 39 2b 16 bd 5b 35 28 3d 8d e4 71 bd cd 6d fd ba
       -0.036662314 0.04106651 -0.059055854 -0.0019335091
0002f0 5c 16 86 bc 48 9c da bd cd 07 f3 bc 99 3d 68 3c
       -0.016368084 -0.106743395 -0.029666806 0.014174842
000300 f3 2b 47 bd 01 27 0e bc 21 b1 b9 3c 2a f2 96 bd
       -0.048625898 -0.008676291 0.02266747 -0.07370408
000310 49 56 90 bb da a2 96 3b 37 f9 a6 bd a8 6e 16 bd
       -0.0044048172 0.00459705 -0.08153003 -0.036726624
000320 95 56 bc bc ed 7d 52 bb d1 35 0a 3d 7e ce 93 3c
       -0.022990504 -0.0032118515 0.03374273 0.0180428
000330 50 75 a5 3b 20 98 18 3d 9c 37 6f bd 02 dd be bd
       0.005049385 0.037254453 -0.058402643 -0.09319498
000340 8c ba c1 bc 68 f4 5f 3c 60 93 d6 bc b1 b6 07 bd
       -0.023648523 0.013669111 -0.02619332 -0.033133212
000350 8c 00 05 bd 14 cf 28 bd 2c 07 57 bc 24 59 57 bd
       -0.032471225 -0.04121311 -0.0131242685 -0.052575245
000360 9d 91 c8 bc 62 d6 9e 3c 12 90 9a 3d 97 84 3d bc
       -0.024483496 0.019389335 0.075470105 -0.011567256
000370 09 33 67 3c ab e1 98 3d f3 ee a7 bc 91 a8 4b 3c
       0.014111289 0.07464918 -0.020499682 0.012430326
000380 68 34 97 3d ad 1a 36 bc 22 47 95 3c 1e a2 58 ba
       0.073830426 -0.011114758 0.018222395 -0.00082639034
000390 9b a7 7a bd 98 39 3a bc ac 36 4c 3d 6e 56 9d bc
       -0.061194997 -0.0113662705 0.049856827 -0.019206252
0003a0 cf 12 92 bc ed ec 5f bc 38 21 ad 3b e9 e5 a3 bc
       -0.017831234 -0.013667327 0.005283501 -0.02000709
0003b0 66 d3 1a bd a1 26 10 3d 9e 82 40 bb 0f e8 b0 bd
       -0.03779926 0.03519309 -0.002937473 -0.08638012
0003c0 d5 82 3d 3d 44 7e 06 3d ce 6f b9 bd 4b 97 d0 bc
       0.04626735 0.03283526 -0.09054528 -0.025462767
0003d0 36 aa 11 3d 79 4a 2d bd 9b 19 f8 3c 64 4c 70 3d
       0.035562716 -0.04230735 0.030285647 0.0586666
0003e0 5c be 7f bc 79 55 82 3d e7 a2 8c 3d f4 66 1c bc
       -0.01560935 0.06363959 0.06867009 -0.00954603
0003f0 83 76 75 3d c7 e4 0d 3d 76 d1 46 bc a5 7d 8a 3d
       0.059927475 0.034642007 -0.0121349 0.06762246

onnx::Conv_56 f4 [64]
000000 ad 21 ac 3e be dd bd 3e 4a c0 73 3e 26 d3 91 3f
       0.33619443 0.37083238 0.23803821 1.1392562
000010 50 00 25 bd 00 8c 68 3d db bf 77 3f 5c eb af bd
       -0.0402835 0.05677414 0.96777123 -0.08589813
000020 96 ce 90 3f 20 61 a0 3e 96 65 fc be 42 42 43 3f
       1.1313045 0.313241 -0.49296254 0.76272976
000030 2f 64 4b be 2c 14 1e 3f 40 d8 d7 3d b5 31 50 3f
       -0.19862436 0.6174953 0.10539293 0.81325847
000040 2a 44 92 3e 56 df d1 3e b4 0b 1c 3e 54 74 63 bf
       0.2856763 0.40990704 0.1523884 -0.8884938
000050 c0 ed 07 bd f4 ac 9b bf 86 dc 24 be 36 74 9b bd
       -0.03318572 -1.2162156 -0.16099748 -0.07590525
000060 e3 48 90 3e 34 16 38 3f f0 14 52 bd 58 f6 65 3d
       0.28180608 0.7190888 -0.0512895 0.056143135
000070 f3 44 2a be 99 b3 35 be 81 e3 e9 3e ad f2 17 3f
       -0.16627865 -0.17744292 0.45681384 0.5935467
000080 5b cc 3e 3e 48 1d 51 3f b0 f8 f0 3c f5 e4 ac 3e
       0.18632643 0.81685305 0.029415458 0.3376843
000090 20 5c 0d 3c 58 ca 64 3e ac bc cb be e4 d3 41 3f
       0.008627921 0.22342813 -0.39792383 0.75713944
0000a0 b4 aa 48 3f 64 97 aa 3e a0 45 96 3e 88 72 24 3f
       0.7838547 0.33318627 0.29349995 0.6423726
0000b0 f6 d1 a4 bf e6 15 78 3e 0f 17 29 3f 9c d6 09 3f
       -1.2876575 0.24227104 0.6605081 0.5384309
0000c0 02 2d ee 3e 1b 37 75 bf 40 26 c4 3e 60 91 11 3f
       0.46518713 -0.9578721 0.38310432 0.5686245
0000d0 da fb 7b 3e ad 2a 33 3e 9c 75 4a 3f 6a b3 e5 be
       0.24607792 0.17496748 0.7908571 -0.44863445
0000e0 43 88 ef 3e 0f df 95 3e 2e 47 08 bf 7f 5c 82 3f
       0.46783647 0.29271743 -0.5323361 1.0184478
0000f0 df 1c d2 3e 9c b9 63 3e 48 03 8a 3e cd f7 73 3f
       0.41037652 0.22238773 0.26955628 0.9529999

onnx::Conv_58 f4 [64, 64, 3, 3]
000000 da 6e 09 bd 53 e9 89 3d 05 14 4f 3c b1 77 b7 3d
       -0.033552982 0.06733956 0.01263905 0.08958376
000010 96 b1 d2 3c 67 89 b5 bd 9d b2 d9 3b 13 99 9c bd
       0.025719445 -0.08864098 0.006643607 -0.07646384
000020 c5 ea 6c bd 0b a7 bf 3b d1 a4 9a 3d 0c eb 76 3d
       -0.05784108 0.0058487705 0.075509675 0.060282752
000030 e0 a4 16 3e e3 c5 be 3d 3f 1d ee 3d 60 dc 51 3d
       0.14711332 0.09315088 0.11626672 0.051235557
000040 8f 2e 12 3d 92 aa e4 3c 1f a8 5f 3e e9 1e 0f 3e
       0.035688933 0.027913366 0.21841477 0.13976635
000050 14 3d 8d 3e b3 06 a0 3e f8 5c 64 3e f2 98 97 3e
       0.2758566 0.3125511 0.2230109 0.29608876
000060 4a 04 27 3e e3 1a af 3d f2 54 76 3e 91 e0 ce bc
       0.1631023 0.0855005 0.24055842 -0.025253566
000070 ad 2b 18 bd cc 59 de bd 2b 60 c0 bd 72 83 04 be
       -0.037151027 -0.10856971 -0.093933426 -0.12940767
000080 8b c7 3a be ec 92 87 bd 5a 27 51 be 90 a1 b7 bd
       -0.18240182 -0.0661982 -0.20425168 -0.089663625
000090 95 ed c5 bd 1f 98 e8 bc 09 58 3c be 35 a2 67 bd
       -0.09664456 -0.02839285 -0.18392958 -0.056551177
0000a0 b8 5f 84 bd 97 db 52 be 11 6a 88 be e2 c1 3a be
       -0.064635694 -0.2059158 -0.26643422 -0.18238023
0000b0 b2 20 ae be 47 5b 86 be 9a 46 80 bd a3 25 04 be
       -0.3400932 -0.26241514 -0.06263466 -0.12904982
0000c0 b5 1b fb bd c7 e0 07 be 50 40 5b be 8f 0c 4b be
       -0.12261144 -0.1326934 -0.21411252 -0.1982901
0000d0 c5 47 a2 bd 49 95 ea bd 1d 12 c4 bc 58 ab fc bc
       -0.07923845 -0.11454255 -0.023934418 -0.030843422
0000e0 aa c2 7a 3c 03 0b 12 3d f2 b4 f9 3d f0 c7 30 3e
       0.015305201 0.035655033 0.12192716 0.1726377
0000f0 61 dd 35 3e 2e bf 7f 3d 78 77 85 3e ff f7 bf 3d
       0.1776023 0.062438183 0.2606771 0.093734734
000100 53 44 0e bc 8a a0 92 bc fd 25 43 bb 10 9e 34 3d
       -0.008683282 -0.017898817 -0.0029777281 0.044096053
000110 18 a6 1b 3d 65 66 0f 3b c6 73 31 bd 69 b5 f4 3d
       0.038000196 0.00218811 -0.0433233 0.11948664
000120 44 da b4 3e 1c f6 59 3e 79 9f 50 3e d3 40 a0 3e
       0.35322773 0.2128529 0.20373334 0.31299457
000130 f3 5b dd 3e 44 bd c3 3e 3a f7 93 3e 02 17 4a 3e
       0.43234214 0.38230336 0.28899556 0.1973534
000140 f8 02 84 3e 14 c4 75 be ac 7c 63 bd 62 45 f4 bd
       0.25783515 -0.24000579 -0.05553882 -0.11927296
000150 f5 6d 40 be 21 94 35 be a7 6e 28 be c9 f0 75 bd
       -0.18791945 -0.17732288 -0.1644846 -0.060044084
000160 e9 15 b7 bd b0 81 a1 bd 9e 5c 8c 3c 74 70 36 3d
       -0.08939726 -0.07886064 0.017134007 0.044540837
000170 6d 79 01 3e a9 b5 d8 bc b4 29 37 bc 61 a6 6b 3c
       0.12643977 -0.02645381 -0.011179376 0.01438293
000180 64 20 7c be 6a dc 0b be cf 45 c1 bd b1 04 c0 3d
       -0.24621731 -0.136583 -0.09437143 0.09375895
000190 27 72 1f 3d 4e cb 3c 3e 71 bc 8a 3d d4 4f f9 3d
       0.038927224 0.1843693 0.067742236 0.12173429
0001a0 85 70 d6 3d f4 44 db bd 4b fc 01 3e f0 c5 14 3e
       0.1047068 -0.10706511 0.12693898 0.14528632
0001b0 03 2e 4b 3e df 77 77 3e 75 f5 ce 3e 05 f1 e4 3e
       0.19841771 0.24166821 0.40421644 0.44715133
0001c0 5a 78 90 3e 4b 3e a9 3e 60 8c f7 3e 59 0d 90 3e
       0.2821682 0.33055338 0.48349285 0.28135183
0001d0 45 7c 9a 3e 27 ea 6e 3d 24 4e fe 3d 48 fe 9b bc
       0.30172935 0.058328774 0.12417248 -0.01904215
0001e0 2e 1d 47 3e 37 9a 60 3e be 2f 30 3e 95 49 52 3e
       0.19444725 0.21933828 0.17205712 0.20535882
0001f0 02 72 20 3e 7a 9c 1f 3e ea fb 8b be e1 ca 87 bd
       0.1566849 0.15587035 -0.27340633 -0.06630493
000200 14 be 6f be 98 af a5 bd 10 e1 c2 3d 0a 62 45 3d
       -0.23412353 -0.080901325 0.095155835 0.0481892
000210 98 6b 23 be 0a 42 a7 3c a2 97 24 be e7 34 48 be
       -0.15959013 0.020417232 -0.16073468 -0.1955143
000220 42 ce 23 be e7 9f 11 bd cd aa 9c be 6e b3 13 bd
       -0.1599665 -0.035552885 -0.3059906 -0.03605979
000230 ea 70 6c be a0 36 a0 be 13 2d e3 be 56 de cd be
       -0.23089948 -0.31291676 -0.44370326 -0.4020869
000240 1c c6 f4 bc 8c 7d c8 3c 19 05 4b be 5e 6a 8d bd
       -0.029879622 0.024473928 -0.19826163 -0.069050536
000250 90 8a 68 3d d4 1f a2 be 5f 8b 0e be 10 2b 68 bc
       0.05677277 -0.31664908 -0.13920353 -0.014170423
000260 0f 62 42 be 66 72 10 be 03 37 12 bd 3a 4e 77 3c
       -0.18982719 -0.1410614 -0.035696995 0.015094334
000270 4c 2a bd bd 40 db 03 bc 81 9e 47 3c c6 55 af 3d
       -0.09236583 -0.008047879 0.012183786 0.08561282
000280 26 ff 6a 3d 7a ee c3 3c 35 39 f4 3d 0b 66 25 3d
       0.057372235 0.023917425 0.11924974 0.04038052
000290 6e cc aa 3c e6 86 1c 3d 84 37 71 3d 05 72 9a bc
       0.020849433 0.038214587 0.058890834 -0.018853197
0002a0 23 28 ef bd b0 4e 1d 3c f7 be 6e bc 93 00 98 3c
       -0.11677577 0.00960128 -0.014571897 0.018554961
0002b0 7b 66 2e bd a7 9d ae bd b4 07 94 bd ba cc 67 3d
       -0.0425782 -0.085261635 -0.07228032 0.056591727
0002c0 8d 87 9c 3d 98 3d 9d bd 55 8b a0 3d 4f 17 14 3e
       0.07643042 -0.07677764 0.078390755 0.14462017
0002d0 b3 89 83 bd cd df 8b bd ac 71 97 bd 03 5e 10 3d
       -0.064227484 -0.06829796 -0.07394728 0.035245907
0002e0 68 ea 27 3e 62 e7 cb 3d 64 be 36 bc 97 10 88 3c
       0.16398013 0.09956242 -0.011153791 0.016609473
0002f0 b0 23 be 3d 3b 8f eb bd a7 99 b6 bd e4 22 fe 3c
       0.092841506 -0.115019284 -0.089160256 0.031022497
000300 e5 de b5 bc 2d 0c df bd 93 8b 92 bd 98 65 79 bd
       -0.022201011 -0.10890994 -0.07155528 -0.060887903
000310 c6 21 ac bd db 67 1e be ea 4c cb bd 4a a0 83 bd
       -0.08404879 -0.15469305 -0.099267796 -0.06427057
000320 f2 0c de bd e2 fc a0 3c 3b a0 09 bd ad df d1 bd
       -0.10842313 0.019651834 -0.033600073 -0.10247741
000330 94 ef 36 be fc 1c 81 bd 5d 02 41 be ff 56 03 bc
       -0.1786483 -0.063043565 -0.18848558 -0.008016347
000340 43 bf bc bd 4e 66 e8 bb 66 7c 3b 3d c8 0a 5f 3d
       -0.09216168 -0.007092274 0.045772932 0.05445364
000350 43 c5 c0 3b c6 18 2b 3e ab 56 c5 3d 12 3f dc 3d
       0.0058828904 0.16708669 0.09635671 0.10754217
000360 8a 9a 0b be 1c a9 73 bb 42 65 d9 bd 05 26 09 bd
       -0.1363317 -0.0037179654 -0.106150165 -0.033483524
000370 00 bc 56 3d db d4 f6 3c df a4 2e 3c 39 b8 c8 3d
       0.052425385 0.030130794 0.0106594255 0.09800763
000380 99 1e 4b bc 5d 82 24 be 61 9d c2 3b bd a4 be bc
       -0.012397432 -0.16065355 0.005939171 -0.023271913
000390 f4 3c 42 be 72 47 a3 bd 4b c5 a8 bd af fc 26 be
       -0.18968564 -0.079726115 -0.08240756 -0.16307329
0003a0 b3 f0 e7 bd 3b 8e 60 be a3 de de bd 45 d6 09 be
       -0.113252066 -0.21929257 -0.10882308 -0.13460644
0003b0 c0 a2 a2 bd 37 a7 d1 bd 3b ee 86 bd 4b f6 36 bd
       -0.07941198 -0.10236972 -0.065884076 -0.044668477
0003c0 e3 0d ea b8 54 de 05 bd 57 42 4f 3d c4 6b f3 3e
       -0.00011160576 -0.03268273 0.050600376 0.47543156
0003d0 31 25 f3 3d 18 ed 3a 3e ac 9e 41 3e c7 b2 83 3d
       0.11872328 0.18254507 0.18908185 0.064305834
0003e0 f1 13 39 bd d4 4e 9b 3e e5 6c cd 3d 4c 41 40 3e
       -0.045185033 0.3033358 0.100305356 0.18774909
0003f0 39 ee e6 bd c5 6c d7 bd 1a 87 97 bc ff 60 e2 bd
       -0.11275906 -0.10518793 -0.018497039 -0.11053657

onnx::Conv_59 f4 [64]
000000 cd 06 10 c0 9c 3f 78 3f 62 07 2d 3f db f7 d9 bf
       -2.250415 0.9697206 0.6758939 -1.7028764
000010 1a 23 f9 bd e9 dc ca be a7 ce b9 be 27 5e eb bf
       -0.12164898 -0.39621666 -0.36290476 -1.8388108
000020 0a 57 1d 3f 7a c5 80 be 64 57 2f bf a8 1a 1c bf
       0.61460936 -0.25150663 -0.6849272 -0.60978174
000030 6b 6b 7e bf 18 ad c1 bf 90 7a 80 3d af 17 06 c0
       -0.99382657 -1.5130949 0.06273377 -2.0951955
000040 00 fb 67 3d 86 a3 ae bf 13 fc 83 be 16 65 88 be
       0.056635857 -1.3643653 -0.25778255 -0.26639622
000050 1a 60 08 bf 58 af a8 3c 19 79 a4 3e 1e c0 43 c0
       -0.5327164 0.020591423 0.3212364 -3.058601
000060 a0 5e b3 bf 0c e1 c3 bf b8 c9 b4 bf aa 07 df bf
       -1.4013252 -1.5303054 -1.412406 -1.7424214
000070 9e 9e 41 bf c6 c5 44 bf 94 d9 5d bf 8b c8 ad bf
       -0.75632656 -0.7686428 -0.8666012 -1.3576826
000080 46 64 79 3f 38 ec 14 c0 7e 0a 9b bf 53 9f 9e bf
       0.9741863 -2.3269176 -1.2112577 -1.2392372
000090 08 11 8a bf 58 a9 40 bf 02 1c ba bf 52 ff 84 bf
       -1.0786448 -0.752584 -1.4539797 -1.0390418
0000a0 25 9e 8a bf b4 6d 5e 3f e0 3b 3b bf f6 6b 46 bf
       -1.0829512 0.86886144 -0.73138237 -0.77508485
0000b0 a8 b8 d4 bf 5b 94 62 bf d8 03 6b bf fa ea 6e be
       -1.6618853 -0.8850762 -0.9180274 -0.23331824
0000c0 a3 92 94 bf ae c7 a2 3e 8c fe 03 c0 20 09 b2 be
       -1.160725 0.3179297 -2.0624113 -0.34772587
0000d0 8e 15 17 3f 6c 58 12 bf 80 98 b1 3d 57 62 64 bf
       0.59017265 -0.5716617 0.08671665 -0.89212555
0000e0 a0 7a 4b 3c 88 8d 24 3f 70 ca c2 be 53 35 b0 be
       0.012419373 0.6427846 -0.38045073 -0.34415683
0000f0 16 9c 10 3f d5 eb d4 bf d9 1c e7 bf d6 ef 99 3e
       0.5648817 -1.663447 -1.8055679 0.30065793
