qt_digit_recognize/mnist-code/mnist_augmented_cnn.pth (torch, 276052 bytes, 26 tensors)

features.0.weight f4 [32, 1, 3, 3]
0	0x3d494549	0.04913834
1	0x3e382971	0.17984559
2	0xbe843e18	-0.25828624
3	0xbd54bb32	-0.051936336
4	0xbd030fa2	-0.03199733
5	0x3e244f06	0.1604577
6	0x3eb0d840	0.34539986
7	0xbe9b1476	-0.30289048
8	0xbd3177f0	-0.043327272
9	0xbdfd720a	-0.12375267
10	0xbc473bc8	-0.012160249
11	0x3c558d50	0.01303418
12	0xbeaad9aa	-0.3336919
13	0x3cc2c517	0.02377562
14	0x3e19b389	0.15009893
15	0x3e89f265	0.26942745
16	0x3e32c2f5	0.17457183
17	0x3d840aed	0.064473964
18	0xbd13f306	-0.036120437
19	0x3e082f64	0.13299328
20	0x3e80441a	0.25051957
21	0x3dea857f	0.114512436
22	0x3e00319e	0.12518927
23	0x3e04e92d	0.12979575
24	0xbd8875c3	-0.06663086
25	0xbdbcc2a4	-0.09216812
26	0xbe8bc91c	-0.27301872
27	0xbe2a43d8	-0.16627443
28	0x3e14bc00	0.14524841
29	0x3e040c11	0.12895228
30	0x3de92302	0.1138363
31	0x3e499395	0.19685204
32	0x3e66d3bd	0.22541709
33	0xbe70ced3	-0.23516397
34	0xbe6509ba	-0.22366992
35	0x3e30172f	0.17196344
36	0xbcd53b27	-0.026029183
37	0xbdae8ba0	-0.08522725
38	0xbeafa10a	-0.3430255
39	0xbb0a8321	-0.0021135288
40	0x3c832b16	0.016011756
41	0xbe63b8b0	-0.22238421
42	0x3eb685cc	0.35648954
43	0x3e9ecbe3	0.31014928
44	0x3cd00c84	0.025396593
45	0x3eb741ce	0.35792392
46	0xbdd6472d	-0.104627945
47	0x3e8431ad	0.2581915
48	0x3e5630b7	0.2091702
49	0x3e3d8ba4	0.185103
50	0x3d39af9f	0.0453335
51	0xbc80f8f4	-0.01574371
52	0xbea9f9b2	-0.33198315
53	0x3e72915d	0.23688264
54	0xbe62964e	-0.22127649
55	0xbe0aa65e	-0.13540027
56	0xbd5cfc31	-0.053951446
57	0x3e3c535f	0.18391179
58	0x3e06bdaa	0.13158289
59	0xbdd6c121	-0.10486055
60	0x3c64be76	0.013961425
61	0xbe0aa6a9	-0.13540138
62	0x3e8f3075	0.27966657
63	0xbe44d1b0	-0.19220614
64	0x3c207eca	0.009795854
65	0x3dbd5f22	0.09246661
66	0xbe01c044	-0.12671
67	0xbd8abc26	-0.06774168
68	0x3d171948	0.036889344
69	0xbe6ae5ab	-0.22939174
70	0xbc5a3ce0	-0.013320178
71	0x3e95e60a	0.29277068
72	0x3e960eac	0.2930807
73	0xbcfff813	-0.03124622
74	0x3ea5f9e4	0.32417214
75	0xbe565bcf	-0.2093346
76	0x3a771331	0.0009425162
77	0xbdc2298b	-0.0948058
78	0x3dc8d9b6	0.0980715
79	0x3a801002	0.0009770396
80	0x3da85f3b	0.08221289
81	0x3e584a14	0.21122009
82	0x3d5243ca	0.05133418
83	0x3ea21b29	0.31661347
84	0xbd20db57	-0.03927168
85	0x3d68c373	0.05682702
86	0xbe17074d	-0.14748879
87	0xbe831559	-0.25602224
88	0xbe63beb7	-0.2224072
89	0xbc43372b	-0.011915009
90	0xbe408cd1	-0.18803717
91	0x3c8ec66c	0.0174286
92	0xbe7b265e	-0.24526355
93	0xbe023f04	-0.12719351
94	0xbda30c19	-0.07961292
95	0xbe140795	-0.14456017
96	0xbe3957a3	-0.18099837
97	0xbe81fb2a	-0.25386935
98	0x3c8b813a	0.017029393
99	0x3e0e2c4f	0.1388409
100	0x3e5a5057	0.2131971
101	0xbe7c8034	-0.2465828
102	0x3df87272	0.12131204
103	0xbd4ade7b	-0.04952858
104	0xbe1a8ce6	-0.15092811
105	0xbb281651	-0.0025648067
106	0xbcce5a55	-0.025189558
107	0xbe95b31e	-0.29238218
108	0xbd83c133	-0.06433334
109	0x3e2cd2cb	0.16877286
110	0xbe00630b	-0.12537782
111	0xbbb7dfac	-0.0056113806
112	0x3e62eb03	0.22159962
113	0xbe32354a	-0.1740314
114	0x3e7da686	0.24770555
115	0x3e49136f	0.1963632
116	0xbe99c533	-0.30033264
117	0xbe799d6a	-0.24376455
118	0x3ddf7955	0.10911814
119	0x3e7a0bf8	0.24418628
120	0x3d1798e4	0.037011042
121	0x3e6c0f07	0.23052607
122	0x3d1db264	0.038500205
123	0xbe95726b	-0.29188856
124	0xbdbf72a6	-0.09348039
125	0xbd55382a	-0.052055515
126	0xbd3ab403	-0.04558183
127	0xbe879d09	-0.26486996
128	0xbdb98e0e	-0.09060298
129	0x3ea2cb5b	0.31795773
130	0xbd5a4478	-0.053287953
131	0xbdf211fb	-0.11819836
132	0x3d386a73	0.045023393
133	0x3b4764cd	0.0030425072
134	0xbe2f6752	-0.17129257
135	0x3e209260	0.15680838
136	0x3e7a68d0	0.24454045
137	0x3ea23769	0.316829
138	0x3e9dd8cc	0.30829465
139	0x3e3afa82	0.18259624
140	0xbe8b2522	-0.27176768
141	0xbdcd3096	-0.10019033
142	0xbe6e9a24	-0.23300987
143	0xbe80b3e3	-0.25137243
144	0xbca9c6ce	-0.02072468
145	0x3e0ff0ac	0.14056653
146	0x3c3b571e	0.011434345
147	0x3dd098f0	0.101854205
148	0x3d4e034f	0.050296124
149	0x3e469cd0	0.19395757
150	0x3d156f0d	0.03648286
151	0xbd50317f	-0.050828453
152	0xbe9d9055	-0.3077418
153	0x3eafadb5	0.34312215
154	0xbe85e8b6	-0.26154107
155	0xbdb937f1	-0.09043873
156	0x3e32107e	0.17389104
157	0xbd8f4a2f	-0.06996571
158	0xbe8ffd01	-0.28122714
159	0x3ea41931	0.3205047
160	0x3e49977a	0.1968669
161	0x3d3f5a65	0.046717066
162	0x3de8a96b	0.11360439
163	0xbe737b99	-0.23777618
164	0x3deed625	0.116619386
165	0xbc637cf5	-0.013884773
166	0xbe7cf29d	-0.24701925
167	0xbd6876c4	-0.05675389
168	0xbd140070	-0.03613323
169	0x3e301078	0.17193782
170	0x3ef938b0	0.48676062
171	0x3ea2c330	0.3178954
172	0xbd848539	-0.06470723
173	0xbeb323f5	-0.3498837
174	0x3e842501	0.25809482
175	0x3ddc6e24	0.10763195
176	0x3a129776	0.00055920274
177	0xbe133369	-0.1437508
178	0x3d5ea920	0.05436051
179	0x3cbafa80	0.022824526
180	0xbe94bbd9	-0.29049566
181	0xbe06fa82	-0.13181499
182	0x3e017793	0.1264327
183	0x3e2495ed	0.16072817
184	0xbdbe2b75	-0.092856325
185	0xbd3db255	-0.04631265
186	0x3e8d32e2	0.27577883
187	0xbce109a1	-0.027470412
188	0x3d4e167e	0.05031442
189	0xbe25c8ee	-0.1618993
190	0xbe6adac1	-0.2293501
191	0x3e626ccd	0.22111817
192	0xbe0b08b9	-0.13577546
193	0xbe0529c1	-0.13004209
194	0x3c91e0be	0.01780736
195	0xbe28760d	-0.16451283
196	0x3c992adb	0.018697193
197	0x3d498c31	0.049205963
198	0x3d342c8d	0.0439878
199	0x3d42a498	0.04752025
200	0x3d8bdd9a	0.068293765
201	0x3dc4d831	0.09611548
202	0x3dc4a2c4	0.096013576
203	0xbe59844d	-0.21241875
204	0xbe53b7a9	-0.2067553
205	0xbe5f92ec	-0.2183339
206	0xbe1f43bc	-0.15553182
207	0xbeabb683	-0.33537683
208	0xbe69da4c	-0.2283718
209	0xbe1804dd	-0.14845605
210	0xbdfa596d	-0.12224088
211	0x3dd50995	0.10402218
212	0x3e06a2de	0.13148066
213	0xbe73b5d1	-0.23799826
214	0x3e61a216	0.22034487
215	0xbc537b4d	-0.012907815
216	0x3e8ea177	0.27857563
217	0x3e2d8518	0.16945302
218	0xbe75a716	-0.2398952
219	0xbc63ad12	-0.013896244
220	0xbe0da83d	-0.13833709
221	0xbe6fa525	-0.23402841
222	0xbc5cfba4	-0.01348773
223	0xbd60b5b7	-0.054860797
224	0xbd619ec0	-0.055083036
225	0x3e6ee9bd	0.23331352
226	0x3dd8066f	0.10548102
227	0x3e127048	0.14300644
228	0x3e834be7	0.25643846
229	0x3cad542d	0.021158302
230	0xbe755c3c	-0.23960966
231	0x3e271b0e	0.16318914
232	0xbe86b3dd	-0.263091
233	0xbe0b2c6e	-0.13591167
234	0xbe5953aa	-0.21223322
235	0xbe7d89c9	-0.24759592
236	0xbeabf26a	-0.33583385
237	0xbb75b0e3	-0.0037489466
238	0x3e597d76	0.21239266
239	0xbe0106f3	-0.12600307
240	0x3e09118a	0.13385597
241	0x3c8aa63a	0.016924966
242	0xbe0896f8	-0.1333884
243	0x3e3eeb8a	0.18644539
244	0x3e78ee0f	0.24309562
245	0xbdbdbb11	-0.09264196
246	0xbcb3f78b	-0.021968624
247	0x3e58c594	0.2116912
248	0x3e229097	0.15875469
249	0xbea0e651	-0.31425717
250	0xbd17705c	-0.03697239
251	0xbe1aa948	-0.15103638
252	0xbe5319ab	-0.2061526
253	0xbdf2b87e	-0.11851595
254	0xbe27aeb6	-0.1637524
255	0x3e78bac9	0.24290003

features.0.bias f4 [32]
0	0xbe87d9fd	-0.265335
1	0xbe6b8826	-0.23001155
2	0xbe984b6d	-0.29745045
3	0xbd32d197	-0.04365691
4	0xbe4a5743	-0.1975985
5	0x3ea6eb83	0.32601556
6	0xbe1051af	-0.1409366
7	0x3e19158a	0.14949623
8	0x3e20a7de	0.15689036
9	0xbd990bf5	-0.07472984
10	0xbe96638f	-0.29372832
11	0xbe89b394	-0.2689482
12	0x3e0549a2	0.1301637
13	0x3df60fd5	0.120147385
14	0x3ea939d8	0.33051944
15	0xbda96e75	-0.08273021
16	0xbd82e491	-0.06391252
17	0x3e6828dc	0.22671837
18	0x3d7afe46	0.06127765
19	0xbe00bfd5	-0.12573178
20	0x3e78b83d	0.24289031
21	0x3d9dce24	0.07705334
22	0xbcb08ce4	-0.021551557
23	0x3eae15db	0.3400105
24	0xbdb45736	-0.08805697
25	0x3ca89e13	0.020583188
26	0xbe339310	-0.17536569
27	0xbd85ae94	-0.06527439
28	0xbe63fdbc	-0.2226476
29	0x3e6b2290	0.22962403
30	0xbe9a1ee1	-0.30101684
31	0xbe9c85cc	-0.3057083

features.1.weight f4 [32]
0	0x3f5ee6ad	0.87070733
1	0x3f7a6ea5	0.9782508
2	0x3f6e24f2	0.93025124
3	0x3f64ea81	0.89420325
4	0x3f838166	1.0273864
5	0x3f549a8a	0.8304831
6	0x3f47387c	0.77820563
7	0x3f868ab5	1.051108
8	0x3f6d9981	0.92812353
9	0x3f812a24	1.0090985
10	0x3f6ec10c	0.93263316
11	0x3f851b0f	1.0398883
12	0x3f843ec6	1.0331657
13	0x3f78e41f	0.97223085
14	0x3f7666f0	0.9625082
15	0x3f7de627	0.9917931
16	0x3f6666c5	0.90000564
17	0x3f89f370	1.0777416
18	0x3f665bee	0.89984024
19	0x3f81e490	1.0147877
20	0x3f73a26a	0.951697
21	0x3f76d42e	0.9641751
22	0x3f81e024	1.0146527
23	0x3f6a8d5d	0.91621953
24	0x3f8b9869	1.0905887
25	0x3f78c1b6	0.9717058
26	0x3f74a526	0.95564497
27	0x3f623af6	0.8837122
28	0x3f625c74	0.8842232
29	0x3f6db641	0.9285622
30	0x3f858368	1.0430727
31	0x3f67a982	0.90493023

features.1.bias f4 [32]
0	0xbe0a0006	-0.13476571
1	0xbe14392c	-0.14474934
2	0xbe4af3cd	-0.19819565
3	0xbe36bf5f	-0.1784644
4	0xbe6a85d7	-0.22902618
5	0xbe2a467d	-0.16628452
6	0xbdaefb44	-0.08544019
7	0x3e0bb4fa	0.13643256
8	0x3cf082d0	0.029359251
9	0xbccca1c6	-0.024979483
10	0x3e1096c8	0.14120018
11	0x3e7c2e1d	0.24626966
12	0xbe8c0c3e	-0.2735309
13	0xbb7413c3	-0.0037243224
14	0x3d112e79	0.03544471
15	0xbe7d15b4	-0.2471531
16	0xbe297965	-0.16550215
17	0xbe30db1c	-0.17271084
18	0xbe121f41	-0.14269735
19	0xbe82f539	-0.25577715
20	0xbe293d0a	-0.16527191
21	0x3dc92116	0.09820764
22	0x3e2c5a58	0.16831338
23	0x3e79b6f1	0.24386193
24	0x3da98db0	0.08278978
25	0xbe827206	-0.25477618
26	0x3e629215	0.22126038
27	0xbe4ad0e8	-0.19806254
28	0xbe311c69	-0.17295994
29	0x3d9f426c	0.07776341
30	0x3d16c6b2	0.036810584
31	0xbc32d2e5	-0.010914539

features.1.running_mean f4 [32]
0	0xbe867f00	-0.26268768
1	0xbe64a40a	-0.22328201
2	0xbe97d5a1	-0.29655173
3	0xbd2c4f20	-0.042067647
4	0xbe499d90	-0.19689012
5	0x3eb2d237	0.34926006
6	0xbe127345	-0.14301784
7	0x3e163bc7	0.14671241
8	0x3e3404d8	0.17579973
9	0xbd955b41	-0.07292796
10	0xbea44bea	-0.32089168
11	0xbe8ee581	-0.27909473
12	0x3e0113e2	0.12605241
13	0x3de3e34a	0.11127336
14	0x3ea49a64	0.3214904
15	0xbda046ae	-0.07825981
16	0xbd878768	-0.066176236
17	0x3e78f539	0.24312295
18	0x3da3949d	0.0798733
19	0xbe010e4e	-0.12603113
20	0x3e7d38f9	0.24728765
21	0x3d8ea277	0.069645815
22	0xbd0bfa32	-0.03417415
23	0x3ea2a7c1	0.3176861
24	0xbdbbd23e	-0.0917096
25	0x3cfa7f4e	0.030578282
26	0xbe4a61e7	-0.1976391
27	0xbd916510	-0.07099354
28	0xbe62105a	-0.2207655
29	0x3e5bf6a4	0.21480805
30	0xbe9e397e	-0.30903238
31	0xbea317d3	-0.31854114

features.1.running_var f4 [32]
0	0x3dc98525	0.098398484
1	0x3e57b61f	0.21065567
2	0x3e6b69f5	0.22989638
3	0x3e8d73ce	0.27627414
4	0x3eb31e40	0.34984016
5	0x3f0f4294	0.55960965
6	0x3dbe2edb	0.09286281
7	0x3e690242	0.22754768
8	0x3e358d10	0.17729592
9	0x3e6bd6c8	0.23031151
10	0x3f740f54	0.9533589
11	0x3e980c79	0.29697016
12	0x3e64e72f	0.22353815
13	0x3e32af04	0.17449576
14	0x3e5f3a88	0.21799672
15	0x3f196d92	0.59932816
16	0x3df12ace	0.117757425
17	0x3ec6434a	0.38723212
18	0x3e842493	0.25809154
19	0x3e5a3a88	0.2131139
20	0x3de93631	0.11387289
21	0x3ea4aa15	0.32161012
22	0x3e8723cf	0.26394507
23	0x3eebd516	0.4606101
24	0x3e8e2966	0.2776596
25	0x3ec1896e	0.37800163
26	0x3ee3b019	0.4447029
27	0x3e577db3	0.21044044
28	0x3e8049cb	0.250563
29	0x3eff9ba6	0.49923438
30	0x3f15c7fe	0.5850829
31	0x3e525dc3	0.2054358

features.3.weight f4 [32, 32, 3, 3]
0	0xbcc35ae3	-0.02384705
1	0x3c9f35e5	0.019434879
2	0xbcd38874	-0.025821902
3	0xbb7fd9fb	-0.0039039839
4	0x3c572d7c	0.013133403
5	0xbca3eb0d	-0.020009542
6	0xbd4d7254	-0.05015786
7	0x3d09c5da	0.03363595
8	0x3b6fec28	0.0036609266
9	0x3d0fdff0	0.035125673
10	0x3d6f5141	0.0584271
11	0xbcedad7d	-0.02901339
12	0xbd3519d1	-0.044214074
13	0x3c7b7869	0.015348532
14	0x3d5d6470	0.054050863
15	0x3be86034	0.0070915464
16	0xbd1994ac	-0.0374953
17	0xbcb497e0	-0.022045076
18	0x3d3bada2	0.045819886
19	0xbc57c8bd	-0.013170418
20	0x3a5bf21e	0.0008390265
21	0xbda1a11f	-0.078920595
22	0x3b09ee73	0.0021046668
23	0x3d4049fd	0.04694556
24	0x3c753b70	0.014967784
25	0x3c4db9f5	0.012556543
26	0x3cc5820c	0.024109863
27	0xbd61032e	-0.054934673
28	0xbdbdda22	-0.09270121
29	0xbd5a0bf2	-0.05323405
30	0xbd979eb3	-0.07403316
31	0x3c8fdd28	0.01756151
32	0xbc192d26	-0.009349143
33	0x3d6c466d	0.05768435
34	0xbcbe2e13	-0.02321533
35	0x3d6d1461	0.057880763
36	0xbddf3405	-0.10898594
37	0xbd863f4c	-0.06555042
38	0x3c86419a	0.016388703
39	0xbd48c02a	-0.049011387
40	0xbc88a656	-0.016680878
41	0x3d15d89b	0.036583524
42	0xbe17f04c	-0.1483776
43	0xbbfeef21	-0.007779971
44	0x3da56ff3	0.08077993
45	0xbd557b9e	-0.052119844
46	0xbdb6945a	-0.089150146
47	0xbdab7b27	-0.08373099
48	0xbd74c84a	-0.059761323
49	0xbc8e41e4	-0.017365403
50	0x3aed0d45	0.001808562
51	0xbd99a04c	-0.07501277
52	0xbc9c32b6	-0.01906715
53	0x3d0645f7	0.032781567
54	0xbb24627d	-0.0025083118
55	0xbd2d2ed5	-0.04228099
56	0x3dbe2607	0.09284597
57	0xbd65980e	-0.056053214
58	0x3cb3175a	0.02186172
59	0x3d965ee0	0.07342315
60	0xbc72fbbb	-0.014830525
61	0x3d0d9c20	0.03457272
62	0x3d6962c4	0.056978956
63	0x3b9c25f2	0.0047652656
64	0xbc90a4ba	-0.017656673
65	0xbd097d1d	-0.033566583
66	0x3c133ca0	0.008986622
67	0x3d90a6df	0.07063078
68	0x3d05c766	0.032660864
69	0x3dd94e68	0.10610658
70	0x3db30528	0.08741218
71	0x3dcb5c58	0.099297225
72	0xbce9de2d	-0.028548324
73	0xbdd0fffd	-0.10205076
74	0xbdf155b0	-0.11783922
75	0x3d09c5d3	0.033635926
76	0xbb29c1e1	-0.0025902914
77	0x3cef5038	0.029213056
78	0xbb3bc67a	-0.0028652237
79	0xbd224a64	-0.039621726
80	0x3d16aa9c	0.0367838
81	0xbca087d1	-0.019596012
82	0x3ca1596e	0.019695964
83	0x3d9f5e58	0.077816665
84	0xbd707b43	-0.0587113
85	0x3ba6555c	0.0050760936
86	0x3dd5f684	0.1044741
87	0xbd793be4	-0.06084813
88	0x3cc496cc	0.023997687
89	0x3d1e05ee	0.038579874
90	0xbd9256fb	-0.071454965
91	0xbb7face4	-0.0039012963
92	0x3b774d02	0.003773511
93	0xbd832657	-0.06403797
94	0x3ce0ee48	0.027457371
95	0xbd6ca579	-0.057774995
96	0xbdb8c58b	-0.09022053
97	0xbda19de8	-0.07891446
98	0xbdbd0b61	-0.09230686
99	0xbd8951ec	-0.067050785
100	0xbd4af61f	-0.049551126
101	0xbcdffd9b	-0.027342608
102	0x3d71afa2	0.059005387
103	0x3d024e4c	0.03181295
104	0xbca5b083	-0.020225769
105	0x3ddc1073	0.10745325
106	0x3cd9ccdb	0.02658694
107	0xbcc14e72	-0.023596976
108	0xbc9e8ab8	-0.019353256
109	0x3cb91343	0.022592193
110	0xbcd48249	-0.025941031
111	0xbc9d6102	-0.019211296
112	0x3baf9dbb	0.005359379
113	0x3d013fb5	0.031554896
114	0x3dacdd0c	0.08440599
115	0x3d5db742	0.054129846
116	0x3c7a0e06	0.0152621325
117	0xbd96048c	-0.07325086
118	0xbd72e0cb	-0.05929641
119	0xbd93daae	-0.07219444
120	0xbd3c17e3	-0.045921218
121	0xbca351eb	-0.019936522
122	0x3cd0b3dd	0.02547639
123	0xbc82d4c3	-0.015970593
124	0x3cdd7de7	0.027037574
125	0x3c6c02ae	0.014404936
126	0xbd641eea	-0.055693544
127	0xbd37392d	-0.04473226
128	0xbdc45e83	-0.09588339
129	0xbbb26b2f	-0.005444906
130	0x3d610a89	0.054941688
131	0x3cbfeca3	0.023428267
132	0xbcb75d10	-0.022383243
133	0x3cfcd3a4	0.030862637
134	0x3c685b02	0.014181854
135	0x3d1a02eb	0.03760044
136	0x3d89fe59	0.06737966
137	0x3d8c7580	0.06858349
138	0xbc4da419	-0.012551331
139	0x3c37b35d	0.011212197
140	0x3d9c6910	0.076372266
141	0x3c049923	0.008093151
142	0x3be82e02	0.0070855627
143	0x3ca6f9a9	0.02038272
144	0x3c75fa50	0.015013292
145	0x3d41782b	0.04723374
146	0x3d1dc7d0	0.038520634
147	0x3d282240	0.04104829
148	0xbc3ff0de	-0.011715142
149	0x3d1d326c	0.038378164
150	0xbd40951c	-0.0470172
151	0x3be4b1ae	0.006979189
152	0x3da9ef32	0.08297576
153	0xbdb351ca	-0.087558344
154	0xbd47595a	-0.048669197
155	0xbd9d8f67	-0.076933675
156	0xbd2df01a	-0.042465307
157	0xbc0f572b	-0.00874881
158	0x3d2ff384	0.042956844
159	0xbdb67df5	-0.08910743
160	0x3d11957c	0.03554295
161	0x3db5ba2f	0.08873402
162	0xbc42fbdb	-0.011900867
163	0x3cb551ed	0.022133792
164	0x3d0175ef	0.03160661
165	0xbb7d6448	-0.0038664509
166	0x3d1239b9	0.03569958
167	0x3d1592a4	0.0365168
168	0x3c44c301	0.012009383
169	0x3d6c8038	0.057739466
170	0x3d26e10f	0.040741976
171	0xbd35714e	-0.04429751
172	0xbd5126d5	-0.051062424
173	0xbdae0557	-0.08497112
174	0x3d2c7ebb	0.042113047
175	0xbd74d064	-0.05976905
176	0xbc0188d7	-0.00790616
177	0xbd401581	-0.046895508
178	0xbd85ac1b	-0.06526967
179	0xbd090227	-0.03344932
180	0xbd8606ea	-0.065442875
181	0xbc80edb8	-0.015738353
182	0xbd579aad	-0.052637745
183	0xbe067dc6	-0.13133916
184	0xbd821b2c	-0.06352839
185	0xbc6799c0	-0.014135778
186	0xbe2898d8	-0.16464555
187	0x3b56dfc1	0.0032787176
188	0x3d05f356	0.032702766
189	0xbdb4a0c5	-0.08819727
190	0xbdd079f5	-0.101795115
191	0xbe1077a9	-0.14108147
192	0xbdaa9053	-0.08328309
193	0xbd9842c6	-0.07434611
194	0xbd13f35b	-0.036120754
195	0xba2d600a	-0.0006613737
196	0x3ceda58b	0.029009601
197	0x3c9658fe	0.018352982
198	0xba08aab2	-0.0005213424
199	0x3dbb8aaa	0.091573074
200	0x3c0d1982	0.008612039
201	0xbd9151b9	-0.070956655
202	0xbd79ae23	-0.060957085
203	0xbd46a431	-0.04849643
204	0xbd83b5a5	-0.0643113
205	0xbd90af8b	-0.07064732
206	0xbd976084	-0.07391456
207	0x3da8faa7	0.08250933
208	0x3da82599	0.08210296
209	0x3d901b45	0.07036451
210	0x3da2b1cd	0.07944069
211	0x3d84720d	0.06467066
212	0xbcbfe32f	-0.02342376
213	0x3cc1dcd8	0.023664877
214	0x3d2540cc	0.040345
215	0xbd927b66	-0.07152443
216	0xbc343348	-0.0109985545
217	0xbc8e2c93	-0.017355239
218	0xbd7fbecf	-0.06243783
219	0x3c6de8eb	0.014520864
220	0xbd4b25f2	-0.049596734
221	0x3d25c58a	0.04047159
222	0x3d0fd5bf	0.035115954
223	0xbba4425a	-0.0050127925
224	0xbbc45609	-0.0059917015
225	0x3d83a52f	0.06427991
226	0x3b14091d	0.002258844
227	0x3d610283	0.054934036
228	0x3d16822b	0.03674523
229	0xbd284d89	-0.04108957
230	0x3cb77431	0.022394272
231	0x3cdb45b4	0.026766635
232	0x3cf0ad2b	0.029379448
233	0xbc9f8c7b	-0.019476166
234	0xbda035b1	-0.07822741
235	0xbc5a280b	-0.013315211
236	0xbe2573f3	-0.16157512
237	0xbcf3dead	-0.029769266
238	0xbc4ac841	-0.012376846
239	0xbe0e6ff9	-0.13909902
240	0xbd8a0553	-0.06739297
241	0xbd4fc7b9	-0.05072758
242	0xbdb2ca99	-0.08730049
243	0xbd1bf386	-0.03807404
244	0xbb772d87	-0.0037716345
245	0xbdb407aa	-0.08790524
246	0xbdcbafe0	-0.09945655
247	0x3b2da8bd	0.002649828
248	0xbbf38ee6	-0.0074328063
249	0xbd7f7842	-0.062370546
250	0xbd1ae3e3	-0.037814986
251	0x39cfbbce	0.00039622042
252	0xbd092f4f	-0.033492383
253	0x3d3db395	0.04631384
254	0x3c16e3e0	0.009209603
255	0xbd1afb28	-0.037837178

features.3.bias f4 [32]
0	0xbd644892	-0.05573327
1	0xbab72b52	-0.0013974702
2	0x3c2db94a	0.010603258
3	0xbd6cff8f	-0.057860907
4	0x3d0cb161	0.03434885
5	0x3d1ae3ab	0.037814777
6	0xbd5ca393	-0.053866934
7	0xbc29c27f	-0.010361313
8	0x3c75d42c	0.015004199
9	0x3d4530e2	0.04814232
10	0xbd1352ee	-0.03596776
11	0xbcd9ae19	-0.026572274
12	0xbd28665e	-0.04111325
13	0xbc71823d	-0.014740524
14	0x3c4d5334	0.012532044
15	0xbd82e88f	-0.06392013
16	0x3c715812	0.01473047
17	0x3c2903d6	0.010315856
18	0xbc222e20	-0.009898692
19	0xbc0c2240	-0.008553088
20	0xbd58ad96	-0.05289992
21	0x3ca8aac6	0.020589244
22	0xbd52ce93	-0.051466536
23	0x3bb932ec	0.0056518223
24	0xbcd86eea	-0.026420075
25	0xbd6ab4a9	-0.057301197
26	0x3c8a61f5	0.016892413
27	0x3d5f72da	0.05455289
28	0x3a757ac1	0.00093643
29	0x3d618cf6	0.05506607
30	0x3cf6626b	0.030076226
31	0xbd44e585	-0.04807045

features.4.weight f4 [32]
0	0x3f7b5611	0.981782
1	0x3f71bcb1	0.94428545
2	0x3f653698	0.8953643
3	0x3f7663af	0.96245855
4	0x3f7df6b6	0.99204576
5	0x3f611ca0	0.87934303
6	0x3f80a90c	1.0051589
7	0x3f54c8d6	0.8311895
8	0x3f6ea75b	0.93224114
9	0x3f7dc251	0.9912463
10	0x3f62d76b	0.8860995
11	0x3f7cf1e5	0.988066
12	0x3f705735	0.9388307
13	0x3f716265	0.94290763
14	0x3f8f9efa	1.1220391
15	0x3f686b86	0.9078907
16	0x3f6fea2d	0.937167
17	0x3f769000	0.96313477
18	0x3f5ce107	0.86280864
19	0x3f80b24f	1.0054415
20	0x3f745845	0.9544719
21	0x3f7ef08f	0.99585813
22	0x3f70426f	0.9385137
23	0x3f772aa1	0.9654942
24	0x3f3dfc86	0.74213445
25	0x3f8ac2f0	1.084074
26	0x3f84026b	1.0313238
27	0x3f76d8fa	0.9642483
28	0x3f7959bd	0.97402555
29	0x3f5de1aa	0.8667246
30	0x3f81aaad	1.0130211
31	0x3f94b917	1.1618985

features.4.bias f4 [32]
0	0xbead7544	-0.3387853
1	0x3c89580c	0.016765617
2	0xbe08d3a1	-0.1336198
3	0xbeac7fb5	-0.33691183
4	0xbeccf952	-0.40033966
5	0xbeac2d2d	-0.33628216
6	0xbe20b5e5	-0.15694387
7	0xbe948bcc	-0.29012907
8	0x3c267642	0.010160031
9	0x3c070194	0.008240122
10	0xbea8fbd7	-0.3300464
11	0xbe09424c	-0.13404197
12	0xbe9e6f74	-0.30944407
13	0xbdcc596e	-0.09977995
14	0xbe5078bc	-0.20358557
15	0xbe98ecb8	-0.29868102
16	0xbdfadc50	-0.122490525
17	0xbea3af6b	-0.3196977
18	0xbea790fb	-0.327278
19	0x3cc1a769	0.023639398
20	0xbe3e2911	-0.18570353
21	0xbe4700c3	-0.19433884
22	0x3e1b4911	0.15164591
23	0xbef6e685	-0.48222747
24	0xbe86063e	-0.26176637
25	0xbe3b2b2d	-0.18278189
26	0xbe7ebde9	-0.24877132
27	0xbec4ed24	-0.38462174
28	0xbe80dc83	-0.25168237
29	0xbea80d68	-0.32822728
30	0xbd29873a	-0.041388728
31	0xbe83f514	-0.25772917

features.4.running_mean f4 [32]
0	0xbf269305	-0.65068084
1	0xbe45b1cb	-0.19306104
2	0xbe24024a	-0.16016498
3	0xbf185c4d	-0.5951584
4	0xbda2e4af	-0.07953774
5	0xbf74db9b	-0.9564759
6	0xbf62ba68	-0.88565683
7	0xbf05605e	-0.5210017
8	0xbe81d978	-0.25361228
9	0xbeacb342	-0.33730513
10	0xbefc9435	-0.49331823
11	0xbf347afe	-0.7050017
12	0xbf455800	-0.770874
13	0xbfc5f03d	-1.546394
14	0xbebc7a71	-0.36812165
15	0xbfaaf8ab	-1.3357137
16	0xbf3b0143	-0.730488
17	0xbf49bb0d	-0.7880104
18	0xbf590aaf	-0.84781927
19	0xbf974db7	-1.1820592
20	0xbf7c2d6a	-0.98506796
21	0xbf1c54ca	-0.6106688
22	0xbf353ef7	-0.707992
23	0xbf76f036	-0.9646028
24	0xbdb179a8	-0.08665782
25	0xbf24eacb	-0.64420766
26	0xbe82733a	-0.25478536
27	0xbf619b0a	-0.88127196
28	0xbf0b6fa8	-0.5446725
29	0xbf8d2f5c	-1.1030078
30	0xbf2d2db5	-0.6764787
31	0xbe8c5e9a	-0.27415925

features.4.running_var f4 [32]
0	0x3eeb4a6e	0.45955223
1	0x3f85b924	1.0447125
2	0x3f2dacf6	0.6784204
3	0x3f1b8c13	0.6076061
4	0x3f0409ee	0.5157765
5	0x3f769343	0.96318454
6	0x3f32b746	0.69810903
7	0x3ef895f7	0.48551914
8	0x3f67e856	0.9058889
9	0x3f899d3f	1.0751113
10	0x3f1e295f	0.6178188
11	0x3f9e4c7a	1.2367089
12	0x3edec00c	0.43505895
13	0x3fcc6a57	1.5969952
14	0x3f066f4c	0.52513576
15	0x3f04320f	0.51638883
16	0x3fa5d80e	1.295656
17	0x3ec45df0	0.3835292
18	0x3ea2c387	0.317898
19	0x3fa21419	1.2662383
20	0x3f95dd24	1.1708112
21	0x3f8d9f8b	1.1064314
22	0x3f736847	0.9508099
23	0x3ebb72a0	0.3661089
24	0x3f612186	0.8794178
25	0x3f4d15ad	0.801112
26	0x3f780134	0.96876836
27	0x3f26e18d	0.65187913
28	0x3f300cb0	0.6876936
29	0x3f927591	1.1442128
30	0x3fa2c829	1.2717334
31	0x3f129217	0.57254165

features.7.weight f4 [64, 32, 3, 3]
0	0x3d6f583f	0.058433767
1	0x3c1cf5e4	0.009580109
2	0x3d2ebf70	0.042663038
3	0xbb54ae71	-0.0032452608
4	0xbc9c8a41	-0.019108893
5	0xbb55cd06	-0.0032623424
6	0xbd9bd1ce	-0.076083764
7	0x3de76d21	0.113001116
8	0x3c5dc74a	0.013536284
9	0x3d358c1d	0.044323076
10	0xbd8d3fd4	-0.0689694
11	0xbd22260d	-0.03958707
12	0xbd1846be	-0.03717684
13	0xbbd9a36f	-0.0066417973
14	0x3d3087ec	0.043098375
15	0x3d0ca21c	0.034334287
16	0x3d9099ad	0.07060561
17	0x3dc682cb	0.096929155
18	0xbc9e9e79	-0.019362675
19	0xbba1f407	-0.0049424204
20	0xb8836522	-6.265404e-05
21	0xbd197347	-0.037463453
22	0x3c8ccf91	0.01718882
23	0xbd5fb5d2	-0.054616757
24	0xbd61de2b	-0.055143517
25	0xbd968fe8	-0.07351667
26	0xbe0090cc	-0.12555236
27	0x3dc97632	0.09836997
28	0x3d32847a	0.04358337
29	0xbcaa0688	-0.020755067
30	0xbc88c594	-0.016695775
31	0xbd4994d6	-0.049214207
32	0xbdd1e554	-0.10248819
33	0xbced9a75	-0.029004315
34	0xbd4f3c16	-0.05059441
35	0xbe052c5e	-0.13005206
36	0x3dfa4564	0.122202665
37	0x3d08a246	0.03335788
38	0x3c82f53c	0.015986077
39	0x3d329c92	0.04360635
40	0x3ca7bf91	0.020477088
41	0x3d3a1c98	0.045437425
42	0x3d36d81f	0.044639703
43	0x3dfd02cc	0.12354049
44	0x3dc3a460	0.095528364
45	0xbc28d402	-0.010304453
46	0x3c367847	0.011137075
47	0xbd13677f	-0.035987373
48	0x3cfc9ce2	0.030836526
49	0xbc3a5143	-0.011371913
50	0xbd07d9b1	-0.03316659
51	0x3ca72fb4	0.020408489
52	0x3c9373aa	0.017999489
53	0x3baf5d75	0.005351717
54	0x3d5235d5	0.05132087
55	0x3d3208a2	0.043465264
56	0x3cda3a28	0.02663906
57	0x3d3ab206	0.045579933
58	0x3c0cd14a	0.00859482
59	0x3c693571	0.014233933
60	0x3c84157f	0.016123531
61	0x3d78068e	0.060553126
62	0x3db79304	0.08963588
63	0x3cbe80da	0.0232548
64	0xbce03a54	-0.027371563
65	0xbd15d21b	-0.036577325
66	0xbc9e95d5	-0.019358555
67	0xbd85a19c	-0.06524965
68	0xbd300e2b	-0.04298226
69	0x3db1c5a2	0.086802736
70	0x3d0e7013	0.03477485
71	0xbd0682a8	-0.032839447
72	0x3dc0f0ef	0.094209544
73	0x3d5f0862	0.054451354
74	0x3dd2bccf	0.10289919
75	0x3d32cf55	0.04365476
76	0x3d9c0dee	0.076198444
77	0xbcf3d9fc	-0.029767029
78	0xbd559657	-0.05214533
79	0xbb721674	-0.0036939653
80	0xbe202cba	-0.15642062
81	0xbd8be050	-0.068298936
82	0xbd3d4a9c	-0.04621373
83	0x3cae1476	0.02124999
84	0xbded7bb5	-0.11595861
85	0x3d34a520	0.044102788
86	0x3d920d10	0.07131398
87	0xbe17f095	-0.14837869
88	0xbb7c1293	-0.003846322
89	0x3c1cbd52	0.009566622
90	0x3d54aeb3	0.05192442
91	0x3bea668f	0.007153339
92	0x3d035a9f	0.032068845
93	0x3cc4b822	0.024013583
94	0x3bfa4b02	0.007638336
95	0xbbce563d	-0.0062969015
96	0x3df34b98	0.11879653
97	0xbd058d58	-0.0326055
98	0xbd9f2fc3	-0.07772782
99	0xbd8018e4	-0.062547475
100	0xbcd3aae8	-0.02583833
101	0x3ba29649	0.004961763
102	0xbda8933b	-0.08231207
103	0x3d238307	0.03991988
104	0xbd2d4d2c	-0.042309925
105	0xbe106ba2	-0.14103559
106	0xbd948e17	-0.07253664
107	0xbe75063e	-0.23928162
108	0x3c2b1ac0	0.010443389
109	0x3b26a777	0.0025429407
110	0xbc385e1d	-0.011252907
111	0x3ceb9b4e	0.028760578
112	0x3d89bd30	0.06725538
113	0xbbeab7d6	-0.007163028
114	0x3d3194c5	0.04335477
115	0x3d369909	0.04457954
116	0xbc1727ff	-0.009225844
117	0xbd2e412a	-0.042542614
118	0xbdb3e5b2	-0.08784045
119	0x3d549257	0.051897373
120	0xbdcd3ef0	-0.1002177
121	0xbcc91fc9	-0.02455129
122	0xbd9852d2	-0.07437672
123	0xb9b17944	-0.0003385042
124	0x3ce65fbd	0.028121823
125	0xbda1e550	-0.07905066
126	0xbdc56c71	-0.09639824
127	0x3bd5419d	0.006508066
128	0x3dcf3257	0.101170234
129	0xbd9496dd	-0.072553374
130	0xbbc4cfc1	-0.0060062115
131	0x3ca41178	0.020027861
132	0xbda3b398	-0.07993239
133	0x3d814a01	0.06312943
134	0xbd97f29f	-0.07419323
135	0xbd17193e	-0.036889307
136	0x3d440f65	0.047866244
137	0x3c91a61b	0.0177794
138	0x3d5454df	0.051838752
139	0x3b6bc05a	0.0035972805
140	0xbc2ec014	-0.010665912
141	0x3d8013b0	0.06253755
142	0x3db8052b	0.08985361
143	0xbcdc2c8a	-0.026876707
144	0x3cecf813	0.028926885
145	0xbd30e8b6	-0.04319068
146	0xb9316b3e	-0.00016919986
147	0xba97197d	-0.0011527982
148	0xbc7d69d1	-0.015467123
149	0xbc453e4a	-0.012038777
150	0xbcd48a9f	-0.025945006
151	0x3d1e2588	0.03861001
152	0x3bfcd280	0.0077155232
153	0xbd59983a	-0.05312369
154	0xbc65bda0	-0.014022261
155	0xbbf50601	-0.0074775224
156	0xbc1127b5	-0.008859565
157	0x3c3e1851	0.011602477
158	0xbd1a1efe	-0.037627213
159	0xbbb8f42f	-0.0056443433
160	0xbca5a65f	-0.020220933
161	0xbdf4ecc7	-0.11959224
162	0x3cc4c052	0.024017487
163	0x3cbd4b75	0.02310727
164	0x3da5e69e	0.08100627
165	0x3c501bc7	0.012701935
166	0x3d5cb845	0.05388667
167	0xbbbef1c7	-0.005827162
168	0x3d895236	0.067051336
169	0xbd642dd5	-0.05570777
170	0xbd93eef7	-0.07223313
171	0xbb1fad94	-0.0024364935
172	0x3d848b23	0.06471851
173	0xbd2589cb	-0.040414613
174	0xbd857dc0	-0.065181255
175	0xbda510d4	-0.0805985
176	0xbe04193b	-0.1290025
177	0xbd44db14	-0.04806049
178	0xbc8a5cbd	-0.016889924
179	0xbcb472fb	-0.022027483
180	0x3b1931a6	0.002337554
181	0xbcf3d418	-0.02976422
182	0x3ba69a8f	0.005084343
183	0x3c9565dd	0.018237049
184	0xbc8c5e39	-0.017134773
185	0xbb38a6cd	-0.0028175593
186	0x3dbede7b	0.093197785
187	0x3bd87bf2	0.0066065723
188	0xbc1f1145	-0.009708707
189	0xbd856b86	-0.06514649
190	0x3baca616	0.0052688224
191	0x3d88de16	0.066829845
192	0xbd26ff13	-0.0407706
193	0x3d243b7d	0.040095795
194	0x3d30ffc4	0.043212667
195	0x3bc67669	0.006056596
196	0x3dcd4db9	0.1002459
197	0x3cf38b6d	0.02972957
198	0x3d31b5d2	0.043386288
199	0xbc980bfd	-0.018560404
200	0x3d3308e2	0.043709643
201	0xbc81199e	-0.015759286
202	0xbcb454cf	-0.022013096
203	0x3d4698c6	0.04848554
204	0x3d686ec2	0.056746252
205	0x3db069f9	0.08613963
206	0x3e16cfdb	0.14727728
207	0xbd161549	-0.036641393
208	0x3c14b5a1	0.009076507
209	0x3beb33cf	0.007177807
210	0xbd5cd930	-0.053918064
211	0xbc8417df	-0.016124664
212	0xbd2570b6	-0.040390693
213	0xbd1a1070	-0.037613332
214	0xbd9cb8d8	-0.07652444
215	0xbda07bd0	-0.07836115
216	0xbc95f560	-0.01830548
217	0x3d36aa03	0.04459573
218	0x3bfc068a	0.007691209
219	0x3bae3599	0.005316448
220	0xbcb8855e	-0.022524532
221	0xbd5c1051	-0.053726498
222	0x3d9f3b49	0.077749796
223	0xbd7b3882	-0.061333187
224	0xbdfbd342	-0.122961536
225	0xbd2c5729	-0.04207531
226	0xbd0d47dd	-0.034492362
227	0xbd1a14eb	-0.037617605
228	0xbb73dd16	-0.0037210635
229	0x3cf5f27a	0.030022848
230	0x3af78505	0.0018884247
231	0x3d31cb7f	0.04340696
232	0x3d76f74f	0.060294446
233	0x3d5b132e	0.053485088
234	0xbbcb2783	-0.0061997785
235	0x3d12acaf	0.035809215
236	0x3d84c133	0.06482162
237	0x3c77d470	0.015126333
238	0x3d573a19	0.05254564
239	0x3dbf0888	0.09327799
240	0xbd187297	-0.037218656
241	0x3d16f006	0.036849998
242	0x3d4f80c7	0.05065992
243	0x3db2d1f0	0.08731449
244	0x3d9eaea1	0.077481516
245	0x3cb758e5	0.022381255
246	0x3cfb2907	0.030659212
247	0x3b811639	0.0039394167
248	0x3c8eeb3e	0.017446157
249	0x3d9afde2	0.075679556
250	0x3cda2ff6	0.026634198
251	0x3d0b7ec8	0.034056455
252	0x3e0bed7c	0.13664812
253	0xbc89f8d4	-0.016842283
254	0xbcb39d6a	-0.021925647
255	0x3db49739	0.08817906

features.7.bias f4 [64]
0	0x3d4b484b	0.04962949
1	0x3b0fb85a	0.002192995
2	0xbbdcccf0	-0.0067382976
3	0xbd52416f	-0.051331934
4	0xbd07f3b4	-0.033191398
5	0xbc8ef379	-0.017450081
6	0x3caf3fa6	0.021392655
7	0x3d360b39	0.044444297
8	0xbce12e51	-0.027487906
9	0xbcc140f7	-0.023590548
10	0x3cc73f09	0.02432205
11	0x3c63a104	0.01389337
12	0x3d43196c	0.047631666
13	0x3ca89806	0.020580303
14	0x3d51364b	0.05107717
15	0xbc93cb59	-0.0180413
16	0x3d55239b	0.05203591
17	0xbbac3c59	-0.0052562174
18	0x3d3a456a	0.045476355
19	0x3d4e3900	0.05034733
20	0xbca946e5	-0.020663688
21	0xbd41f760	-0.047355056
22	0x3d3eb9a9	0.046563778
23	0xbca67409	-0.020319002
24	0xbcdc8c20	-0.026922286
25	0x3d40291e	0.046914212
26	0x3d6ffcdf	0.058590766
27	0xbd83b471	-0.06430901
28	0x3cb9a66a	0.02266236
29	0xbca87432	-0.020563219
30	0xbbfa5e44	-0.007640632
31	0xbc8d05bc	-0.017214648
32	0xbd6a5b92	-0.057216235
33	0x3d2a25fd	0.041540135
34	0xbd46ae38	-0.04850599
35	0x3bd39afc	0.0064576846
36	0xbc0fa1e5	-0.008766626
37	0xbd61e402	-0.055149086
38	0x3b256793	0.0025238737
39	0xbd56c87f	-0.0524373
40	0xbbe9cd43	-0.007135065
41	0x3d6fd5e2	0.058553584
42	0xbc603713	-0.013685006
43	0xbce4c90c	-0.027927898
44	0xbcfc1405	-0.030771265
45	0xbcc34cf8	-0.023840412
46	0x3d58cd41	0.05293012
47	0x3b2b4013	0.002613072
48	0xbcf6f4d5	-0.030146042
49	0x3cdb58c8	0.026775733
50	0xbd2f0531	-0.04272956
51	0xbc80f79c	-0.01574307
52	0xbd4117c8	-0.04714182
53	0xbc8b2f76	-0.016990405
54	0xbd6f9774	-0.058494046
55	0x3d26668a	0.040625133
56	0xbc961444	-0.01832021
57	0x3c625680	0.0138145685
58	0x3c9562f4	0.018235661
59	0x3d5a1813	0.053245615
60	0xbd11d1e7	-0.03560057
61	0xbd47fd0a	-0.0488253
62	0xbb62ab8a	-0.0034587109
63	0xbbd489cd	-0.0064861537

features.8.weight f4 [64]
0	0x3f66cc4b	0.90155476
1	0x3f4d07f5	0.80090266
2	0x3f7b0d1b	0.9806687
3	0x3f64d208	0.8938298
4	0x3f60c7cf	0.87804884
5	0x3f64f00e	0.89428794
6	0x3f773bc9	0.965756
7	0x3f7e263e	0.992771
8	0x3f60453f	0.8760566
9	0x3f73c278	0.9521861
10	0x3f6b8730	0.92003155
11	0x3f7ad2b1	0.9797774
12	0x3f6fe107	0.9370274
13	0x3f78d297	0.97196335
14	0x3f7d63d9	0.9898048
15	0x3f464d5c	0.7746179
16	0x3f759525	0.959307
17	0x3f5bc713	0.8585064
18	0x3f716af6	0.94303834
19	0x3f772f92	0.9655696
20	0x3f6eefe7	0.9333481
21	0x3f74f4ca	0.9568602
22	0x3f5f4364	0.87212205
23	0x3f742f68	0.95384836
24	0x3f34acbc	0.7057607
25	0x3f777077	0.9665598
26	0x3f6cd20e	0.9250802
27	0x3f752226	0.9575523
28	0x3f7494e1	0.9553967
29	0x3f763ba4	0.96184754
30	0x3f784992	0.9698726
31	0x3f5e43a4	0.8682196
32	0x3f624add	0.8839548
33	0x3f60aec5	0.8776668
34	0x3f73f584	0.952965
35	0x3f7df0b6	0.9919542
36	0x3f889ac3	1.067223
37	0x3f7ce3a2	0.9878484
38	0x3f6ccb85	0.92498046
39	0x3f74d26a	0.95633566
40	0x3f6c1662	0.92221653
41	0x3f747bf7	0.95501655
42	0x3f533561	0.82503325
43	0x3f6a7198	0.9157958
44	0x3f71bd0c	0.9442909
45	0x3f7a70d8	0.97828436
46	0x3f7c69e8	0.985991
47	0x3f5222aa	0.82084143
48	0x3f482047	0.7817425
49	0x3f70f28c	0.941201
50	0x3f755a50	0.9584093
51	0x3f6caa98	0.92447805
52	0x3f6533a7	0.8953194
53	0x3f821c73	1.0164932
54	0x3f723b4e	0.9462174
55	0x3f623348	0.883595
56	0x3f687369	0.908011
57	0x3f6d4d8b	0.92696446
58	0x3f4192bd	0.7561453
59	0x3f728abb	0.94742936
60	0x3f65efd5	0.8981908
61	0x3f829df2	1.0204451
62	0x3f7f334a	0.99687636
63	0x3f5c54f3	0.8606712

features.8.bias f4 [64]
0	0xbe0e6843	-0.1390696
1	0xbe883cba	-0.2660883
2	0xbe5e4ae2	-0.21708253
3	0xbe8d816d	-0.27637807
4	0xbe3bfeea	-0.18358961
5	0xbe8ca1c9	-0.27467182
6	0xbe7b912a	-0.24567094
7	0xbea5e13e	-0.3239841
8	0xbe9bb4c9	-0.30411366
9	0xbf0b1783	-0.5433275
10	0xbe84a2a6	-0.2590534
11	0xbe6e79cd	-0.23288651
12	0xbeab1d51	-0.33420804
13	0xbe58baa2	-0.21164945
14	0xbeb4c7b0	-0.353086
15	0xbe66074d	-0.22463723
16	0xbe219b80	-0.15781975
17	0xbea47b4b	-0.32125315
18	0xbeb75398	-0.35805964
19	0xbe49c1ef	-0.19702886
20	0xbeca8176	-0.39551896
21	0xbea139c5	-0.31489387
22	0xbeab2f14	-0.33434355
23	0xbf0b1771	-0.54332644
24	0xbe8d1de7	-0.27561876
25	0xbe9abf84	-0.3022424
26	0xbe0f7f51	-0.14013411
27	0xbef29e72	-0.4738651
28	0xbec3bc9e	-0.3822984
29	0xbe67ce82	-0.2263737
30	0xbe6322c9	-0.22181238
31	0xbea7318f	-0.32654998
32	0xbeb3d90a	-0.35126525
33	0xbe9eda0d	-0.31025735
34	0xbe9345de	-0.28764242
35	0xbf084320	-0.53227425
36	0xbeb19b87	-0.3468897
37	0xbde7ced7	-0.113187484
38	0xbec4b8e2	-0.38422304
39	0xbe45ba82	-0.19309428
40	0xbe92e86b	-0.28692946
41	0xbe7c4f35	-0.2463959
42	0xbead5ea1	-0.3386126
43	0xbea59be0	-0.32345486
44	0xbeb845f1	-0.3599086
45	0xbf1b880e	-0.6075448
46	0xbf15f607	-0.5857853
47	0xbe9ebad1	-0.31001905
48	0xbea25973	-0.3170887
49	0xbec9969d	-0.3937272
50	0xbec10ab5	-0.3770348
51	0xbe83faf7	-0.25777408
52	0xbe9d88e4	-0.30768502
53	0xbe8ea664	-0.2786132
54	0xbe80f9f5	-0.25190702
55	0xbe8c26bb	-0.273733
56	0xbf0e9842	-0.55701077
57	0xbe46c213	-0.19409971
58	0xbea9ee9a	-0.3318985
59	0xbed8c305	-0.42336288
60	0xbe9fb4a1	-0.31192496
61	0xbeacd878	-0.33758903
62	0xbe564a2e	-0.20926735
63	0xbe7afe3d	-0.24511047

features.8.running_mean f4 [64]
0	0xbd4562b7	-0.048189845
1	0xbee3a961	-0.44465163
2	0xbf9e9860	-1.2390251
3	0xbec585ea	-0.3857873
4	0xbe91c998	-0.28474116
5	0xbe3c804c	-0.18408316
6	0xbf7019c1	-0.937893
7	0xbec7e558	-0.39042163
8	0xbedea926	-0.43488425
9	0xbf4cbcaa	-0.7997538
10	0xbedfc848	-0.4370749
11	0xbf282013	-0.6567394
12	0xbf12dca1	-0.57367903
13	0xbfaecd10	-1.365633
14	0xbf995f7a	-1.1982262
15	0x3ee9430b	0.45558962
16	0xbd9c5f84	-0.07635406
17	0xbe1cbbf6	-0.15306076
18	0xbf95ee0f	-1.1713275
19	0xbef94b7c	-0.48690403
20	0xbf1d051c	-0.6133592
21	0xbf0605f6	-0.52352846
22	0xbf56ae3b	-0.83859605
23	0xbf4f15de	-0.8089274
24	0x3e5652ce	0.20930025
25	0xbd1b1b44	-0.0378678
26	0xbf083ab4	-0.53214574
27	0xbee08324	-0.43850052
28	0xbf49ed38	-0.7887759
29	0xbf9512c4	-1.1646352
30	0xbf234cab	-0.6378886
31	0xbeeed488	-0.46646523
32	0xbf1ad728	-0.6048455
33	0xbe978d67	-0.2960007
34	0xbe1ce9dd	-0.15323587
35	0xbf1eb4c2	-0.61994565
36	0xbf7cf582	-0.98812115
37	0xbee1053e	-0.43949312
38	0xbf67beaf	-0.90525335
39	0xbf82bde9	-1.0214206
40	0xbfaeb49d	-1.3648869
41	0xbefacdfa	-0.48985273
42	0xbe846aeb	-0.25862822
43	0xbe29401b	-0.1652836
44	0xbf12aa11	-0.5729075
45	0xbf937605	-1.1520392
46	0xbf5540ca	-0.83301985
47	0xbebabdb7	-0.36472866
48	0xbed0d20d	-0.40785256
49	0x3d519827	0.051170494
50	0xbe5e2dc4	-0.21697146
51	0xbf258480	-0.64655304
52	0xbeb6473a	-0.35601217
53	0xbfb2d61d	-1.3971592
54	0xbd94772b	-0.07249292
55	0xbf8ae2b6	-1.0850437
56	0xbf06c96d	-0.526511
57	0xbf35015a	-0.7070519
58	0xbb4261b6	-0.002966029
59	0xbf312dae	-0.69210327
60	0xbf8c28de	-1.0949972
61	0xbf17d88b	-0.59314793
62	0xbf9b73cd	-1.2144715
63	0xbea3182b	-0.31854376

features.8.running_var f4 [64]
0	0x3f4b4f22	0.7941762
1	0x3f7bfb5f	0.98430437
2	0x3f791798	0.97301626
3	0x3f565137	0.83717674
4	0x3f7b4164	0.98146653
5	0x3f4f9e19	0.8110061
6	0x3fa26673	1.2687515
7	0x3fa11530	1.2584591
8	0x3f1fc0ed	0.62403756
9	0x3f45221d	0.7700518
10	0x3f3d3178	0.7390361
11	0x3f8144be	1.0099103
12	0x3f69df0c	0.9135597
13	0x3f8d5dd6	1.1044261
14	0x3f5e6ca5	0.8688453
15	0x3f3ebc9c	0.74506545
16	0x3f3cd4ad	0.7376202
17	0x3edd07fa	0.43170148
18	0x3f2c04c6	0.67194784
19	0x3fab5ed9	1.338832
20	0x3f8216a8	1.0163164
21	0x3f76fd98	0.96480703
22	0x3f5e9dc8	0.86959505
23	0x3f15f398	0.5857482
24	0x3f2fdb8c	0.68694377
25	0x3f3d1f95	0.73876315
26	0x3f720819	0.94543606
27	0x3ec770c9	0.38953236
28	0x3f7d31ce	0.9890412
29	0x3f77c4dc	0.9678476
30	0x3fa08c99	1.2542907
31	0x3f4bbeec	0.795882
32	0x3f13ae6d	0.5768803
33	0x3f2d00ed	0.6757954
34	0x3f0476a9	0.5174356
35	0x3f0e79ea	0.55654776
36	0x3f4dd90a	0.804093
37	0x3f8502e4	1.0391507
38	0x3f31943c	0.6936681
39	0x3f4720c9	0.777844
40	0x3f63def6	0.89012086
41	0x3f6ade0f	0.91745085
42	0x3f14edd0	0.58175373
43	0x3f0595c5	0.52181655
44	0x3f3db271	0.74100405
45	0x3ebc5d2a	0.3678983
46	0x3f0a1aed	0.53947335
47	0x3f7db6f3	0.99107283
48	0x3f3787bc	0.7169149
49	0x3f15fae8	0.5858598
50	0x3f10b4bf	0.56525797
51	0x3f4a68ac	0.79065967
52	0x3f54a364	0.83061814
53	0x3fa136ac	1.259481
54	0x3efd83f3	0.49514732
55	0x3faf999d	1.3718754
56	0x3f2fd9ec	0.686919
57	0x3fa6d1ca	1.3032773
58	0x3f549cf9	0.8305202
59	0x3f016938	0.50551176
60	0x3f95d608	1.1705942
61	0x3f3df5d3	0.74203223
62	0x3f649694	0.89292264
63	0x3f8f0226	1.1172531

features.10.weight f4 [64, 64, 3, 3]
0	0x3c91ec1c	0.017812781
1	0x3b10c952	0.0022092653
2	0xbb2f1102	-0.0026713018
3	0xbc06f85c	-0.008237924
4	0xbcf26654	-0.02958981
5	0xbd2d6a70	-0.042337835
6	0xbcf312de	-0.029672083
7	0xbdcfde2c	-0.10149798
8	0xbdafd954	-0.08586374
9	0x3ccb5d14	0.024824657
10	0xbd2ddf72	-0.042449422
11	0xbd80d5f6	-0.0629081
12	0xbb5b7fa4	-0.0033492828
13	0xbcebd95e	-0.028790172
14	0xbd31fa3f	-0.043451544
15	0xbc9c1771	-0.019054146
16	0xbd1f98ea	-0.03896419
17	0xbd3cda56	-0.04610666
18	0x3c4c41bd	0.012466845
19	0x3bbf85e7	0.00584482
20	0x3c8f9106	0.017525207
21	0x3d0690a9	0.032852802
22	0x3d0867c3	0.03330208
23	0x3ce1d585	0.027567634
24	0x3ccd9cc4	0.025099166
25	0x3c03b5af	0.008038922
26	0x3d05465e	0.03253781
27	0xbbb95fa5	-0.0056571537
28	0x3cddd755	0.027080217
29	0x3d272ffd	0.04081725
30	0x3ba12ab0	0.004918419
31	0xbcae186a	-0.021251876
32	0x3c9de1ff	0.019272802
33	0xbccee007	-0.025253309
34	0x3bfaef31	0.0076579084
35	0x3d2ed7af	0.04268616
36	0xbd330949	-0.043710027
37	0xbd88aa2e	-0.06673084
38	0xbdb6225a	-0.08893271
39	0xbd954f31	-0.07290495
40	0xbd50c9cf	-0.05097371
41	0xbd76690c	-0.060158774
42	0xbdb0bac7	-0.08629375
43	0xbcca793e	-0.024716016
44	0xbd2df98b	-0.04247431
45	0xbc8cfd76	-0.017210703
46	0xbaa062af	-0.0012236441
47	0x3cb2511d	0.021767193
48	0xbca58e8a	-0.02020957
49	0xbca6786b	-0.020321092
50	0x3b55d605	0.0032628786
51	0xbbbe2fb4	-0.0058040265
52	0x3c646b86	0.013941651
53	0x3cb11dec	0.021620713
54	0xbe000efe	-0.12505719
55	0xbdc2ab2a	-0.09505303
56	0xbe0abf37	-0.13549505
57	0xbdc697c9	-0.096969195
58	0xbd9e34a7	-0.077248864
59	0xbda865d8	-0.0822255
60	0xbd72379d	-0.05913507
61	0xbd88f193	-0.066867016
62	0xbd7f21c6	-0.06228807
63	0xbd72d809	-0.05928806
64	0xbdaa8a3c	-0.08327147
65	0xbd7e330a	-0.062060393
66	0xbd467277	-0.048449006
67	0xbd98e87d	-0.074662186
68	0xbd9497d1	-0.07255519
69	0xbda6b207	-0.08139425
70	0xbcf97d7d	-0.030455345
71	0xbcb717bc	-0.022350185
72	0xba09420a	-0.0005235976
73	0x3d48364e	0.048879914
74	0x3c31b72e	0.010846896
75	0xbcc83c78	-0.024442896
76	0x3cd8e365	0.026475618
77	0x3b8ed964	0.004359411
78	0xbd1048c2	-0.035225637
79	0xbd343b74	-0.04400201
80	0xbd204609	-0.03912929
81	0x3be91fbf	0.00711438
82	0xbb80bd89	-0.0039288444
83	0xbc81fd49	-0.015867846
84	0x3c7c594e	0.015402151
85	0x3bc4b7d5	0.00600336
86	0x3cdd3036	0.027000528
87	0x3d04f049	0.032455716
88	0xbc01ee56	-0.007930359
89	0x3acfcff0	0.0015854817
90	0x3c3c9be1	0.011511774
91	0x3c82b63e	0.01595604
92	0x3c78ef8e	0.015193833
93	0x3ca50720	0.020144999
94	0x3b164b55	0.0022933085
95	0xbc3d8cea	-0.011569241
96	0x3c73ef6f	0.014888628
97	0xbd0fcba0	-0.0351063
98	0xbd9edbd0	-0.0775677
99	0x3d81427c	0.06311509
100	0x3bbc767a	0.005751428
101	0x3d48f0fd	0.04905795
102	0x3ba749a2	0.0051052133
103	0xbbc35108	-0.0059605874
104	0x3ca9dd4c	0.020735405
105	0x3d806cf3	0.062707804
106	0x3d171fc6	0.036895536
107	0x3d07a3bb	0.03311513
108	0xbc2cd530	-0.010548875
109	0x3cdb1f50	0.02674833
110	0x3d37b6ee	0.04485219
111	0x3d2244ff	0.03961658
112	0x3d2b04f6	0.041752778
113	0x3d0fe39a	0.035129167
114	0x3ba14d0c	0.004922515
115	0x3cc8b7bc	0.024501674
116	0x3d9c4b07	0.07631498
117	0xbcc5fd56	-0.024168652
118	0xbd224f85	-0.039626617
119	0xbb86b147	-0.0041104886
120	0x3d14c17f	0.036317345
121	0x3bab55af	0.00522872
122	0xbb3d3449	-0.0028870276
123	0xbb99fb90	-0.004699178
124	0x3befe376	0.0073208166
125	0x3bac067b	0.005249796
126	0xbd8111b5	-0.063022055
127	0xbd366714	-0.044531897
128	0xbdb1dd16	-0.08684747
129	0xbd134d54	-0.035962418
130	0xbbc2418e	-0.005928225
131	0xbd8e87fd	-0.069595315
132	0xbd2cfb76	-0.042232
133	0xbd4fcd2d	-0.05073278
134	0xbd8413cc	-0.064490885
135	0x3b77aae3	0.0037791065
136	0x3bba8f79	0.005693373
137	0x3c25fac0	0.010130584
138	0x3b499fd2	0.0030765426
139	0xbc221663	-0.009893033
140	0x3d13431f	0.035952684
141	0x3b551b72	0.003251758
142	0x3ac6fba6	0.0015181198
143	0x3d5dafbb	0.054122668
144	0x3d45c799	0.048286054
145	0x3c04fb96	0.008116623
146	0x3d16cfe5	0.036819357
147	0x3d4a589f	0.049400922
148	0x3d278537	0.040898528
149	0x3d88e1ec	0.06683716
150	0x3d2d0766	0.042243384
151	0x3d03b2e5	0.03215303
152	0x3d2ba54c	0.041905686
153	0xbc308b5f	-0.010775416
154	0xbbc8ce81	-0.006128133
155	0x3c0dcafa	0.00865435
156	0x3d12a898	0.035805315
157	0x3cde955c	0.02717083
158	0x3ceb6833	0.02873621
159	0x3cf7b52c	0.030237757
160	0x3cf9374a	0.030421872
161	0x3d01670c	0.031592414
162	0xbd5d908f	-0.05409294
163	0xbd8f84ab	-0.07007726
164	0xbdbd8025	-0.09252957
165	0xbd7ae224	-0.06125082
166	0xbd057ef5	-0.03259178
167	0xbd3189b5	-0.04334422
168	0xbd5f6b79	-0.054545853
169	0xbcf1f7df	-0.02953714
170	0xbd14da20	-0.036340833
171	0x3c55d39a	0.013050938
172	0x3c8a0e41	0.0168525
173	0xbd3c81bc	-0.04602216
174	0x3c7f06fa	0.015565628
175	0x3bc3255c	0.0059553813
176	0xbc635f3b	-0.013877685
177	0xbbff1a4f	-0.0077851187
178	0xbb71c0ec	-0.0036888672
179	0xbced0886	-0.028934728
180	0xbca43ce9	-0.020048575
181	0x3c48c870	0.012254819
182	0x3d75628b	0.05990843
183	0x3d0e61af	0.034761127
184	0x3d49139c	0.049090967
185	0x3d7ea28e	0.062166743
186	0x3d81e108	0.063417494
187	0x3d5bb2b6	0.05363723
188	0x3d901f72	0.07037248
189	0xbc8658d4	-0.016399778
190	0xbcc5aaf0	-0.02412936
191	0xbcf916ec	-0.030406438
192	0xbd708b57	-0.058726635
193	0xbd8748c8	-0.06605679
194	0xbdb9ddf3	-0.090755366
195	0xbbf3d953	-0.0074416786
196	0xbcd311ab	-0.02576526
197	0xbc45db17	-0.012076161
198	0x3895b670	7.138855e-05
199	0x3b13cbb1	0.002255183
200	0xbcf25253	-0.02958027
201	0xbc375dd9	-0.011191809
202	0x3cf1fb00	0.029538631
203	0xbc197384	-0.00936592
204	0xbceda944	-0.029011376
205	0x3c21e149	0.009880372
206	0xbc47ef4a	-0.012203047
207	0xbccb3b4d	-0.02480855
208	0xbd238625	-0.039922852
209	0xbd73a0a0	-0.059479356
210	0xbd6001a4	-0.054689065
211	0xbd455c43	-0.04818369
212	0xbd3f5f15	-0.046721537
213	0xbd2227fe	-0.03958892
214	0xbd1bcc1b	-0.038036447
215	0xbd4c63be	-0.04989981
216	0xbcca449c	-0.024690919
217	0xbcccd519	-0.025003957
218	0xbc002037	-0.007820181
219	0x3c9dd459	0.019266294
220	0xbbd305be	-0.0064398935
221	0xbcdd735c	-0.027032547
222	0xbcbabed3	-0.02279607
223	0xbb0c9db9	-0.0021456315
224	0xbc3aa6ed	-0.011392337
225	0x3db897ee	0.09013353
226	0x3d0d08ea	0.03443233
227	0x3d886fd2	0.06661953
228	0x3d5d0f95	0.05396994
229	0x3d6e2c18	0.05814752
230	0x3d958a34	0.07301751
231	0x3de3c5dc	0.11121723
232	0x3d921cee	0.07134424
233	0x3df01e8b	0.117245756
234	0x3d3e80a2	0.046509393
235	0x3c939f0a	0.018020172
236	0x3dbfc157	0.093630485
237	0xbc268841	-0.010164321
238	0x3d3af3d2	0.04564268
239	0x3d8abccd	0.06774292
240	0x3d980534	0.074228674
241	0x3d392a19	0.045206163
242	0x3d72df98	0.059295267
243	0x3d54cab3	0.05195112
244	0x3d2604c5	0.040531892
245	0x3dd24141	0.102663524
246	0x3cdaf89f	0.02672988
247	0x3d13e951	0.03611118
248	0x3dc1c2fe	0.0946102
249	0x3d86ea21	0.06587625
250	0x3d3fc976	0.046822987
251	0x3d9fea82	0.07808401
252	0x3dba6e78	0.091031015
253	0x3dbb6a23	0.09151103
254	0x3e1130ab	0.14178722
255	0x3dc9f058	0.09860295

features.10.bias f4 [64]
0	0xbd164704	-0.03668882
1	0xbd1c591a	-0.03817091
2	0xbc9c50a1	-0.019081416
3	0xbd9b554f	-0.07584631
4	0xbcb189d6	-0.02167217
5	0xbba556f4	-0.005045766
6	0x3b002373	0.001955238
7	0x3b333afd	0.0027348392
8	0xbd38da31	-0.04512996
9	0xbd0e1089	-0.034683738
10	0xbccb8cb6	-0.02484737
11	0xbc3ee8dd	-0.011652199
12	0xbc9efcdd	-0.019407684
13	0xbd4b1554	-0.049580887
14	0x3cd0bf5e	0.025481876
15	0xbc50c12d	-0.012741369
16	0xb9b5622e	-0.0003459616
17	0xbc2b4231	-0.010452793
18	0xbd0d1420	-0.03444302
19	0xbd6da245	-0.05801608
20	0xbd22a060	-0.039703727
21	0xbb8aede0	-0.0042397827
22	0xbd849db1	-0.0647539
23	0xbd0099e1	-0.03139675
24	0x3a6c378d	0.0009010963
25	0xbc4ba3bc	-0.012429174
26	0xbc7a3048	-0.0152703
27	0x3c82f510	0.015985996
28	0x39fdcc3f	0.00048408096
29	0xbbfbf9ca	-0.0076896893
30	0xbd0180a8	-0.031616837
31	0xbcf63fb0	-0.030059665
32	0x3bf6c0b3	0.0075302958
33	0xbc3816d2	-0.01123591
34	0xbd0f9e6f	-0.035063203
35	0xbca891cf	-0.02057734
36	0xbc104365	-0.008805131
37	0xbcbecc46	-0.023290765
38	0xbbccf704	-0.0062550325
39	0xbc4965eb	-0.012292366
40	0xbca9203d	-0.020645255
41	0xbd70c3af	-0.05878037
42	0xbd59ca05	-0.053171176
43	0x3ceced0a	0.028921623
44	0xbbf691a9	-0.0075246883
45	0xbcfae284	-0.03062559
46	0xbd8e7125	-0.06955174
47	0x3c828927	0.01593454
48	0xbd40b615	-0.047048647
49	0xbd6e46d3	-0.058173012
50	0xbd6c742a	-0.05772797
51	0xbd75150d	-0.05983453
52	0x3beec5b3	0.007286751
53	0xbcaadd52	-0.020857487
54	0xbd0e2af5	-0.034708936
55	0x3c881438	0.016611204
56	0xbc2ef779	-0.010679119
57	0xbc1a7eaa	-0.009429613
58	0xbcc8e638	-0.02452384
59	0xbcced08e	-0.025245931
60	0xbd156bc0	-0.03647971
61	0xba4c37e4	-0.0007790311
62	0x3c9dedde	0.019278463
63	0xbb3bfc0f	-0.0028684174

features.11.weight f4 [64]
0	0x3fd14f16	1.635226
1	0x3fcf385c	1.6189075
2	0x3fdb2f5f	1.7123832
3	0x3fcf25de	1.6183431
4	0x3fd68256	1.6758525
5	0x3fd03b41	1.6268083
6	0x3fd68c59	1.6761581
7	0x3fd505b5	1.6642367
8	0x3fd92d85	1.6967016
9	0x3fd9a8d0	1.7004642
10	0x3fdd4d95	1.7289301
11	0x3fd9bebd	1.7011334
12	0x3fea07f7	1.8283681
13	0x3fcb2726	1.5871322
14	0x3fd3a567	1.6534852
15	0x3fe5d4f5	1.7955614
16	0x3fdce987	1.7258767
17	0x3fce2691	1.610552
18	0x3fe44bcd	1.7835633
19	0x3fc9025b	1.5703844
20	0x3fbf32e7	1.4937409
21	0x3fc6a300	1.5518494
22	0x3fe1db1b	1.7644991
23	0x3fcdc55b	1.6075853
24	0x3fe5d59d	1.7955815
25	0x3fc08907	1.5041817
26	0x3ff2ea7f	1.8977813
27	0x3fcc19d2	1.594538
28	0x3fd91d99	1.6962157
29	0x3fccd9eb	1.6004003
30	0x3fdbf97f	1.7185515
31	0x3fcf3a6c	1.6189704
32	0x3fe20a8c	1.7659469
33	0x3fe257c8	1.7683039
34	0x3fdf909b	1.7466005
35	0x3fc3fc90	1.5311451
36	0x3fc1bfe0	1.5136681
37	0x3fe56d70	1.7924023
38	0x3fd941c3	1.6973194
39	0x3ff85faf	1.94042
40	0x3fdc1cc6	1.7196281
41	0x3fccd899	1.60036
42	0x3fd31cfb	1.6493219
43	0x3fcb2131	1.5869504
44	0x3fcb66f2	1.5890791
45	0x3fd72da5	1.6810805
46	0x3fdee0b6	1.7412326
47	0x3fe80619	1.8126861
48	0x3fcd4a8e	1.6038377
49	0x3fce615c	1.6123462
50	0x3fda65d7	1.7062329
51	0x3fda52d0	1.7056522
52	0x3fdf1921	1.7429544
53	0x3fdd5598	1.7291746
54	0x3fd79073	1.6840957
55	0x3fd2817f	1.6445769
56	0x3fd242ac	1.6426597
57	0x3ff21956	1.8913982
58	0x3fd006f4	1.6252122
59	0x3fd6484d	1.6740814
60	0x3fdbd8ab	1.7175497
61	0x3feb0424	1.8360639
62	0x3fdf5957	1.7449139
63	0x3fd365cd	1.6515442

features.11.bias f4 [64]
0	0xbe04a829	-0.12954773
1	0xbebbd8c4	-0.36688817
2	0xbeaa0e4a	-0.33214027
3	0xbe7a8052	-0.24463013
4	0xbec7f4af	-0.39053866
5	0xbe97cafe	-0.29647058
6	0xbe4d11b2	-0.20026281
7	0xbe775baa	-0.24156061
8	0xbe7fac11	-0.24967982
9	0xbeb3bba5	-0.351041
10	0xbea248d5	-0.3169619
11	0xbe1d2960	-0.15347815
12	0xbe3fb709	-0.18722166
13	0xbe80bb1f	-0.25142762
14	0xbe4d016a	-0.2002007
15	0xbe73db70	-0.23814178
16	0xbe71c295	-0.23609383
17	0xbe83e6bc	-0.25761974
18	0xbda5c34a	-0.08093889
19	0xbe82d620	-0.2555399
20	0xbeb81a36	-0.35957497
21	0xbea8b78d	-0.32952538
22	0xbe8f1a58	-0.27949786
23	0xbec6996f	-0.38788936
24	0xbe893997	-0.2680175
25	0xbead7bc3	-0.33883485
26	0xbe208cb1	-0.1567867
27	0xbe8316fc	-0.25603473
28	0xbea60799	-0.32427672
29	0xbe8e1823	-0.2775279
30	0xbea58a55	-0.323321
31	0xbe8c77ca	-0.27435142
32	0xbe59b819	-0.21261634
33	0xbe865c29	-0.26242188
34	0xbeb3e40d	-0.35134926
35	0xbe2f474e	-0.17117044
36	0xbe954f15	-0.29161897
37	0xbe87fde2	-0.26560885
38	0xbe202d8b	-0.15642373
39	0xbdd4667d	-0.103711106
40	0xbe9ed51d	-0.31021968
41	0xbe3cf005	-0.18450935
42	0xbea4370b	-0.32073244
43	0xbe746725	-0.23867472
44	0xbe4dc573	-0.20094852
45	0xbe8dbce7	-0.27683184
46	0xbe95623c	-0.2917651
47	0xbe2b28db	-0.16714804
48	0xbeaf9367	-0.34292147
49	0xbe99eaac	-0.30061853
50	0xbe8b2aad	-0.27180997
51	0xbe693374	-0.22773534
52	0xbebd4942	-0.36969954
53	0xbe5a096f	-0.21292661
54	0xbea01a38	-0.31270003
55	0xbe83d184	-0.25745785
56	0xbe508f1a	-0.20367089
57	0xbd8fb2a1	-0.07016493
58	0xbe98a263	-0.2981139
59	0xbe9b8036	-0.30371255
60	0xbea720d7	-0.32642242
61	0xbe974f50	-0.29552698
62	0xbe2055e9	-0.15657772
63	0xbe591801	-0.21200563

features.11.running_mean f4 [64]
0	0x3e1d380b	0.1535341
1	0xbc9b8270	-0.018983096
2	0x3d3e8261	0.046511058
3	0x3de0bff4	0.10974112
4	0x3c816e36	0.015799623
5	0xbd255b17	-0.040370073
6	0x3d4895ac	0.048970863
7	0x3e969f11	0.29418233
8	0x3d3e9328	0.046527058
9	0xbd9c5c91	-0.07634843
10	0xbcc91730	-0.02454719
11	0x3e156f60	0.14593267
12	0xbcc78336	-0.024354558
13	0x3d8c3b24	0.06847218
14	0xbcee5ee4	-0.029097982
15	0x3e493c14	0.19651824
16	0x3b9703e6	0.004608619
17	0x3dea5fea	0.114440754
18	0x3bb9116a	0.005647828
19	0x3d9c50d8	0.07632607
20	0xbceaa41d	-0.028642708
21	0xbda91f4a	-0.08257921
22	0x3dccc883	0.09999182
23	0x3e0b16a6	0.13582858
24	0x3e3e9020	0.18609667
25	0x3d1ba0f8	0.03799531
26	0x3d9aa2fa	0.075506166
27	0x3e5e51ef	0.21710943
28	0x3e696d71	0.22795655
29	0x3caa86df	0.020816265
30	0x3d698215	0.05700882
31	0x3d0112d4	0.031512097
32	0xbbe64fd3	-0.0070285588
33	0x3d23f6a5	0.04003014
34	0xbe28ee0a	-0.16497055
35	0x3d0fc0c8	0.03509596
36	0x3d7b46f9	0.06134698
37	0x3e97ca57	0.2964656
38	0xbce86222	-0.028367106
39	0x3e79f1e9	0.24408688
40	0x3c9de33f	0.019273398
41	0x3e0bebb1	0.13664128
42	0xbe0b16c9	-0.1358291
43	0x3e0adba7	0.13560353
44	0x3e36d24c	0.1785366
45	0xbcefe0de	-0.02928203
46	0xbd50cdf8	-0.050977677
47	0xbc956619	-0.01823716
48	0x3c24324d	0.010021758
49	0x3dec7cec	0.115472645
50	0xbc26c0f8	-0.010177843
51	0x3e0a80da	0.13525715
52	0x3e8c5736	0.27410287
53	0xbd3e8c4a	-0.04652051
54	0x3dbb8b2a	0.09157403
55	0x3ca367e2	0.019946996
56	0xbd6c2fc7	-0.05766275
57	0x3e5ed1a4	0.21759659
58	0xbd9e1388	-0.07718569
59	0xbdb7ab74	-0.08968249
60	0xbe0cc968	-0.13748705
61	0xbd980ff3	-0.07424917
62	0x3d802136	0.062563345
63	0x3c248c8b	0.010043274
