qt_digit_recognize/mnist-code/mnist_cnn_augmented.onnx (onnx, 265114 bytes, 10 tensors)

classifier.1.weight f4 [10, 64]
000000 89 71 6c 3e 73 f5 76 be f2 30 66 3e 83 8d fd bd
       0.23090185 -0.24117069 0.22479609 -0.12380507
000010 db 90 2e bf f2 bc 51 3e b1 d9 84 3e 21 9b 8b 3d
       -0.6818978 0.20482233 0.25947335 0.06816698
000020 2b f1 3e 3e 1e 19 1c bf a4 84 50 3e 28 e1 67 3e
       0.18646686 -0.60975826 0.20363098 0.22644484
000030 d2 ec 6c 3e 74 d8 a0 bd 00 12 12 bf bb 3e 6a bd
       0.23137215 -0.07853785 -0.57058716 -0.05718873
000040 48 10 8a bd d6 a2 1d 3d 79 b3 1f be ac 2b c8 3d
       -0.06741387 0.03848537 -0.15595807 0.09773955
000050 d2 3d ba be d7 2f c5 3d c6 28 ef be fc f4 37 3e
       -0.3637529 0.09628265 -0.46710795 0.17964548
000060 a4 fc 28 bf a8 6c 4e 3e 88 b7 03 bf ac 0c 95 3d
       -0.660105 0.20158637 -0.5145192 0.072778076
000070 19 8e 95 3d 9e 77 31 be 7a 78 5d 3e f5 45 ac be
       0.073024936 -0.17330787 0.2162799 -0.33647123
000080 94 8f 91 3d bd e0 81 3e eb 23 f9 be 24 73 a5 be
       0.071074635 0.25366774 -0.48660216 -0.32314408
000090 f3 05 34 3e 24 fa 62 3e 66 9f e8 be 63 97 42 3d
       0.17580394 0.22165734 -0.4543411 0.047507655
0000a0 83 d7 d7 be 7d b5 9c 3e b6 ef 01 bf 85 8b 67 3e
       -0.4215661 0.30607215 -0.50756395 0.22611816
0000b0 b1 b5 f8 be 8c 41 98 3e a5 51 3d 3e 5b bb 28 3e
       -0.4857612 0.29737508 0.18488176 0.1647772
0000c0 f7 12 68 3e 45 ea 9b be fd e1 bd be e8 f2 85 be
       0.22663485 -0.3045217 -0.37086478 -0.26161885
0000d0 a7 d1 c6 bd b7 39 6b 3e ea 98 52 3e 4c b5 1f bf
       -0.09707957 0.22971235 0.20566145 -0.6238601
0000e0 02 d8 b5 bc f6 0f 9f 3e 06 47 24 be 82 eb a3 3e
       -0.022197727 0.31066865 -0.16042718 0.32015616
0000f0 52 1a e1 be 64 04 59 3e 41 c8 05 3e 1c 3e 90 3e
       -0.43965393 0.21193081 0.13064672 0.28172386
000100 4c 3b 39 bf 5a 21 5b 3e 58 dc 5f 3e b2 86 fc be
       -0.72356105 0.21399441 0.21861398 -0.49321514
000110 d4 6a 95 3e b9 95 e7 be 5a d6 05 bf e1 cf 9b be
       0.29183066 -0.45231417 -0.522802 -0.30432037
000120 f1 6a 83 3e 8a b7 54 3e 5a c4 0e bf b3 0c 81 3e
       0.25667527 0.2077314 -0.5576836 0.25205
000130 06 da 86 3e 5e 5c 34 bf 99 4a 7e 3e 4f c5 33 3e
       0.26338214 -0.7045344 0.24833144 0.17555736
000140 15 ca 0d bf ff 83 cc be 77 ea 0f bf 47 84 90 be
       -0.5538648 -0.39944455 -0.5621714 -0.2822592
000150 75 be 5d 3e 86 12 01 bf 84 35 10 bf 21 4a 5c be
       0.21654685 -0.5041889 -0.5633166 -0.21512653
000160 a5 6a 49 3e be 65 b3 be 3f 68 88 3e 74 f8 e2 be
       0.19669588 -0.3503856 0.26642033 -0.4433018
000170 0f c1 16 3e 05 12 5b 3e e3 e1 b4 be d1 ad d9 be
       0.14722084 0.21393593 -0.35328588 -0.42515424
000180 71 d8 20 bf 1d 4f 92 3e f5 f2 97 be 40 bb b0 be
       -0.62830263 0.28575984 -0.2967755 -0.3451786
000190 7c 35 18 bf 3d af 16 3e 78 08 ff be c6 da 49 bf
       -0.5945661 0.14715286 -0.4981115 -0.78849447
0001a0 89 5d 65 3e 61 be 9c 3e 7f d3 89 3e e1 bc 35 3e
       0.22398962 0.30613998 0.2691917 0.17747833
0001b0 7a db 57 3e 6d c8 f0 bd 77 31 bb be f5 e3 33 bf
       0.21079817 -0.11756978 -0.36561176 -0.7026971
0001c0 74 30 8d 3e 9a b8 5d 3e 62 0e aa be 72 9a d7 3c
       0.2757603 0.21652451 -0.33214098 0.026318762
0001d0 33 78 ed 3d 12 30 21 bf 69 81 c8 3d f8 9d 89 3e
       0.11595192 -0.62963974 0.09790308 0.26878333
0001e0 1e cc 15 bf 07 9d 92 3e 68 b5 0e 3e d8 61 9c 3e
       -0.58514583 0.28635427 0.13936388 0.305434
0001f0 a3 89 97 3e 2e 19 17 bf 55 98 ba 3d d5 d6 93 3e
       0.29597196 -0.59022796 0.09111086 0.2887484
000200 3a 9c 67 3e 2f 9a c2 be 82 e0 d2 bd 82 76 c3 3d
       0.2261819 -0.38008258 -0.10296728 0.09544088
000210 95 e4 61 3e 60 9b 76 3e 32 7c 92 3e b9 08 34 3e
       0.22059853 0.24082708 0.28610379 0.17581452
000220 f8 87 ab be 9b 71 4f 3e ac 1c 9c be 25 32 13 be
       -0.33502173 0.20258181 -0.30490625 -0.14374597
000230 34 e9 58 bd 78 32 9f be 8e fb 87 3d 01 ad 70 3e
       -0.052956775 -0.31093192 0.06639777 0.23503496
000240 aa 75 40 be 11 a0 90 3e e9 bb 28 3e 02 57 5c 3e
       -0.18794885 0.2824712 0.16477932 0.21517566
000250 f4 f3 cd be 05 68 64 be 8b 00 84 bd 71 1a 34 3e
       -0.40225184 -0.22305305 -0.06445416 0.17588212
000260 6e b4 a9 3d ad 25 ec be f8 ae c4 be 48 d9 8d 3e
       0.08286367 -0.46122494 -0.3841474 0.27704835
000270 6e a9 4b be ab 82 ef be 81 ba 22 3e a6 aa 3a 3e
       -0.19888851 -0.4677938 0.15891458 0.1822916
000280 30 e8 5a 3e 0c 32 28 3e 61 f1 49 3e 6a 79 23 bd
       0.21377635 0.16425341 0.19720985 -0.03991071
000290 fe 0b 6e 3e 87 12 9e be 1a 4b 62 3e 24 1d 8b be
       0.23246762 -0.3087351 0.22098961 -0.2717067
0002a0 22 e5 d0 be 06 45 cd be 74 36 d3 be b0 ca 9c be
       -0.40799814 -0.40091723 -0.41252482 -0.30623388
0002b0 a0 fd dd be 29 23 34 3e 01 e7 83 3e db 5c f1 bd
       -0.43357563 0.17591538 0.2576218 -0.11785289
0002c0 d7 45 00 bf 9d ee c4 be 57 90 71 3d f6 4e 1a 3e
       -0.5010657 -0.38463297 0.058975544 0.15069184
0002d0 80 73 a0 3e ed b4 13 3e f1 3d 55 3e cb 85 14 3e
       0.3133812 0.14424486 0.2082441 0.14504163
0002e0 4a c6 9e be 21 9c 51 be ff 14 95 3e 16 03 a0 be
       -0.31010658 -0.20469715 0.2911758 -0.31252354
0002f0 a6 e7 24 3e eb ea 20 3e a8 1d 81 3e 7b a4 82 be
       0.16103992 0.15714614 0.25217938 -0.25516114
000300 c2 77 09 bf 35 58 0a bf b4 12 d6 be 09 c2 25 3e
       -0.5369836 -0.54040843 -0.41811144 0.161873
000310 ac 33 24 3e fa 64 1b 3d 30 77 f1 be 92 5a 75 3e
       0.16035336 0.037938096 -0.47161245 0.23960331
000320 4b cb 8a be 93 77 84 3e 6c d1 98 3e d1 e3 e2 be
       -0.27108225 0.25872478 0.29847276 -0.44314435
000330 ff 5c df bd ca 02 04 3e b6 a3 0b bf 1f 21 13 bf
       -0.109064095 0.12891689 -0.5454668 -0.57472414
000340 4a 82 54 3e 8d 58 2c bf e4 e9 6b 3e d7 f2 8b 3e
       0.20752826 -0.6732262 0.23038441 0.2733371
000350 ab 9f a2 be 94 31 8b be 1e f1 a1 3e 78 a3 67 3e
       -0.31762442 -0.27186263 0.3162927 0.22620952
000360 3b 26 19 be b3 6f 7a 3e 02 ee e8 be c8 d8 83 3e
       -0.1495599 0.24456672 -0.45494086 0.25751328
000370 f7 9c a5 3d 85 74 bf be e3 c4 6d 3e 89 a8 8d 3e
       0.08086579 -0.37393585 0.23219638 0.27667645
000380 5a fb 08 bf 15 55 c5 be 65 d1 99 3e cf fb 41 3e
       -0.5350853 -0.38541475 0.30042568 0.18943714
000390 37 f4 d8 3d 65 9a 84 3e 0f 3e 67 3e 24 1d 7a 3d
       0.10593455 0.25899044 0.22582267 0.061062947
0003a0 5b bd c6 bd 98 ea 0a bf 1a 44 c5 3d e4 67 76 3e
       -0.097040854 -0.5426421 0.0963213 0.24063069
0003b0 9b d9 c4 be 2c 4b 14 bf 94 3b 78 3e d3 24 01 3e
       -0.3844727 -0.57927203 0.24241477 0.12611704
0003c0 47 da 05 bf ce 69 35 be 7a 9a 86 3e 32 2d 05 bf
       -0.5228619 -0.17716143 0.2628973 -0.5202209
0003d0 2f 21 c7 3d ed a6 22 bf d4 2f b9 be c7 f8 83 3e
       0.09723126 -0.6353596 -0.36169302 0.2577574
0003e0 75 3d 88 3e fa 6f 27 bf 4c 2d 0a bf 07 3b 06 bf
       0.26609388 -0.6540524 -0.5397537 -0.5243382
0003f0 2f 5e 91 3e bd fa 1d bf ad 4b 86 3e 1f 3f 02 bf
       0.2839217 -0.6171072 0.2622961 -0.50877565

classifier.1.bias f4 [10]
000000 41 4d 54 3d ac ef a4 3e bd 10 a7 3c 8a 9c 8b bd
       0.051831488 0.32214105 0.020393724 -0.06816967
000010 f4 21 85 be 1a db c4 3d 2d 38 eb 3c dc 01 3f 3d
       -0.26002467 0.09612103 0.02871331 0.046632633
000020 3d 36 82 bd fb b8 37 3e
       -0.063580014 0.17941658

onnx::Conv_49 f4 [32, 1, 3, 3]
000000 a7 31 f1 be ff d6 7d bd 3f c1 41 3f dc f0 9e be
       -0.47108194 -0.061972614 0.75685495 -0.31043136
000010 aa 4e 1f 3f 4f ac 0f bf 67 00 c7 3e d0 44 14 3e
       0.62229407 -0.561223 0.38867494 0.14479375
000020 69 cf da 3c 70 61 d5 bd 09 60 e5 be 67 01 b2 3c
       0.026710229 -0.10418975 -0.44799832 0.021729184
000030 97 b4 83 3e d0 35 c5 3d a0 20 06 3f bd 3d 19 be
       0.25723717 0.096294045 0.5239353 -0.14964958
000040 e6 92 9e be 85 58 2f 3f 40 2e 69 be b4 c8 4e 3e
       -0.3097145 0.68494445 -0.22771549 0.2019375
000050 78 59 23 bf 76 0c ab 3e 4d a9 08 3e fe ec 92 bd
       -0.63808393 0.33407944 0.13345833 -0.07174109
000060 cf e5 0a 3f 49 6d 5e 3e ff ad 08 bc 71 7c 9c 3e
       0.5425691 0.21721376 -0.008342265 0.3056369
000070 c2 4d 29 3f ff 57 80 be c8 de 99 bd 77 ea 40 bf
       0.66134274 -0.25067136 -0.07513195 -0.75357765
000080 eb d8 11 3f 3e ec db 3d 3a a5 27 bf c3 7e 7f 3d
       0.56971616 0.10738419 -0.6548649 0.06237675
000090 2c c6 f1 bd 3e 68 f1 3e 03 d4 a0 bc 3d 5c 1d 3f
       -0.118053764 0.47149843 -0.019632345 0.6146887
0000a0 0c c8 e3 3e 32 7e 15 3e 06 e1 4b bf f9 f9 e8 be
       0.4448856 0.14598921 -0.79640234 -0.45503214
0000b0 61 93 e4 bd 87 38 26 be d7 4a e4 be d9 f6 de be
       -0.11160923 -0.16232501 -0.44588348 -0.43547705
0000c0 e8 1d bf be a0 de 9f 3d 8c 5d 02 3f fd 93 94 be
       -0.37327504 0.07806134 0.5092399 -0.29019156
0000d0 39 cb d3 3e b7 b3 59 be e2 07 6a be 5d bb 65 3e
       0.41365984 -0.21259962 -0.2285457 0.22434755
0000e0 4c a7 13 3e 3e 75 0a bf e2 3b 87 3d 80 f4 a5 3e
       0.14419287 -0.5408515 0.066032186 0.324131
0000f0 ce 25 f3 bc b1 0c 4c 3e 8a 75 b9 3e ad cb 8a bd
       -0.029681113 0.19926716 0.36222488 -0.06777129
000100 b3 0e 1e bf 6a 25 a6 3e 5d 24 9f be 7b e8 cf be
       -0.6174118 0.3245042 -0.3108243 -0.40607056
000110 a1 7c 6a 3e 4b df 87 3d f7 78 1b be 3b 51 ba 3e
       0.22899105 0.06634387 -0.15182863 0.363901
000120 98 41 cb be d9 30 ed 3d 0d 6f af 3e 8c 8e cd be
       -0.39698482 0.115815826 0.34264413 -0.40147817
000130 ea 1e 1a bf 5a e8 f3 be c4 80 f3 3e 3b fd 72 3e
       -0.6020342 -0.47638208 0.47559178 0.23729412
000140 a9 13 26 3f 3d 8c 97 3e f7 46 03 3e 23 01 d7 bd
       0.6487375 0.2959918 0.1282004 -0.10498264
000150 b3 78 ba 3e ea d7 f1 be 5d 00 81 be 18 37 16 3f
       0.3642021 -0.47235042 -0.2519559 0.58677816
000160 9a 5b 9e 3e 47 dc c5 be 22 d2 e0 bd 7b 80 13 3e
       0.3092926 -0.3864462 -0.1097758 0.1440448
000170 bb 3d 3e be 07 a4 6c 3d 33 d9 80 bd 9c 82 87 3e
       -0.18578236 0.057773616 -0.062914275 0.26466835
000180 0e b3 80 3e a4 5e b0 3e 7f a3 48 3e 37 93 1c be
       0.25136608 0.34447205 0.19593619 -0.15290533
000190 61 66 a6 3e 7d 93 c1 3e 37 2b 78 be 65 eb 6f 3e
       0.32499984 0.37807837 -0.24235235 0.2342964
0001a0 35 83 d8 3e 4c c2 ff be 6e b2 d9 be 6f 60 03 3f
       0.42287603 -0.49952924 -0.42518944 0.5131902
0001b0 a7 37 36 3e 95 1a 07 3e 88 c0 78 be 18 84 d5 be
       0.17794667 0.13193734 -0.24292195 -0.41702342
0001c0 dc 16 2b 3e 82 58 24 3e 89 4f 2a 3e 05 78 05 3f
       0.16707939 0.16049388 0.16631903 0.5213626
0001d0 a9 fe a1 3d fe a5 1d 3f db 8c d3 bc 34 19 d4 3d
       0.07909901 0.6158141 -0.025824001 0.103563696
0001e0 3f 70 ca 3e c1 fb 98 be 34 43 94 be d4 a2 4d 3e
       0.39538762 -0.29879573 -0.28957522 0.20081645
0001f0 05 41 48 be 81 60 aa be fc 8b ff bb f9 d1 e8 bd
       -0.19556053 -0.33276752 -0.00779867 -0.11368174
000200 35 7d 78 be 2f ee 3d be f7 04 ae be 40 4f 5b 3e
       -0.24266513 -0.18547891 -0.33988163 0.2141695
000210 f3 65 67 3e 69 68 8d be 71 bc 5b be 12 2c 2a bf
       0.22597484 -0.2761872 -0.21458603 -0.66473496
000220 c0 47 ec bd ba 85 fd 3c 8b 30 9e 3e ab 4e 82 be
       -0.11537123 0.030947555 0.3089641 -0.25450644
000230 39 e1 62 3f 23 b3 5b 3f 55 3e 63 be 8e fd 26 bf
       0.8862491 0.85820216 -0.22191747 -0.65230644
000240 d1 da f4 be 9d 16 7b be b5 1f 36 bf 83 96 b2 3e
       -0.47823194 -0.24520345 -0.7114213 0.34880456
000250 dc 64 22 3e 75 14 0a be d8 e6 a9 3e dd e6 f6 3e
       0.15858787 -0.13484366 0.33183932 0.4822301
000260 2e 38 d6 be ad 2d dc 3e 5f 4e cc 3e fe 8a 1a 3f
       -0.41839737 0.43003598 0.39903542 0.60368335
000270 89 79 05 bf f5 e9 00 bf be 7e ad 3e c5 a4 60 3d
       -0.5213857 -0.5035699 0.3388576 0.054844636
000280 fc 4f b7 3c 7a ab 93 be a5 13 18 be 95 60 12 be
       0.022377007 -0.28841764 -0.14851244 -0.14294656
000290 28 91 38 3e bb b6 0a bf 30 17 49 be 79 7a 5e 3e
       0.18024123 -0.54185075 -0.19637752 0.21726407
0002a0 80 13 a9 3e 6e ec 4a 3d 7a ef 18 3f d5 8e bf be
       0.3302269 0.049541883 0.5974041 -0.3741366
0002b0 30 df 99 be 50 d8 a8 3e 53 c8 fd be 9b ec ca 3b
       -0.3005309 0.32977533 -0.49566898 0.0061927564
0002c0 94 eb b7 3e 74 7c ab be fe 14 a3 3d 91 ee c2 3d
       0.3592192 -0.33493388 0.07962988 0.09518159
0002d0 4e 88 ca 3e f3 c0 0f 3c 17 07 ad 3e 3b 75 74 3d
       0.39557117 0.00877403 0.33794472 0.059682112
0002e0 77 a4 ec 3e 20 6e 45 be 6c bd be 3e cf ba d6 be
       0.46219227 -0.1928029 0.37253892 -0.419394
0002f0 a2 9b d0 be b5 9e f0 3e 88 6b b0 3d 0e 18 c7 be
       -0.40743738 0.46996084 0.0861426 -0.3888554
000300 e6 e1 cd 3d 8b 49 3d 3e 94 0d ca be b9 10 a6 3d
       0.10052852 0.18485086 -0.39463484 0.08108658
000310 70 08 e0 be 97 cf a8 be b4 ce b3 bd be 18 c7 3c
       -0.43756437 -0.32970878 -0.0877966 0.02430379
000320 8f ec 6f be 8d ea bc 3e 92 ac d8 bd ba 4f 1d bf
       -0.23430084 0.36897698 -0.1057979 -0.6144978
000330 85 01 44 3f d0 47 4e be 71 83 18 3f 08 30 0f 3f
       0.7656482 -0.20144582 0.59575564 0.55932665
000340 c8 d5 b2 be e3 05 24 bf bf 2f 8a 3e 8f ac b5 be
       -0.34928727 -0.6407148 0.26989552 -0.35483214
000350 23 d1 56 be d7 c3 7e 3e f6 ae 11 be 0c 8d c9 3b
       -0.20978217 0.24879394 -0.14226899 0.0061508473
000360 6c 89 1c bf d8 77 04 bf 56 06 8a be 78 bb a8 3d
       -0.6114719 -0.5174537 -0.2695796 0.08238882
000370 a2 ad 48 3e 91 16 4d 3e 85 00 01 bd 40 ef d1 3e
       0.19597486 0.2002814 -0.031494636 0.41002846
000380 4a 6d 94 3e f3 69 36 3e 0f b1 53 bb 54 59 fe 3e
       0.2898963 0.17813854 -0.003230158 0.49677527
000390 b0 ae 66 3e fe 8f e5 be 8c 69 eb 3d 31 67 05 bf
       0.22527575 -0.4483642 0.11494741 -0.5211058
0003a0 93 61 0f be 17 57 16 bf 38 77 56 3e 9a dc 96 be
       -0.14002065 -0.5872664 0.20943916 -0.2946518
0003b0 f4 fe 20 bd bf 75 cc 3d 71 55 65 3e 63 a0 0e bf
       -0.039305642 0.09983396 0.22395875 -0.5571348
0003c0 28 9c 87 be 81 ad a2 be 00 1f 21 3d bb d2 da be
       -0.26486325 -0.31772998 0.039336205 -0.427389
0003d0 e0 e3 a0 be 76 b9 15 3d 42 56 0d 3e 60 ff 91 3e
       -0.31423855 0.036553822 0.13802436 0.28515148
0003e0 85 2f eb 3e 1c c6 01 3e b8 94 92 be ba 9e e0 3e
       0.45934692 0.12673229 -0.28629088 0.438711
0003f0 17 70 34 3f e6 84 1a be c6 b3 d5 3e 76 7d 14 3e
       0.70483536 -0.15089759 0.4173872 0.14500985

onnx::Conv_50 f4 [32]
000000 fe a4 87 be d8 35 31 be f6 69 5b be 08 59 85 be
       -0.26493067 -0.17305696 -0.2142714 -0.26044488
000010 a2 4e 96 be 20 20 85 3e 9e 8b 27 be ce 9a cf 3d
       -0.29356867 0.26001072 -0.16361853 0.101369485
000020 84 af 4a bd fa 72 64 be d8 21 05 bc 35 75 51 be
       -0.04948379 -0.22309485 -0.008125745 -0.20454867
000030 62 d8 1b be 3a 87 5e be 15 ab 02 3e fe 06 5b be
       -0.15219262 -0.21731272 0.12760575 -0.21389386
000040 ae dc 2a 3e 59 45 51 be 55 e7 95 be 1c 87 80 3e
       0.16685745 -0.2043661 -0.29278055 0.2510308
000050 74 87 2a be 61 2d 78 3d dd ad 23 be bd ba fc 3d
       -0.16653234 0.06059015 -0.15984292 0.12340305
000060 d8 b5 7d 3d 7a dd 08 3e 09 91 f1 3d 8a 79 71 be
       0.061940998 0.13365737 0.117952414 -0.2358152
000070 76 b0 31 bd 7c dc c9 bd 86 17 4e 3e 02 73 62 3e
       -0.043381177 -0.09856507 0.20126161 0.22114184

onnx::Conv_52 f4 [32, 32, 3, 3]
000000 fc 53 79 3d 40 61 1a 3c 97 3e 8f 3c 10 8c 19 3d
       0.06087111 0.0094226 0.0174859 0.03748709
000010 0e a5 b8 3c 89 98 d3 3c b9 55 e1 bb e2 e1 bf bc
       0.022539642 0.02582957 -0.006876674 -0.023423139
000020 3d 90 76 3b a6 94 06 3d f5 a0 40 3d 5d e0 90 3d
       0.0037622594 0.032856606 0.0470285 0.07074044
000030 93 6f 62 bc 75 f1 1e 3c b8 e0 5c 3d 66 14 08 3d
       -0.013820547 0.0097011225 0.053925246 0.03322258
000040 75 91 f3 3b 93 a2 82 3c f1 3d b5 bd 69 ff d2 bd
       0.0074331113 0.015946662 -0.08849705 -0.10302622
000050 e1 97 53 bd e0 c2 f7 bd 4f 20 20 bd 82 d9 b8 bb
       -0.051658515 -0.12097716 -0.039093312 -0.0056411633
000060 34 ca 0e be 68 aa d3 3c 04 c3 1a bc f3 cf 4a bd
       -0.13944322 0.025838092 -0.009445909 -0.049514722
000070 69 e0 b9 bc 29 f1 a4 3b 0c 9e d3 bc 03 40 bd 3c
       -0.022690015 0.0050336313 -0.025832199 0.023101812
000080 8b 11 14 bd 38 e7 22 3c 6c fc 64 3d d8 36 3a 3c
       -0.036149543 0.009942822 0.05590479 0.011365615
000090 5d 60 26 bd dd 65 9c 3c 7b 6f 9f 3c c6 e6 34 3c
       -0.040619243 0.019091541 0.019462338 0.011041349
0000a0 ce d4 e5 3c 65 3b 61 bc 85 5e c6 bc 52 07 0e 3d
       0.028055575 -0.013747071 -0.024214992 0.03467495
0000b0 60 16 c0 bc 9a 37 e8 bc 87 32 4b 3d 64 ba 8c 3d
       -0.02344817 -0.028346825 0.049608734 0.06871489
0000c0 22 f0 a4 ba bf 62 29 3d 2a bc f0 3b 18 e0 72 3d
       -0.0012583772 0.041353937 0.0073466497 0.059295744
0000d0 cf 5f 83 bc e2 53 86 bc 80 53 98 3c 26 13 b0 39
       -0.016036896 -0.01639742 0.018594503 0.00033583603
0000e0 c8 46 96 3c 6b 33 90 3c 64 6d 04 3d ed b8 cd 3c
       0.018344298 0.017602643 0.032330886 0.025112594
0000f0 bf 86 e5 3c 3c 31 92 3c d1 7a 97 3c e9 b0 c9 bc
       0.028018354 0.017845742 0.01849118 -0.02462049
000100 6e f5 3c bd 01 30 d3 3c 67 11 79 3b db 2f c6 bb
       -0.046132497 0.025779726 0.0038004757 -0.0060481853
000110 f5 28 07 3d e0 f3 48 bd ea 0c 7c 3c f3 c2 a3 3c
       0.032998044 -0.049060702 0.015383938 0.01999042
000120 f3 06 f1 3c ea aa 9b bb c8 ac 3d bc f5 95 81 3c
       0.029422259 -0.004750599 -0.011576839 0.015818575
000130 2b 33 2c bc db 58 b3 3c aa 8a d8 bc 96 41 60 bd
       -0.010510246 0.021892956 -0.026433308 -0.054750048
000140 65 98 b5 3c 67 ab 90 bd 21 55 a7 bd be d7 9e bc
       0.022167394 -0.070639424 -0.08170534 -0.019389983
000150 15 68 41 bd 81 be 82 bd f0 a3 5f 3c 65 1f ce bd
       -0.0472184 -0.06383992 0.013649926 -0.10064582
000160 e8 73 7b bc 1d 0d 16 3d c9 0c a1 bb 7b 8c 14 bd
       -0.015347458 0.0366336 -0.004914854 -0.036266785
000170 f3 73 ae 3c 97 4c 4f bd be 93 01 bd 2a b9 3b 3d
       0.021295523 -0.05061015 -0.03163504 0.045830883
000180 1c 34 2c bd fa e0 ba ba f3 6f 58 3c e9 ee a4 bb
       -0.042041883 -0.0014257722 0.0132102845 -0.005033363
000190 11 c5 d4 3c e5 a9 fb 3b 20 b1 6b 3d 32 35 13 bd
       0.025972875 0.007680165 0.057541966 -0.035939403
0001a0 c5 05 80 3c ad af 99 3d 5c 52 82 3d ed ed e3 3c
       0.015627751 0.075042106 0.06363365 0.027823413
0001b0 bd 3a 88 bd b2 51 88 bc d1 2c 9d 3c 66 aa 3f bd
       -0.066518284 -0.016640518 0.01918641 -0.046793364
0001c0 6d a6 48 3c f2 26 89 bc 44 6f 2f bd 98 7a 92 3a
       0.01224671 -0.016742203 -0.04283072 0.0011175452
0001d0 4d 34 09 3c e0 0b 74 bd 31 7d 16 bd 55 e4 a1 bc
       0.008374286 -0.059581637 -0.036740486 -0.019762198
0001e0 66 00 c7 bc 29 93 e7 bc b0 28 37 bd 51 95 c3 bd
       -0.024292182 -0.028268414 -0.044716537 -0.09549964
0001f0 10 a1 2a bd 3d 63 53 bb e1 9d c9 3b 0c 8f a8 bc
       -0.041657507 -0.0032255196 0.006152854 -0.020576023
000200 08 5a 9f 3c 0f c6 8b bc 47 a5 95 bb da 1e 18 3d
       0.01945211 -0.017062215 -0.0045668217 0.037138797
000210 b5 94 eb bb 3f d8 3a 3c 4c f3 86 3c 0c 30 b9 3c
       -0.007189358 0.011404096 0.016473435 0.022605918
000220 64 f6 d7 bc a1 bd 2e bc a7 7b 49 bd d9 a4 87 bc
       -0.026362605 -0.010665328 -0.04919019 -0.016558098
000230 42 9a 80 3d d1 2a 8d bd fd 94 25 bc b2 37 8e bc
       0.06279422 -0.06892932 -0.010106322 -0.017360542
000240 ff b7 25 bd 2d 90 ca bc cb f6 08 ba 90 d2 ca bc
       -0.040458675 -0.024726951 -0.00052247633 -0.024758607
000250 0d 8b dd 3c af 7a 6b 3c e7 b2 bd 3c 4c c7 3e 3d
       0.027043844 0.014372512 0.023156596 0.046576783
000260 f4 40 25 3d fd be 2d bd ce dc 30 bd c7 6d bc 3c
       0.040345147 -0.04241847 -0.043179326 0.023001565
000270 90 6c 7d bd b5 ba 1f 3c 5e 13 76 3b 0b c5 0e ba
       -0.06187111 0.009749104 0.0037548165 -0.0005446232
000280 04 27 43 3d 1c c6 c2 bc 3a 8b 4c 3d eb d2 5d bc
       0.04764463 -0.023776107 0.049937464 -0.013539056
000290 20 3c 06 3d f6 84 1d bd fc 64 69 3c b6 17 45 3d
       0.032772183 -0.03845688 0.014245268 0.048118316
0002a0 a0 26 46 bd fd dd 28 bc bf e1 fb 3c 21 fd bf bb
       -0.04837668 -0.010306832 0.030747293 -0.0058590327
0002b0 e9 e4 bc bb 14 0e a3 3c 68 fd 11 3c ce d8 79 bd
       -0.005764593 0.019904174 0.008910514 -0.060997777
0002c0 64 59 a0 3d 49 28 f6 bc dc b8 c4 3a 4b 94 0a 3d
       0.0782955 -0.030048506 0.0015008706 0.03383283
0002d0 8b c2 ba bc 48 96 96 bc 7b 60 d8 bc 6b 68 78 bd
       -0.022797843 -0.018382207 -0.026413193 -0.060646456
0002e0 43 db 42 bd ad 8c 46 bd 29 23 8a bd cf 0c d7 bc
       -0.047572386 -0.048474003 -0.067449875 -0.026251225
0002f0 14 83 75 bd b8 1d d8 3a 52 54 9d 3b 44 fe 4c bc
       -0.05993946 0.0016488349 0.0048013115 -0.0125117935
000300 1f ee 27 3d d1 6d 8f bd 3c 33 4d bc 68 e6 0e 3d
       0.040998574 -0.07003368 -0.012524422 0.0348877
000310 a1 e0 24 bc 48 e6 d0 b8 58 65 39 bd a0 e0 bf bb
       -0.010063321 -9.961106e-05 -0.045262665 -0.005855635
000320 74 1e 3c bc 02 66 b6 bd d8 30 ba bc 55 70 22 3c
       -0.01148187 -0.08906175 -0.022728369 0.009914477
000330 46 2a 1d be 88 50 19 bc 0d 68 6e bc e8 9f c6 bd
       -0.15348157 -0.009357579 -0.014551175 -0.096984684
000340 be 59 aa bd e1 b0 3d bd 24 5d 53 3b 0e f3 a6 bc
       -0.08317898 -0.046311263 0.003225156 -0.02037957
000350 92 25 0b 3d 89 79 f1 3c 7b f7 eb bc a9 7d 76 3d
       0.033971377 0.029476898 -0.028804531 0.060178433
000360 81 4c 88 3d b1 fe e2 3c 56 03 1e 3d 3a e5 1e bd
       0.06655217 0.027709337 0.0385774 -0.038792826
000370 1f bd 2e bc 1c e7 08 bd 78 b4 28 bc 84 0d 68 3c
       -0.010665207 -0.033423528 -0.010296933 0.014163379
000380 9b b2 2c bd 62 08 14 bc 24 5f 06 3d a0 d0 50 3b
       -0.04216252 -0.009035202 0.032805577 0.0031862631
000390 f6 ed 6c bd 44 2c 03 bd 8a 70 4b bc a8 2d 72 bc
       -0.057844125 -0.032024637 -0.012416968 -0.014781393
0003a0 26 0a 2e 3d b7 51 92 bd 87 04 07 bd 72 05 03 3d
       0.042490147 -0.07144492 -0.032963302 0.031987615
0003b0 6d 6a 57 3d 6d 3a 1c bd a0 ea 02 bd 48 3a 02 3d
       0.05259173 -0.038141657 -0.031962037 0.031793863
0003c0 b8 ae 0f bb 59 89 52 bd 65 df c4 3b 43 70 3a bc
       -0.002192421 -0.051400516 0.006008076 -0.011379304
0003d0 2c e5 3e 3d 7f df 70 bb 2f 8c 39 3b 2d 5b 80 3b
       0.046605274 -0.0036754308 0.0028312316 0.003917119
0003e0 17 ee 18 3d de 87 1e 3c 99 fd 06 3c 17 07 38 3c
       0.037336435 0.009675948 0.008239173 0.011232159
0003f0 8c 1c 30 bd 7f 8a 93 bb c2 a6 56 3d 83 34 e5 bc
       -0.042995974 -0.004502594 0.052405126 -0.027979141

onnx::Conv_53 f4 [32]
000000 2d ff db 3e a8 c0 02 3f 4d fc 2c 3f 29 d1 23 3f
       0.4296812 0.5107522 0.6757248 0.6399103
000010 d5 f4 01 3e 82 4b 8c 3e 94 21 f7 bd b8 17 fb be
       0.12691052 0.27401358 -0.120669514 -0.49041533
000020 a4 8a 85 bf 70 d9 1c 3e a4 ed be 3f 3e 52 9f 3e
       -1.0432935 0.15317321 1.4916272 0.31117433
000030 7d 3c 9f 3e d2 c3 1f 3f 20 74 33 3f 13 41 68 3f
       0.31100836 0.62408173 0.7009907 0.90724295
000040 78 1a ef 3d 30 4a 87 3d c7 16 f8 3f a8 24 50 3f
       0.116749704 0.06605947 1.9381951 0.81305933
000050 12 98 93 3f ee c3 a2 3d 2c c9 1a 3f 14 57 68 3e
       1.1530783 0.07947527 0.60463214 0.22689468
000060 b0 4e cd 3d ae d1 3c 3f c8 7d 3a bd 42 39 19 3f
       0.10024774 0.73757446 -0.04553011 0.59852993
000070 15 5c 78 3f 7b 22 1a 3e b4 87 b0 3f 40 6d a3 3b
       0.97015506 0.15052216 1.3791413 0.004987389

onnx::Conv_55 f4 [64, 32, 3, 3]
000000 97 1e ab 3d 17 17 8f 3b 47 db 30 3d 36 74 ad 3d
       0.08355444 0.004366766 0.04317787 0.08469431
000010 8e 06 e1 3c 51 fd 60 3d 19 b8 a0 3d 23 79 11 3d
       0.027468946 0.05492908 0.07847614 0.035515916
000020 7b 99 94 3c c6 b4 08 bc 52 a0 da 3d 08 51 7a 3b
       0.018139591 -0.008343881 0.1067511 0.003819527
000030 23 6e 06 bc 1a 6d 24 3d a9 41 56 bc 12 da 1e 3a
       -0.00820497 0.04014311 -0.013077178 0.00060597167
000040 67 9c 7d 3c 28 7a 91 bd a3 99 9a bd 8d 66 2a 3d
       0.015479184 -0.071033776 -0.07548835 0.041601706
000050 36 af 06 bd f8 6e b1 bc 4c 11 c6 3c f2 7e 2d bd
       -0.032881938 -0.02165936 0.02417817 -0.042357393
000060 6a 2b b2 bd 84 5e b8 3c 3c 83 2b 3d 14 39 a2 3c
       -0.08699687 0.022506006 0.0418732 0.019802608
000070 f9 79 1b bd b3 58 7d 3c bb c6 86 bd 79 cf 04 bd
       -0.03795812 0.015463042 -0.065808736 -0.032424424
000080 bc 1c a2 bc ae 90 0f be 30 e2 ef bd d2 12 b5 bd
       -0.019789092 -0.14020035 -0.11713064 -0.0884148
000090 07 3c b2 3c d2 2c e1 3c 18 6a 57 3e 0b 91 07 3d
       0.021757139 0.027487192 0.21036565 0.033097308
0000a0 e0 76 bd bc 27 a5 9d 3d 18 b1 e0 3c cf b9 a1 bc
       -0.023127973 0.07697516 0.027428195 -0.01974192
0000b0 8e 0a 84 3d d5 50 87 3d db d3 89 3c 41 4d 5f bd
       0.06447326 0.06607214 0.016824653 -0.054517034
0000c0 09 d8 80 3d 84 dc 63 3b bc 05 c0 bc 56 85 7c 3d
       0.062912054 0.0034768889 -0.023440234 0.061650597
0000d0 41 ba 33 bc 2a 0b 57 bc 46 76 68 bd 49 82 a3 bc
       -0.010969699 -0.01312522 -0.05675342 -0.019959586
0000e0 0d 24 7b bd 9e f5 0c bd bf a2 94 3c 9f 9c 24 bc
       -0.061313678 -0.034413926 0.01814401 -0.010047107
0000f0 d2 5f 35 bc a9 49 0e 3d 48 0c 6c bc 9c e5 e9 bc
       -0.011070209 0.034738217 -0.014407225 -0.02855187
000100 41 2e 3a 3b d5 cd fc bc 50 b3 ce bd 4c 56 4b bd
       0.0028408917 -0.030859867 -0.10092795 -0.049642846
000110 49 07 98 bc 6f 90 81 bc 7a c1 9c 3c 69 cf 94 bc
       -0.018558161 -0.015815942 0.019135226 -0.018165307
000120 a1 ad 37 bd d8 4f ea 3b fe 4e 05 bd 3e 59 ef bc
       -0.04484332 0.0071506314 -0.032546036 -0.029217359
000130 7c 6c 02 bd b0 16 e1 bc f8 bb 86 3c 68 9e 67 3d
       -0.03184174 -0.027476639 0.016447052 0.056547552
000140 21 84 82 3c 7e 10 48 bd 7e 0a bd 3c 49 b4 db 3b
       0.015932145 -0.048843853 0.023076292 0.0067048413
000150 fe 0a 97 3c 2b 00 88 bc 7c eb cc bc c8 8e bd 3d
       0.018437859 -0.016601643 -0.025014631 0.09255749
000160 d1 af db 3c 2a f1 7a 3d 8a a9 1a 3d 0f 62 3f bd
       0.026817234 0.06126515 0.03775934 -0.046724375
000170 c7 2d 5f 39 50 a1 6c 3d 4b ea ab bc e3 cd f3 3c
       0.0002128399 0.057771027 -0.020985743 0.02976126
000180 aa be 40 3d 89 8c 9f bb 8f a3 d5 bc 9b a9 5a bd
       0.04705683 -0.004869048 -0.026078967 -0.053384405
000190 f3 68 01 bd 51 d5 f1 3c c7 e7 da 3c ed a3 2e 3c
       -0.031594228 0.029520663 0.026721848 0.0106592
0001a0 eb 84 ff bb ed 2b 19 3d f1 b0 27 bb 94 37 03 3d
       -0.0077978275 0.037395407 -0.0025587643 0.032035425
0001b0 e1 bd 7b bd 0d 70 9c bc 6b 86 b1 bd de 01 c5 bd
       -0.06146038 -0.019096399 -0.08668216 -0.09619497
0001c0 32 de 3e bc 0e 1f b2 bd 9e c5 0c be 20 e1 75 bd
       -0.011649655 -0.086973295 -0.1374726 -0.06002915
0001d0 e9 97 e4 bd e5 9b 25 bd 6a 74 1c bd 4d b0 ac bd
       -0.11161787 -0.040431876 -0.03819696 -0.08432064
0001e0 02 f9 18 bd 7f da 0f bd 67 90 31 3c ff 58 3a bd
       -0.037346847 -0.035120483 0.010837651 -0.04549503
0001f0 10 e2 d3 bc f2 d2 24 3c 16 d5 9c bd 16 66 8f bd
       -0.025864631 0.010060059 -0.076578304 -0.07001893
000200 1f 7f aa bd 8f 6e c9 bc dd 25 86 3c 43 70 53 bc
       -0.08325028 -0.024588851 0.016375476 -0.012905183
000210 eb 39 aa bc dc 07 26 3b 01 64 dd bc 56 2c 41 3d
       -0.02077957 0.0025334274 -0.027025225 0.047161423
000220 09 fb 85 3d 4d 52 97 bb 88 ca 7e 3c 6a 77 90 3d
       0.06542022 -0.0046179653 0.015551217 0.070540264
000230 e0 0e b6 3c 09 e8 0f 3d c2 ab c0 3d e5 9b f8 3c
       0.02222389 0.035133395 0.0940776 0.030347774
000240 0b 67 95 bd fa c9 12 3d c7 33 37 3b 7d ec 8c bb
       -0.072950445 0.03583715 0.0027954446 -0.0043006525
000250 53 21 8e 3d 49 e6 54 bc bb 27 9a bc d6 e8 f6 3b
       0.0693995 -0.012994357 -0.018817773 0.0075350804
000260 b0 51 47 bc 37 b1 39 3d 9e 3e 1c bd 46 31 e6 bd
       -0.012165472 0.04533502 -0.038145654 -0.11239867
000270 5f e1 59 3c ba b3 2e bd 36 49 38 bd 52 e6 12 3d
       0.013298362 -0.04265187 -0.044991694 0.03586418
000280 43 3d 8a 3c d0 f1 a7 bd 36 99 65 bd 30 1e 9a bd
       0.016874915 -0.08200419 -0.056054316 -0.07525289
000290 5f df f5 bc 00 7b 70 3b db 2a b0 3c 9d 2a 18 bd
       -0.030013738 0.0036694407 0.02150481 -0.037150014
0002a0 d4 26 80 bd 6f 73 0a bc 01 8e ad bd 4a ad 8e bd
       -0.06257406 -0.008450373 -0.08474351 -0.06966646
0002b0 a2 c1 37 bd 9b 76 28 3d fa da 67 3c 85 81 c8 3c
       -0.044862397 0.041128736 0.014151329 0.024475822
0002c0 4a fc 7f 3d 98 d4 62 3d 67 2f ad 3c fe 6d 80 3d
       0.06249646 0.055378526 0.021140767 0.06270979
0002d0 37 cc b5 3c dd a3 30 3d 9d 85 f0 bc bd 19 df 3c
       0.022192104 0.043125022 -0.029360587 0.027233953
0002e0 e7 44 ba 3c 6d 23 bc 3c 6c 20 62 bc a0 c3 88 bc
       0.022737933 0.022966111 -0.013801675 -0.016694844
0002f0 7a 85 c8 bd cc 2d 87 bd 2b 1b a4 bc c0 c7 49 3d
       -0.09791084 -0.06600532 -0.020032486 0.049262762
000300 02 ab 82 bc 9a 2e 01 bd 1d 92 c6 bc 30 37 36 bd
       -0.015950684 -0.031538583 -0.024239594 -0.044486225
000310 94 56 46 bd 48 4c aa bd eb 53 6b bc 23 d2 62 bd
       -0.04842241 -0.08315331 -0.014363269 -0.055376183
000320 a9 03 b3 bc 2c 6a 6a 3c 82 4a ee 3a f6 d1 82 bd
       -0.021852331 0.01430754 0.0018180164 -0.06387703
000330 6e 21 07 bc 9f 3b 9f bb e2 f1 08 bd fd b2 84 bd
       -0.008247716 -0.0048594023 -0.033433802 -0.06479452
000340 3f 72 99 3c 5c a1 e6 3d 17 80 24 3d 9c dd 74 bc
       0.018731235 0.112612456 0.04016122 -0.014945414
000350 38 49 02 3d 67 17 6e bd 4f a1 34 bd d5 3b d8 bb
       0.031808108 -0.058127787 -0.04409915 -0.0065989294
000360 ca 37 4b bd 2f a8 79 bc 10 cb 80 bb ba 93 71 bd
       -0.04961375 -0.015237852 -0.003930457 -0.058978774
000370 11 3f 17 3d 66 6a 9f bd 60 d1 71 bd 08 df eb bc
       0.03692538 -0.07783966 -0.059037566 -0.028792873
000380 dc ce 41 bd a8 e1 0b bc 7d ce a0 bc 53 7c 2b bd
       -0.047316417 -0.008537687 -0.019629711 -0.04186661
000390 cd 0a b1 bb aa 9e 39 bd e8 eb fb 3b 9e 86 06 be
       -0.005402899 -0.04531733 0.0076880343 -0.1313729
0003a0 d4 07 50 bd c8 96 fb bc 1f 77 37 3d 99 95 08 3d
       -0.050788715 -0.030711547 0.044791337 0.033345792
0003b0 bd f2 d4 3c 71 3f 06 3d 84 77 7a bc e2 6e 54 bd
       0.025994653 0.032775346 -0.015287284 -0.05186356
0003c0 72 b0 40 3d 26 7b d6 bc 0a f2 92 bd 92 7f 2d be
       0.04704327 -0.026181769 -0.071750715 -0.16943195
0003d0 2a 41 15 bc 7b 2e 4f bd d6 7f 50 3b a7 92 06 3d
       -0.009109775 -0.050581437 0.0031814477 0.032854702
0003e0 42 b6 e1 bb 18 02 17 3c 99 7c d3 3c 05 9e 30 3c
       -0.006888182 0.009216808 0.025816249 0.010779862
0003f0 98 ad 85 bb c5 4a ee 3c 65 53 67 3c 8a ed af bc
       -0.004079532 0.029088387 0.014119004 -0.021475572

onnx::Conv_56 f4 [64]
000000 ea 54 25 3f 0a 1a 48 3f 84 34 fa bd b3 16 8f be
       0.64582694 0.7816473 -0.12217048 -0.27947006
000010 6a 39 56 3f 4f 42 fa 3e 20 ed c2 3e 05 28 13 3f
       0.83681357 0.48878714 0.38071537 0.5748294
000020 00 92 60 bd 06 32 c4 bd 76 20 9a 3e 5c c0 34 3f
       -0.054826736 -0.09579854 0.3010289 0.7060602
000030 fe c1 56 3f fc 79 91 3e 69 4e 8d 3f c6 65 df 3e
       0.8388976 0.2841338 1.1039554 0.43632334
000040 56 5a 55 3f cb 85 17 be c4 c7 d5 3e 3c 90 2b 3e
       0.83340967 -0.14797132 0.41753972 0.1675424
000050 ea 56 2d be ae f2 99 3e 48 15 8b 3f 82 1d 52 3f
       -0.16927686 0.30067962 1.086587 0.82076275
000060 a4 fe 6a 3e 3f 1c d8 be ae 45 33 3e 64 4b b4 be
       0.229487 -0.4220905 0.1750705 -0.35213768
000070 32 fa ae bf 20 12 b6 bd a2 03 a4 be 6e 40 76 3f
       -1.3670104 -0.08890176 -0.32034022 0.9619206
000080 16 18 eb be d3 f6 27 bf 42 da a7 3e ba 08 83 be
       -0.45916814 -0.65611 0.32783705 -0.25592595
000090 9e 4b f0 3e 4d 17 c1 3e ce 56 2d bf 3a 1e 34 3f
       0.4693269 0.3771309 -0.6771058 0.7035862
0000a0 fe dd 5d 3f 66 dc 9c 3f a6 33 db 3e 10 d1 07 3d
       0.8666686 1.225476 0.42812842 0.033158362
0000b0 cc db 71 3e a8 ea 19 bd 68 76 56 be 32 8e fb 3e
       0.23619002 -0.0375773 -0.20943606 0.49131924
0000c0 9d bc ad 3e b0 ae 5e 3f 88 03 24 3f fc 16 4d 3e
       0.33932963 0.869853 0.6406789 0.20028299
0000d0 d4 1b 3c bf 31 b5 1f 3f 88 4c 9b 3e 38 f5 1e 3e
       -0.7347996 0.6238585 0.30331826 0.15523231
0000e0 1a 6c ea bd d5 40 b3 3e 72 19 ba 3e d7 c0 33 be
       -0.114464 0.350104 0.36347538 -0.17554031
0000f0 92 f3 81 3e bc 1d 09 bd da ba 95 3f 00 2e 9c 3d
       0.25381142 -0.033475623 1.1697648 0.07625961

onnx::Conv_58 f4 [64, 64, 3, 3]
000000 cb 29 91 be e8 67 1a be 7a a1 31 be 1c de fb bc
       -0.28352198 -0.150787 -0.17346755 -0.030745558
000010 80 42 ec 3d 8a 94 2f 3d 66 59 19 bd 57 21 d6 3d
       0.11536121 0.042866267 -0.037438773 0.10455578
000020 b3 04 df 3d 02 64 06 be 49 a0 8e be 41 52 40 be
       0.10889568 -0.13124087 -0.27856663 -0.18781377
000030 76 b4 66 be 53 13 0c be 65 f2 e1 bd 3f e6 fb bd
       -0.22529778 -0.13679247 -0.11032561 -0.12299775
000040 25 74 1a be 79 b5 4a be d6 46 7a 3d 89 8a a8 3d
       -0.15083368 -0.19795789 0.06110271 0.082295485
000050 fb 7a 72 bd f0 44 86 3d d0 38 3e 3c 2f 58 76 bd
       -0.059199315 0.065561175 0.011610225 -0.060142692
000060 37 d0 3c 3e 50 33 a5 bb 50 e1 93 bd f0 e6 50 be
       0.18438803 -0.0050415173 -0.07220709 -0.20400596
000070 a5 ab 8b be 69 c2 95 be ef 3d 8d be c2 2d 48 be
       -0.27279392 -0.29249886 -0.27586314 -0.19548705
000080 00 16 cf be 5a d9 87 be 31 0f 16 be c8 29 6a be
       -0.40446472 -0.26533014 -0.14654233 -0.22867501
000090 6b 49 ca bc 0e b8 8a bc e3 23 09 3d ab 78 99 3b
       -0.024693212 -0.016933467 0.03348149 0.004683574
0000a0 58 8e aa 3d ce 80 75 bd cc ed 3d 3d d5 c2 c9 3d
       0.08327931 -0.05993729 0.04636936 0.098516144
0000b0 fc d2 0d bc 00 5b 93 3e c6 78 95 3e b1 04 5f 3e
       -0.00865626 0.28780365 0.29193705 0.21779133
0000c0 15 ef c5 3e c4 bd 64 3e 8d 3c 09 3e d5 b3 81 3e
       0.38658968 0.22338015 0.13402005 0.25332513
0000d0 2e c9 5b 3e a2 62 44 3e 11 ab 8f 3d 08 dc fc 3d
       0.21463463 0.1917825 0.0701505 0.12346655
0000e0 af e3 19 3e 20 33 a0 bd 10 48 53 3c 4e d2 20 bc
       0.1502826 -0.07822251 0.012895599 -0.009815766
0000f0 c5 9b 0f bc dd 95 19 bc 90 b6 37 be 53 f3 fd bd
       -0.008765166 -0.009374109 -0.17940736 -0.12399926
000100 21 70 6d 3c e3 3d 77 bd 3e 79 c1 bd 52 be 51 3c
       0.014492066 -0.060361754 -0.09446953 0.012801724
000110 13 21 4e bd cc 25 64 be 23 bb c0 bd 39 26 22 bd
       -0.05032451 -0.22280043 -0.094106935 -0.039587233
000120 4b 14 1c 3e 7c e7 9c 3d d0 9c c0 3d 53 dc 78 3e
       0.15242116 0.0766134 0.094049096 0.24302797
000130 77 a7 bf 3b 01 74 4c 3e fe 48 38 3e 81 88 9e 3c
       0.005848821 0.19966127 0.17996594 0.0193522
000140 32 3c 4b 3e 62 f8 9c 3e ef 86 17 3e 99 d2 5b 3e
       0.19847181 0.3065825 0.14797567 0.21467055
000150 ff 33 16 3e 6b 75 53 3e e6 e5 5f 3e 4c f3 9d 3e
       0.14668272 0.2065026 0.21865043 0.30849683
000160 d0 6d 93 3e c3 6d a2 3e a7 1e a9 38 a8 13 5f 3d
       0.28794718 0.31724367 8.0642574e-05 0.054462105
000170 36 d6 07 be 41 0e 77 3c 14 dc 25 3e 52 26 5b 3d
       -0.13265309 0.015079082 0.16197234 0.053503342
000180 1a ab 9e 3d ac d6 6b 3e fe 0d 69 3e 86 c9 27 bd
       0.07747479 0.2303111 0.22759244 -0.040963672
000190 21 60 60 bd 57 cd 14 be e3 6f c2 bb a6 f0 31 bd
       -0.054779176 -0.14531456 -0.005933748 -0.04344239
0001a0 7a 83 81 bd de 47 c5 bd 0d 02 e6 bd f5 da 01 be
       -0.06323905 -0.09632848 -0.1123086 -0.12681182
0001b0 1f 0b 0f 3d 4b 8c 0f 3c 84 1c 22 be d7 11 c9 3c
       0.034922715 0.008761476 -0.1583119 0.02454464
0001c0 9b 25 ae bb 10 8d 6b bb 43 a9 97 bd 98 88 5f bd
       -0.0053145415 -0.0035942234 -0.07405331 -0.054573625
0001d0 06 99 01 bd 77 1b 0b 3e c4 e4 37 3e 69 9a 6c 3e
       -0.031640075 0.13584696 0.17958361 0.23105778
0001e0 50 2b 28 3e 2e 2d 1a 3e 6e 5f 36 3e 92 97 37 3e
       0.16422772 0.15056297 0.17809841 0.17928913
0001f0 7d 45 9e 3d 34 52 80 3e 51 ba f9 3d 37 ff a4 3d
       0.077280976 0.25062716 0.1219374 0.08056491
000200 1b 4b 78 3e e5 98 15 3e b2 37 e4 3d 63 17 5c 3e
       0.242474 0.14609106 0.111434355 0.21493296
000210 ac 02 6d bb 4f d2 b6 3c 64 65 e3 3d 48 e7 9c be
       -0.0036164923 0.02231708 0.11103323 -0.30645204
000220 6b 72 b6 be 42 b2 ab be 53 80 b5 be ac 38 4b be
       -0.3563417 -0.33534437 -0.35449466 -0.19845837
000230 0c 7a 8e be 3b 0b 89 be f3 07 86 be 3c cf 51 be
       -0.2782749 -0.2676638 -0.2617794 -0.2048921
000240 c3 3f 46 3d b0 06 30 3d da ce ab 3c da f9 85 3d
       0.04840065 0.042975128 0.020972658 0.06541796
000250 81 31 a0 3d 56 82 83 3c 5a 70 36 bc dc 19 97 3d
       0.07821942 0.01605336 -0.011135185 0.07377979
000260 84 7b 85 3d bc 95 9d bd af d9 34 bd 42 89 b3 bd
       0.06517699 -0.07694575 -0.04415291 -0.08766414
000270 15 95 45 3d 93 47 d5 3b 88 4a b6 3d 63 96 cf bd
       0.04823788 0.0065087765 0.089009345 -0.10136106
000280 dc b9 93 bd ee ab 00 be f6 cc 88 3d e1 38 f7 3d
       -0.07213184 -0.12565586 0.06679718 0.12071396
000290 ad 05 70 3e 21 f5 c6 3d fa 8f 50 3d 06 2f 0d 3e
       0.23439665 0.097147234 0.050918557 0.1378747
0002a0 16 77 a1 3d 73 e4 b7 3d ee 1d 0e 3d 47 b9 b5 bc
       0.07884042 0.0897912 0.034696512 -0.022183074
0002b0 2d f2 90 3c d3 09 85 3d 1a d2 e4 bd 53 21 64 bd
       0.017693603 0.064960144 -0.11172886 -0.055695843
0002c0 d2 fc ef bd bc dd b4 3c 35 9b c2 bc 8e 52 b5 bd
       -0.117181435 0.022078387 -0.02375565 -0.08853637
0002d0 3e 08 46 3d 24 da 9b bd 65 39 d7 bd 3d 71 9d 3d
       0.048347704 -0.076099664 -0.10508994 0.07687614
0002e0 91 00 1c bd 97 40 fc 3c a5 30 95 3d 8e 17 6e 3d
       -0.038086478 0.030792518 0.07284669 0.058127932
0002f0 1e c1 a6 3d 2c e0 c5 3c bf 33 a8 3d 6f ad 87 3d
       0.08142303 0.024154745 0.08212995 0.06624877
000300 c7 7a f6 bc 43 77 8a 3d 35 4e 43 3d 27 d3 56 be
       -0.030087842 0.067610286 0.047682006 -0.20978986
000310 35 09 27 3d a5 4a aa bd 0a da 58 3c 4c 05 ce 3d
       0.040780265 -0.083150186 0.013235578 0.10059604
000320 46 3a 2e bd da a2 b4 bd a3 c3 a8 3d 2f f6 5f bd
       -0.042536043 -0.08820124 0.0824044 -0.05467814
000330 ea 0e 53 bd 9d 71 ec bd 0f db 54 be a4 3b a2 bd
       -0.051527895 -0.115451075 -0.20786689 -0.07921532
000340 a7 4e f9 3c 4a ab 29 3d 65 80 9a bd f1 d3 0a 3e
       0.030433012 0.04142312 -0.075440206 0.13557412
000350 17 bd f6 3c 27 1f d5 bd e7 58 35 3d 92 ad 42 be
       0.030119462 -0.104063325 0.044274237 -0.19011524
000360 2e 7e 0a be 4c b1 fd bd 3c a1 8c be 99 81 a2 bd
       -0.13524696 -0.12387332 -0.27466762 -0.07934875
000370 f9 fd 38 bd ad b7 29 be d4 4c a4 bd 2a 24 c2 bd
       -0.045164082 -0.16573973 -0.08022466 -0.09479554
000380 98 f3 a4 be c6 6b 17 bd e6 25 61 3d b9 bb 24 bd
       -0.32217097 -0.036968015 0.054967783 -0.04021809
000390 f5 de 71 bd 30 2c 18 bc fa ff e4 bc 06 32 97 3c
       -0.05905052 -0.009287879 -0.02795409 0.01845647
0003a0 e1 38 ee 3d 71 8f 44 3e 4c 11 6b 3e e0 15 6e 3e
       0.116319425 0.19195344 0.22955817 0.23250532
0003b0 0c 40 a4 3e a6 ee 88 3e fa 04 35 3e 27 5f 75 3e
       0.32080114 0.26744574 0.1767768 0.23962079
0003c0 7b ad e3 3d b1 03 18 3e 7b 88 3e 3e 90 90 ac be
       0.11117073 0.14845158 0.1860675 -0.33704042
0003d0 04 64 11 be 5a 9f 3c be 11 57 8d be ef 1d 42 be
       -0.14198309 -0.18420163 -0.2760549 -0.18956731
0003e0 84 39 09 be e6 b1 81 be 01 88 8d be 22 a3 61 be
       -0.13400847 -0.25331038 -0.27642825 -0.22034886
0003f0 47 0d e3 bd 11 96 59 be 54 00 26 be c2 fb 2c be
       -0.11086517 -0.21248652 -0.16211063 -0.16892913

onnx::Conv_59 f4 [64]
000000 4c 1e ee bf 02 e3 1a bf a2 f4 5c bf 6f e7 96 bf
       -1.8602996 -0.60502636 -0.8631078 -1.1789378
000010 eb 27 0e c0 e9 51 4e bf 30 fd 8b bf 09 4c 62 be
       -2.2211864 -0.80593735 -1.0936642 -0.22099318
000020 e8 b6 01 bf 7c 10 3e bf f0 09 75 3e 32 6a 1a bf
       -0.5066972 -0.74243903 0.23929572 -0.6031829
000030 45 0f 13 bf 44 8f 62 bd cc 70 aa bf c3 e6 82 bf
       -0.57445174 -0.05531241 -1.3315673 -1.0226673
000040 af 24 01 bf b4 95 66 bf 50 c0 1f bf f4 c0 a1 be
       -0.504466 -0.9007218 -0.6240282 -0.31592524
000050 a8 bf 59 bf f6 a4 3e be 00 d5 fe bd db ab e8 be
       -0.8505807 -0.18617615 -0.1244297 -0.45443615
000060 79 9f 96 bf 87 7f f8 3e d2 af 05 bf a2 a6 15 bf
       -1.1767417 0.48534796 -0.52221406 -0.58457386
000070 94 fd 29 be 82 c6 a9 be 82 57 21 be 44 28 31 bf
       -0.16600639 -0.33159262 -0.15756038 -0.69202065
000080 e1 c5 bf bf bc 1c 5a bf a9 e2 ec be 28 5e 84 3e
       -1.4982263 -0.85200095 -0.46266678 0.25853086
000090 a3 1f 9b bf f2 43 cb be c6 2e 2e bf 22 f8 d9 be
       -1.211903 -0.39700276 -0.6804012 -0.42572123
0000a0 a6 99 ff 3d 9f 1c 46 bf 1e 9e cc be 48 a5 9c be
       0.12480478 -0.7738742 -0.39964384 -0.3059485
0000b0 d6 64 27 bf b0 47 af bf 42 fa 14 bf 91 ce 19 bf
       -0.6538824 -1.3693752 -0.58194363 -0.6008082
0000c0 74 7c 50 bf 70 a7 c6 3c b8 5b 33 3e 8c a2 b4 bf
       -0.814399 0.024249762 0.17515457 -1.4112105
0000d0 85 34 55 bf 2f 20 88 bf be 8c 4c bf f4 83 73 bf
       -0.83283263 -1.0634822 -0.79902256 -0.9512322
0000e0 2c b9 24 3d c9 3d 71 bf d2 5a 89 bf 9f 0f 85 bf
       0.040215656 -0.942349 -1.0730841 -1.0395392
0000f0 d8 b1 27 bf ae 0e b3 bf 57 e7 4a bf 3a 0b 80 bf
       -0.65505743 -1.3988855 -0.79259247 -1.0003426
