qt_digit_recognize/mnist-code/mnist_optimized_cnn.pth (torch, 276052 bytes, 26 tensors)

features.0.weight f4 [32, 1, 3, 3]
000000 83 7c 9a 3c 18 6a 83 bd c4 d9 ab 3e e5 71 a0 be
       0.0188582 -0.0641672 0.3356458 -0.31336895
000010 2c cf f3 bd 77 8c 25 3e ce e9 db bd ce ac 78 3e
       -0.11904749 0.16166864 -0.10737954 0.2428467
000020 56 3c 39 be 33 06 88 3e 3e 63 f0 3d b9 60 f7 bc
       -0.18089423 0.2656723 0.11737679 -0.030197488
000030 c1 2d ff 3d 8a ff 1c bd 51 b4 6c be a8 a3 51 3e
       0.12459899 -0.03832964 -0.2311566 0.20472586
000040 b1 81 57 bd 1f bd 62 be b0 8b 40 be 2f 92 86 3c
       -0.052613918 -0.22142456 -0.18803287 0.016427128
000050 8e 1b 92 bd ca 51 8b be ba 9c 34 3e 28 45 8b 3e
       -0.07134162 -0.27210838 0.17637911 0.272012
000060 1b be 31 3e 29 60 79 be 77 b6 30 be 6f 6b fe 3d
       0.17357676 -0.24353088 -0.17257105 0.12422835
000070 22 00 97 3e 49 f2 9f 3e 07 56 92 be c2 d1 1b 3d
       0.2949229 0.31239536 -0.2858126 0.038041838
000080 11 36 2a be 17 fa 8f be 1b ac 74 be d2 20 eb bd
       -0.16622187 -0.2812049 -0.23893778 -0.11480869
000090 b0 34 bb be 3a c8 31 bc 2a be 44 3e 24 f5 05 3e
       -0.36563635 -0.01085096 0.19213167 0.13081795
0000a0 d2 0f 78 be 69 2e a7 bd f6 9c 16 be 60 f0 36 3e
       -0.24224785 -0.08163149 -0.14708313 0.17865133
0000b0 7c 73 a8 be e9 67 9c bd 4a 2d 75 3e ed 7c 2f bd
       -0.32900608 -0.07637007 0.23943058 -0.042843748
0000c0 f6 c6 a5 3e 77 57 da 3a ec 08 5d 3e 58 31 a5 be
       0.32378358 0.0016658147 0.21585435 -0.3226421
0000d0 90 bf 80 be ad 6d 9b bd 17 40 51 3e d0 e8 86 3d
       -0.2514615 -0.07589278 0.20434605 0.06587374
0000e0 5e d9 50 3e ea 49 98 be 86 5b a3 be c3 9c 07 3e
       0.20395419 -0.29743892 -0.31905764 0.13243394
0000f0 9e 9a 0e be b5 04 00 3e fb 8d 1a 3e 08 16 12 be
       -0.1392617 0.12501796 0.15093224 -0.14266217
000100 f9 36 9c 3c e8 bf 4a 3d 10 66 10 be 8c cb 2b bd
       0.019069182 0.049499422 -0.14101434 -0.041942164
000110 e0 0c 18 3e 33 15 22 3d ce 32 03 be 48 46 61 3e
       0.14848661 0.039571 -0.12812349 0.21999466
000120 f9 32 4e 3e 5e 10 92 bd f3 ec 84 3e 05 bf e7 3d
       0.20136632 -0.07132028 0.25962028 0.11315731
000130 79 b5 49 be e1 0f 02 3e a2 6b c8 be 4c 81 39 3d
       -0.19698133 0.1270137 -0.39144617 0.045289323
000140 b5 3f 8f 3e b0 51 31 3e 86 ce b9 bd 6c 82 a9 3d
       0.27978292 0.17316318 -0.09072594 0.08276829
000150 d5 ac 10 3c 3e 4c d9 be 85 9b 38 3e a4 9d 66 3e
       0.008830269 -0.4244098 0.18028076 0.22521073
000160 a0 6c 37 3e c9 47 e3 bd 07 e6 80 be 7a 42 9a 3d
       0.17912531 -0.11097676 -0.25175497 0.07532211
000170 91 ca aa 3d 86 a1 58 3e be e1 ec 3c 6c d2 01 3e
       0.08339418 0.21155366 0.028916236 0.12677926
000180 84 d5 91 be 7d 0b b8 3d 14 3f f8 3c 24 db 31 3e
       -0.28483212 0.08986566 0.030303515 0.17368752
000190 42 4a 07 bd 65 a5 13 bd 49 53 b8 3d f8 89 27 3d
       -0.033029802 -0.036046404 0.090002604 0.04090306
0001a0 e0 07 4c 3e 2a 24 7e be 2d 47 fa bd 6b e7 17 3d
       0.19924879 -0.24818483 -0.12220607 0.03708593
0001b0 67 70 56 3e a4 60 30 be dc 8a 8d be 3e f7 8d 3e
       0.20941316 -0.17224365 -0.27645004 0.27727693
0001c0 5b 5f 38 3d bd 6a 1a be 98 f3 cc 3d 3d 0d 5b 3e
       0.045012813 -0.1507978 0.10007399 0.21391769
0001d0 95 65 3f be f1 dd 3e 3e df df 3d 3e 7d b8 c3 3d
       -0.18691094 0.18639351 0.18542431 0.09556673
0001e0 a1 4d 5e 3e 60 b6 fb bd 5a a8 54 3d fa 9e 5f be
       0.217093 -0.12290645 0.051918365 -0.21837988
0001f0 d2 2f 87 3d 43 50 ac be 27 4e 0a 3e 99 52 cd 3d
       0.06600918 -0.33654985 0.13506375 0.1002552
000200 5a 15 57 be 6a a0 87 bb 7e bb 09 be 04 d6 3d be
       -0.21004239 -0.004138996 -0.13450429 -0.18538672
000210 be 45 a5 3d bd 9d 50 3e 30 3c d7 3d 41 a2 94 3e
       0.08069943 0.20372672 0.10509527 0.2903004
000220 19 5c 70 3b 2a 3b b0 3c a4 9d 61 3e 87 5b 14 be
       0.0036675988 0.021512587 0.22032791 -0.1448804
000230 2c 06 d7 bc ff 17 9a 3d be 39 7f be c0 e1 53 3e
       -0.02624806 0.07524108 -0.2492437 0.20691586
000240 9c c3 35 3e b1 e6 57 be 52 d2 42 3e aa 8c 73 3d
       0.177504 -0.21084096 0.19025543 0.05946032
000250 f4 b8 8c be 9d 60 96 be 85 93 5f 3d 34 37 cc 3d
       -0.27484858 -0.29370585 0.054584045 0.09971467
000260 d7 47 55 3e 14 19 75 3e 85 6a 44 be 90 15 d8 3d
       0.20828186 0.23935348 -0.19181259 0.10550988
000270 28 3a 28 be 7f bb ce 3d 93 25 fe 3c 8d 51 ce 3e
       -0.16428435 0.10094356 0.031023776 0.40296593
000280 99 1b 37 3d f9 e6 89 3e bb 1f 51 3e 00 04 d1 bd
       0.044704054 0.2693403 0.2042226 -0.10205841
000290 61 38 e6 bd 66 e1 3f 3e 62 61 5e bd ef 79 46 bc
       -0.11241222 0.18738326 -0.05429209 -0.012114032
0002a0 99 5d 65 3e 18 1f 53 3e 96 3f db bd 42 de 92 be
       0.22398986 0.2061733 -0.107054874 -0.28685194
0002b0 8a 78 32 be f3 07 93 3e 21 46 46 3e 9b 8a 21 bc
       -0.17428795 0.28717002 0.1936269 -0.009859706
0002c0 be c7 85 bc 6f f8 5b be f0 37 22 3e 7d c8 32 3e
       -0.016330596 -0.21481489 0.15841651 0.17459293
0002d0 70 8b 9f be 3b 77 5e be 45 bd 0d be 84 5f b0 3d
       -0.3116107 -0.2172517 -0.13841732 0.08611968
0002e0 92 c0 43 be 5d ec 2f bd 91 df c0 bd ea 4d a5 3e
       -0.19116428 -0.042950023 -0.09417642 0.32286006
0002f0 8a 04 59 3e 69 59 87 3d e3 b5 8e 3e 79 ff 17 3d
       0.21193138 0.066088505 0.27873144 0.037108872
000300 9d 50 a7 be 7b 3d 82 3d fe e8 77 3e eb cb 2e be
       -0.3267869 0.06359383 0.24209973 -0.17069976
000310 58 ef 83 be c8 90 12 3e 42 bd 8a 3e 11 70 43 3d
       -0.25768542 0.14313042 0.27097517 0.047714297
000320 72 1f 75 be e9 34 de bd 29 4b d3 3b 03 0f 77 be
       -0.23937777 -0.108499356 0.006448169 -0.2412682
000330 07 7e 5a be 3b 2f 49 3e 04 6e 8e 3e 9e 85 15 be
       -0.21337138 0.19646923 0.2781831 -0.14601752
000340 9d 18 7f bd 2a fd 08 be d7 79 5b bd 04 bc ba bd
       -0.062279332 -0.13377824 -0.053582992 -0.091178924
000350 dc 6c cb bd 31 d0 4f 3e b9 31 10 3e 27 cb 36 be
       -0.09932873 0.20294262 0.14081468 -0.17850934
000360 1a a4 37 bd d6 d7 b3 bc 2d d4 65 bd 68 2b 8b 3e
       -0.044834234 -0.021953505 -0.05611055 0.27181554
000370 d8 d3 cc 3d 1b 8c 4b 3e 7e f5 b0 be cb fa 93 bc
       0.100013435 0.19877665 -0.34562296 -0.018063923
000380 98 6e 68 3e 96 cb 8f be 6f c6 57 3e b0 06 3b bd
       0.22698438 -0.2808501 0.2107179 -0.045660675
000390 0b de 80 be de 6d d6 3d 58 2e 59 3e a1 c9 ae be
       -0.25169405 0.10470174 0.21209085 -0.34138206
0003a0 ad 28 33 3e 99 d3 87 3e 55 8d 3e be 50 50 62 be
       0.17495985 0.26528624 -0.18608601 -0.2210095
0003b0 2d 81 fa bd ba a0 bf bd 3e ad 89 3e db 49 3d bd
       -0.122316696 -0.09356828 0.26889986 -0.046213012
0003c0 ac c1 b9 3d 23 ba 04 3e 6f 9b 84 3e ab 69 81 3e
       0.09070143 0.1296163 0.25899836 0.2527593
0003d0 8c c3 36 bd 15 6c 47 3e 47 54 9f be 4e 6f 6e 3e
       -0.04462008 0.19474824 -0.31118986 0.23284647
0003e0 ce 17 0e 3c 41 f4 79 3d 24 ba 41 be 63 f9 50 be
       0.008672668 0.061023954 -0.18918663 -0.20407633
0003f0 47 5e d4 3d 72 c8 ba 3b b6 c1 35 bd ce 15 fe bd
       0.103695445 0.0057001645 -0.04437419 -0.12406503

features.0.bias f4 [32]
000000 40 b7 37 be 69 70 09 be 7e 0e 35 bd aa 22 80 3e
       -0.17940998 -0.13421787 -0.044203274 0.25026447
000010 19 ad a8 be ac 0e 94 3e e7 bc 90 3c 45 01 0e be
       -0.32944563 0.28917444 0.0176682 -0.13867672
000020 cd 06 8c be 47 7d 57 3e 83 18 81 bd 52 63 dd bd
       -0.2734894 0.21043883 -0.06303503 -0.108099595
000030 2a 71 26 3e 19 64 9a 3e 69 b9 57 be 29 ca ab bd
       0.16254106 0.30154493 -0.21066822 -0.08388168
000040 04 2c 80 be bf 5a 70 bd 00 ab 12 be 7c c8 d1 bd
       -0.2503358 -0.058680292 -0.14323044 -0.102433175
000050 20 e6 10 3e 07 56 b2 be 36 b2 88 3e 28 3a 26 bc
       0.14150286 -0.3483126 0.26698464 -0.0101457015
000060 91 9e 39 3e a7 1a 1a be 7d 75 31 be 37 53 97 be
       0.18126895 -0.1504923 -0.17329974 -0.29555675
000070 36 7a 33 3e 04 34 84 bd bd 04 af be 1a 61 50 3e
       0.17527089 -0.06455234 -0.34183303 0.20349541

features.1.weight f4 [32]
000000 23 87 7d 3f c8 93 8a 3f e5 bf 86 3f 76 84 8f 3f
       0.9903433 1.0826349 1.0527312 1.1212299
000010 cd cb 91 3f 8f d6 7e 3f 59 e2 74 3f ea 9f 84 3f
       1.139032 0.9954614 0.9565788 1.0361302
000020 6d 26 4b 3f e9 65 58 3f 25 89 4a 3f d1 97 55 3f
       0.7935551 0.845305 0.79115516 0.8343478
000030 53 a4 80 3f f2 98 62 3f 1f 99 7c 3f 86 18 40 3f
       1.0050148 0.88514626 0.98671144 0.7503742
000040 ce b5 82 3f 6e 29 5c 3f cb 62 4b 3f da 04 7a 3f
       1.0211732 0.86000717 0.7944762 0.9766365
000050 a9 ef 93 3f 91 7e 82 3f df 1f 81 3f 61 98 a4 3f
       1.1557513 1.0194875 1.0087851 1.2859002
000060 b1 ca 52 3f a3 44 86 3f 59 37 85 3f fb 10 74 3f
       0.8234053 1.0489696 1.0407516 0.9533841
000070 aa 73 5c 3f c9 ce 71 3f 40 c3 5c 3f 86 82 74 3f
       0.8611399 0.94456154 0.8623543 0.9551166

features.1.bias f4 [32]
000000 9f 9a 06 bd 2b 1b 36 3d 23 dc 00 3e 88 97 d3 bd
       -0.032862302 0.044459503 0.12583975 -0.10331637
000010 ff eb 71 3d 69 0c d5 bd c4 b2 b8 bd 20 0c cd 3c
       0.059062954 -0.10402758 -0.09018472 0.025030196
000020 a8 3b e4 bd 6f 40 bd bd cb b4 04 be 72 7f 1b be
       -0.11144191 -0.09240805 -0.12959592 -0.15185335
000030 86 73 fd 3c 16 62 c6 bc 49 6d 00 be ff ce bb bc
       0.030938875 -0.024216693 -0.12541689 -0.022925852
000040 c6 ce 82 3d cb 2a 7d 3c 5a 40 7f be 64 f2 a7 bd
       0.06387095 0.015452097 -0.24926892 -0.08200529
000050 29 0c 87 3d 20 ab a8 3c 4b a3 26 ba 12 e0 db 3c
       0.06594116 0.020589411 -0.000635673 0.026840243
000060 a6 d4 0e be ef b7 10 3e 97 3c 02 bd 67 e6 b5 bc
       -0.13948306 0.14132665 -0.031796064 -0.022204591
000070 44 33 1d be 48 f3 12 be a9 4c 23 b8 66 8a 3a bd
       -0.15351588 -0.14350617 -3.8933624e-05 -0.045542143

features.1.running_mean f4 [32]
000000 06 67 35 be fa 44 04 be a9 82 5d bd 7b d4 7b 3e
       -0.17715082 -0.12916937 -0.054079685 0.24592774
000010 18 b2 af be f0 40 90 3e 65 98 f3 3c 4b 7e 0a be
       -0.34315562 0.28174543 0.029735753 -0.1352474
000020 99 ca 85 be 5e 18 66 3e 99 90 8b bd 83 68 de bd
       -0.26131132 0.22470233 -0.06814689 -0.10859778
000030 03 4c 24 3e 97 e2 99 3e 04 00 53 be 16 77 8c bd
       0.16044621 0.30055687 -0.20605475 -0.06858651
000040 35 cf 72 be 5d 9d 11 bd 3f 77 09 be 15 7f cf bd
       -0.23711856 -0.035550464 -0.13424395 -0.10131661
000050 25 dd 0a 3e 03 ea b1 be 8c 4b 89 3e a7 cb 8d bc
       0.13560922 -0.3474885 0.2681545 -0.017309023
000060 1a cf 38 3e de e9 20 be 06 96 33 be 0c 02 97 be
       0.18047753 -0.15714213 -0.17537698 -0.2949375
000070 cc e2 2f 3e 0a 90 6e bd 79 87 a8 be cf e4 4e 3e
       0.1717636 -0.058242835 -0.32915857 0.20204471

features.1.running_var f4 [32]
000000 97 3e 10 3e 25 b1 8e 3e be 1f db 3d 75 b2 d1 3e
       0.14086376 0.27869526 0.10699414 0.40956464
000010 9a 35 9f 3e 9a 9f 15 3e a7 7c 1b 3e 53 05 c1 3d
       0.31095582 0.14611664 0.1518427 0.09424844
000020 4b ef 5d 3e 47 a2 84 3d fd a1 a9 3d cd 55 88 3d
       0.21673314 0.064762644 0.0828285 0.0665699
000030 05 d8 86 3e e4 50 59 3e 10 e9 ac 3d 1d f2 23 3e
       0.26336685 0.21222264 0.08442891 0.16010328
000040 32 c4 8d 3d 28 53 ed 3e ec f7 7a 3e 61 d2 15 3e
       0.06922187 0.46352506 0.24508637 0.14631034
000050 b6 da b7 3e e9 42 52 3e b0 64 cd 3d 6a ed 39 3e
       0.3590905 0.20533337 0.1002897 0.18156973
000060 f7 07 1c 3e 13 ad b5 3e 33 aa 5f 3e 0c 9f cf 3d
       0.15237413 0.35483608 0.2184227 0.10137758
000070 ee 8f c0 3d b7 95 8b 3e 05 57 ef 3d d3 d8 69 3d
       0.094024524 0.2726266 0.116865195 0.057091545

features.3.weight f4 [32, 32, 3, 3]
000000 94 69 91 bd 97 1c bc bd ef 89 8f bc aa 76 0c bb
       -0.071002156 -0.091851406 -0.017521827 -0.0021433034
000010 0b 61 91 bc b1 4d 84 3c 16 a4 10 3d 98 cb 72 ba
       -0.017746469 0.016150327 0.035312735 -0.0009261905
000020 0a b2 53 bb 2d 84 f9 bd 88 c4 d1 bc 89 d1 a6 bd
       -0.0032302164 -0.12183414 -0.025606409 -0.081454344
000030 0b 3a 4f 3d 2e d9 91 3c e7 27 bc bc 9a c0 1e 3e
       0.050592463 0.017803755 -0.022968246 0.15503159
000040 d8 32 99 3d cc 07 87 3d 65 6d 62 bd d8 36 0c bd
       0.07480401 0.06593284 -0.055280108 -0.03423199
000050 8c 0f 2a be fb 59 c2 bc 2f 53 17 3d b3 1c a7 3c
       -0.16607493 -0.023724547 0.036944564 0.020399427
000060 69 49 d4 3c 57 1d 42 bc a5 b8 8e 3a e4 25 16 3e
       0.025913911 -0.0118478155 0.0010888769 0.14662892
000070 f8 6f 3a 3e 18 d4 66 3d 7d 24 7b 3c 7d 97 57 3d
       0.18206775 0.056354612 0.015328524 0.052634705
000080 ee 7a de 3c 66 76 8d bd 66 b7 8e bc f3 78 17 bd
       0.027158227 -0.06907348 -0.017421436 -0.03698058
000090 23 8b 8c 3d d4 3e 28 39 10 66 ff bb fa 7e ce bc
       0.06862476 0.00016045134 -0.007794149 -0.025207032
0000a0 5c aa 22 3d 8e f5 a0 3b 38 59 ba bd 74 03 f3 bc
       0.03971325 0.004912085 -0.090990484 -0.029664733
0000b0 16 76 1c 3d 0c d9 0f 3d df 02 03 bd 46 b7 f8 bc
       0.038198553 0.0351191 -0.03198516 -0.03036083
0000c0 b7 d1 de bc 51 4a 0e bd c8 2f 71 bd 65 87 28 bd
       -0.02719961 -0.034738842 -0.05888346 -0.041144747
0000d0 ea 06 5e bb 7d c8 83 bc 0f 26 19 3d 01 5b 25 bc
       -0.0033878633 -0.016086811 0.03738981 -0.010092498
0000e0 68 01 6c bc 7d 8b 95 3c 01 db 48 3d 73 b0 0c bd
       -0.014404632 0.01825499 0.049036983 -0.034347963
0000f0 54 83 0b 3d 4d ca 92 3d 2f 65 57 3d 18 d7 bf bd
       0.03406079 0.07167492 0.05258673 -0.09367198
000100 0a 6b 97 bd 3b 7f a3 bd 76 42 d3 bc 13 fa 81 bc
       -0.07393463 -0.07983252 -0.025788527 -0.015866315
000110 44 ec 92 bd ea 6f 9e bc d0 10 ca 3c 18 ab 32 bd
       -0.0717397 -0.019340474 0.02466622 -0.0436202
000120 ec e5 13 3d 15 a7 f4 bc 7d 47 8f 3c 4d 6d 67 bc
       0.036107942 -0.029864827 0.017490143 -0.01412518
000130 1f e6 40 bc 6a 11 1d 3d da 46 70 3d 26 06 35 3d
       -0.011773615 0.038346685 0.05866132 0.044195317
000140 83 31 87 bc 74 76 cb bc ca 90 19 bd 10 41 96 bb
       -0.016503101 -0.024836756 -0.037491597 -0.004585393
000150 10 82 83 3c ca 1b 0e bd 6d e5 8c bc 03 52 2b 3d
       0.01605323 -0.03469447 -0.017199242 0.04182626
000160 5a f4 fc 3b 8c 53 b4 bc c7 66 b2 bd 57 7c 82 ba
       0.0077195587 -0.022012495 -0.087110095 -0.0009955269
000170 4d 78 64 bc 22 36 1f bc ee 77 58 bd 37 e6 d1 3c
       -0.013944698 -0.009717496 -0.05284875 0.02562247
000180 78 da 09 3d e7 a8 24 bb 15 6f 26 bc e7 13 ad bc
       0.033655614 -0.0025125088 -0.01015832 -0.021127654
000190 9b d4 92 bc 1e fd 1e 3d 51 c7 f0 3b 03 39 ad 3c
       -0.017923644 0.03881561 0.007347979 0.02114535
0001a0 3e 45 ee 3c ac 8e b0 bc b6 a0 f6 3c f8 2a 1f 3b
       0.029085752 -0.021552406 0.03010593 0.0024287086
0001b0 b5 9e 22 bd d1 14 56 3c 16 d0 6f 3d 98 a6 47 3d
       -0.039702136 0.013066486 0.058548056 0.04874286
0001c0 ca f4 61 3d 59 5d b1 3d 2f 86 74 3d a7 e3 d0 3d
       0.05516509 0.08660383 0.05969828 0.10199671
0001d0 a3 fb 6d 3d e8 8c 79 bc 3b dc ce bd 4a 97 d0 bd
       0.058101308 -0.015231349 -0.101005994 -0.10185106
0001e0 fd 07 ae 3c de ae be bc e6 d6 92 bd ba 4f bf 3d
       0.021244043 -0.023276743 -0.07169895 0.093413785
0001f0 0d 1d 03 bc e2 9e 59 bb f8 27 b6 bd f6 37 82 bd
       -0.008002532 -0.0033206274 -0.08894342 -0.0635833
000200 03 f3 80 bc 32 c4 d8 bb bd 6e 21 bd cf 4c a3 3c
       -0.015740877 -0.006615185 -0.03941225 0.019934086
000210 20 ca ee bc 28 3c 41 3c b9 dd 93 3c 15 56 0e bd
       -0.029149115 0.0117941275 0.018050062 -0.034750063
000220 9c 56 c3 bd 7f 4f a2 bd d2 f5 7c 3c 5d b1 ca bc
       -0.09538004 -0.07925319 0.0154394675 -0.024742777
000230 cd b9 07 bd e4 14 e1 bc 61 cc 67 3c e3 71 94 bc
       -0.033136178 -0.027475782 0.014147849 -0.018120712
000240 90 c8 f8 bd 35 0a 3f bd 24 0d 9d bd 92 ab 89 bb
       -0.12147629 -0.046640594 -0.07668522 -0.004201361
000250 3e 43 d7 bc 3c 9c 83 bd 32 1a 22 bd 09 fb 98 bd
       -0.02627718 -0.06426284 -0.039575763 -0.07469756
000260 93 64 a0 bd b2 5f 55 bb 57 aa 46 bd a3 8d 45 bd
       -0.07831683 -0.003255826 -0.048502292 -0.04823078
000270 a0 7e fd 3c 99 e5 3a bc c0 2f 88 bd f5 99 4a bc
       0.030944169 -0.011407279 -0.066497326 -0.012365808
000280 b5 e2 b1 bc 37 e9 50 bd 5f a2 2e bd ad 3e 3c bd
       -0.021714548 -0.05100366 -0.042635318 -0.04595821
000290 88 1a e6 3a 13 9c cb bc b3 02 8a 3d d0 0a e3 bc
       0.0017555514 -0.024854695 0.06738796 -0.027715117
0002a0 fc 4b 6e 3d 12 5a 0a 3d 6c c7 2a bd 19 08 1b bd
       0.058177933 0.033777304 -0.04169409 -0.03784952
0002b0 d4 44 3f bd 95 0b ed bd 10 fd 94 3c a6 b0 50 bd
       -0.0466965 -0.11574475 0.018187076 -0.050949715
0002c0 2d b5 7b bd 80 88 a3 3c ca e1 8d bc 12 a6 38 bd
       -0.06145208 0.01996255 -0.017319579 -0.045080252
0002d0 20 2b 1b 3e 67 c5 66 3d d2 fc 4c bd 8d e3 cc 3d
       0.1515317 0.0563406 -0.050045796 0.10004339
0002e0 e5 71 82 bc 36 f0 8d bd a5 05 b1 3b f1 28 86 bc
       -0.01592345 -0.06930582 0.005402284 -0.016376944
0002f0 8e 29 16 be b2 0c 06 3c 42 89 1c 3d 39 80 02 3e
       -0.1466429 0.008181738 0.038216837 0.12744226
000300 68 ec 0e bd 21 10 90 3d c4 d4 7f 3d 7b 6f bc bc
       -0.034893423 0.07034326 0.06245877 -0.023002377
000310 ef 25 ba bc fc f3 f0 3c 5a 67 f7 bc de 70 06 bd
       -0.022723166 0.029413216 -0.030200649 -0.032822482
000320 75 e3 0e bd 1f ed 7c 3d cd 04 05 3c 41 b6 f9 bc
       -0.03488489 0.061749574 0.00811882 -0.030482413
000330 b9 b0 df 3c bb 4a 49 3d ec 1c 20 3c 09 1c d6 3d
       0.027305948 0.049143534 0.0097725205 0.10454566
000340 10 a2 47 3e a5 4d 54 3e 3c 9b fc bc d6 6d 86 3d
       0.19495416 0.20732744 -0.03083574 0.06563918
000350 28 42 4f 3e 28 68 c1 3d 80 0f 1d 3d a5 eb 5c 3e
       0.2024008 0.09443694 0.03834486 0.21574266
000360 3c f8 f3 3c a8 e8 21 bb b4 0c e8 bc fc ee 48 3b
       0.029781453 -0.0024705324 -0.02832637 0.0030660024
000370 3f a5 3d 3d b5 e5 6b 3d 28 9d a4 3c 57 20 f3 3c
       0.04630017 0.057592113 0.02009447 0.029678507
000380 a4 54 9e 3c 60 5c 3a bd 88 49 be bd ec 50 06 bd
       0.01932747 -0.045498252 -0.09291369 -0.032792017
000390 71 78 bd 3c b6 a3 35 3d 46 48 55 3d 40 45 cc 3d
       0.02312872 0.04434558 0.05207088 0.09974146
0003a0 87 20 ed 3d fa 81 b1 3d 13 10 44 3d 7e cc 40 3d
       0.1157847 0.08667369 0.047866892 0.04707002
0003b0 ee b4 4a 3c 09 6c 76 3d 2c 9a 5f 3d 1d 28 97 bd
       0.012372239 0.060161624 0.05459039 -0.07380698
0003c0 04 35 6b 3d 49 aa c7 3c ee 0f e6 bd a3 fe a8 bc
       0.057423607 0.02437319 -0.11233507 -0.020629233
0003d0 e7 19 a2 3c d6 04 7c 3b 37 1f 53 bc 94 67 10 3d
       0.019787742 0.003845503 -0.01288586 0.03525503
0003e0 00 3c bc bc af ec fd bc e1 19 1c 3d a9 ac b7 bd
       -0.022977829 -0.030996649 0.038110618 -0.08968479
0003f0 28 f5 80 bc 6d 41 41 3d 28 b0 5f 3b ff ba b0 3d
       -0.0157419 0.047181536 0.0034132097 0.08629417

features.3.bias f4 [32]
000000 b6 19 86 bd 90 c3 c4 3b 71 d5 97 bc 3e f8 2f 3d
       -0.06547873 0.006004758 -0.018534394 0.04296135
000010 79 39 1d bd 3d f7 a8 bb 01 e1 45 3d 7c 59 cd bc
       -0.03838489 -0.005156426 0.048310284 -0.025067084
000020 c5 ab 6e 3d d4 eb ab 3d 83 71 23 3d 70 d3 89 bc
       0.05826928 0.0839459 0.039903175 -0.016824454
000030 1e 2c 01 3d 00 7d d7 ba cb 76 38 bd cf 7c 71 bd
       0.031536214 -0.0016440451 -0.045035165 -0.058956917
000040 70 e3 50 bd e8 10 4f bc b4 12 80 bd 8e a1 00 3c
       -0.05099815 -0.012638308 -0.06253567 0.007851018
000050 94 8a 12 3b 70 eb 49 bd c7 17 9c 3c 2b ef ee 3c
       0.002236043 -0.049296796 0.019054307 0.029166779
000060 7a 23 57 bc f1 c5 1e bd 6c 36 7d bd cd dc aa bc
       -0.013131017 -0.03876299 -0.06181948 -0.02085724
000070 63 b1 85 bc 94 ae 15 bd f7 ee b1 3c ee d6 04 3d
       -0.016319936 -0.036543444 0.021720393 0.032431535

features.4.weight f4 [32]
000000 c4 4e 8f 3f da 1c 94 3f 07 1c 7c 3f e7 38 40 3f
       1.1195912 1.1571305 0.98480266 0.75086826
000010 12 87 6b 3f a8 13 4e 3f 44 d6 82 3f f6 1c 8e 3f
       0.92002976 0.80498743 1.0221639 1.1102588
000020 52 a8 6f 3f 7a 4e 81 3f e0 ef 83 3f 79 6b 7b 3f
       0.9361621 1.0102074 1.0307579 0.98210865
000030 8d 60 8d 3f 24 fb 83 3f 12 bc 86 3f 5b 8f 88 3f
       1.104509 1.0311017 1.0526145 1.0668749
000040 6e 41 47 3f 2c 6d 75 3f 3e bc 88 3f b1 52 40 3f
       0.7783421 0.9586971 1.0682447 0.7512618
000050 e0 03 8d 3f e7 38 5d 3f 8f e4 53 3f ab b0 6a 3f
       1.1016808 0.8641495 0.8277063 0.91675824
000060 78 b0 76 3f b1 25 5e 3f 24 61 82 3f 8f a3 70 3f
       0.9636302 0.8677626 1.0185895 0.9399957
000070 fc ab 8e 3f 0b e3 46 3f 2b 07 74 3f 9c a0 78 3f
       1.1146235 0.7769019 0.9532344 0.9712007

features.4.bias f4 [32]
000000 44 34 b3 be d8 dd 52 be 03 b3 16 be 99 90 52 be
       -0.35000813 -0.20592439 -0.14716725 -0.20562972
000010 dc 2c 81 be bd 5b 61 be e0 8e 35 3c 39 8e b5 bd
       -0.25229537 -0.22007652 0.011081427 -0.088650174
000020 a1 85 b8 be 3d d8 65 bd 32 41 96 be 02 49 23 be
       -0.3603945 -0.056114424 -0.29346615 -0.15945819
000030 3f 2f 46 bd 6f 91 a5 bd 2c c3 2f be 73 66 f6 3b
       -0.0483849 -0.0808438 -0.17164296 0.007519537
000040 d0 7e 48 be 6e 37 a1 be f4 58 b3 bd bb 84 89 be
       -0.19579625 -0.31487602 -0.08757201 -0.26859078
000050 73 d0 bb bd be 5c b5 be 3a 2a ab be 63 f3 0e be
       -0.09170618 -0.3542232 -0.33430654 -0.13960032
000060 01 6d f9 bd 3b 93 68 be fb 37 b8 bd 50 e3 28 be
       -0.12178994 -0.22712414 -0.089950524 -0.16492963
000070 26 50 29 be bb b9 6e be 22 5c e9 bd ce 43 7b be
       -0.1653448 -0.23313038 -0.11394526 -0.24537584

features.4.running_mean f4 [32]
000000 43 ce 3c 3e c2 54 ad bd 50 d5 ab bd 2f ab ed 3e
       0.18438058 -0.08463432 -0.083902955 0.46419665
000010 e4 60 2b bf eb aa 40 bf 0b e8 68 bf 66 5c 04 bf
       -0.6694472 -0.752608 -0.9097907 -0.5170349
000020 cb 8f 7a bf 00 cf 29 bf ad e7 e8 be e0 5d d5 be
       -0.9787566 -0.6633148 -0.45489255 -0.41673183
000030 81 31 73 bf fb c1 e1 be 4c b2 c0 bf e2 3c 4c bf
       -0.9499741 -0.44093308 -1.5054412 -0.797804
000040 92 e7 b7 3f ec 56 28 bf 8f cf 37 bc 95 45 75 bf
       1.4367545 -0.6575763 -0.011218919 -0.958093
000050 96 ae 30 bd c2 98 83 bf 2f 40 e2 be 0c 07 32 be
       -0.043135248 -1.0280993 -0.44189593 -0.173855
000060 11 fe a6 3c d8 10 31 bf 1d 20 1a bf c5 61 8d be
       0.02038482 -0.69166327 -0.6020525 -0.27613655
000070 75 91 44 be 0e 96 9a 3e d0 ad fa be f1 6e e2 bc
       -0.19196112 0.30192608 -0.48960733 -0.027640792

features.4.running_var f4 [32]
000000 92 d0 ed 3e b6 3a 2a 3f b5 2e 59 3f cd cb c4 3f
       0.4644819 0.66495836 0.84836894 1.5374695
000010 ff 32 92 3f 83 cf 31 3f 2d e4 9f 3f 96 10 e1 3f
       1.1421813 0.6945726 1.2491509 1.7583187
000020 15 b8 c6 3e 28 a3 53 3f 98 6a a9 3e e1 e3 32 3f
       0.38812318 0.8267083 0.33089137 0.69878966
000030 b1 81 86 3f ac f9 e8 3f e1 32 69 3f f0 7d 8d 3f
       1.0508329 1.8201194 0.9109326 1.1054058
000040 41 97 55 40 ab d3 6b 3f a0 c9 89 3f 54 be 0a 3f
       3.3373568 0.92119855 1.0764656 0.5419667
000050 9c 11 07 3f ef b4 ba 3e 70 bf de 3e 9a 4c 84 3f
       0.52761245 0.36466166 0.4350543 1.0335877
000060 04 7f bb 3f 38 c9 e1 3e 02 ea 1e 40 47 e7 31 3f
       1.4648137 0.4409883 2.4830327 0.69493526
000070 5a f5 7d 3f ce 8c 8e 3f 3b f4 85 3f 10 b4 2f 3f
       0.992025 1.113672 1.0465158 0.6863413

features.7.weight f4 [64, 32, 3, 3]
000000 a7 9b 95 3c 0f d4 89 3a 8d ed 43 bd 1d 64 b2 bd
       0.018262697 0.0010515469 -0.047833968 -0.08710501
000010 ad 55 a5 bb 8c fb 97 bd 0b d6 14 3d 50 af c9 3c
       -0.0050456137 -0.07421026 0.03633694 0.024619728
000020 93 bf bf bd e3 e4 4c 3d 16 a1 81 bc 19 8d f8 bc
       -0.09362712 0.05002297 -0.015823882 -0.030340718
000030 f4 6d 1d 3d 27 fc 2d 3d e7 66 1d 3d 7b 27 08 3d
       0.038434938 0.0424768 0.038428213 0.033240777
000040 91 fa 7b 3d 24 4f 87 3d d5 96 f8 bc a6 dc d5 bc
       0.061518256 0.06606892 -0.03034536 -0.02610619
000050 c0 31 f9 ba 93 fb 7a bd 36 60 f3 bc dd 38 3a 3c
       -0.0019012019 -0.061275076 -0.029708963 0.011366096
000060 5f 66 2c 3d b7 e2 65 3d bf 16 31 3d 28 06 6f bd
       0.042089816 0.056124415 0.043234583 -0.05835548
000070 2b 59 7c bc fc b9 21 bd 58 75 a5 bd 97 cb 56 bd
       -0.015402119 -0.03948401 -0.08079022 -0.052440252
000080 1c 31 fe bc 8d 5b 14 be 63 4b 5f 3c ca 82 58 3c
       -0.031029277 -0.14488049 0.013628813 0.013214776
000090 68 24 33 bc 72 87 d9 bc f9 f5 8a 3d 8b bb 9a bc
       -0.010933973 -0.026553843 0.06785197 -0.018888256
0000a0 59 54 84 bd d6 a7 18 bd 43 c9 d6 3c 2b 3d 9a 3c
       -0.064614005 -0.037269436 0.026219016 0.018827995
0000b0 c3 c6 86 3d d5 37 00 bd 96 44 cd 3b ba 30 ab 3c
       0.065808795 -0.031303246 0.0062642796 0.020897258
0000c0 e3 93 88 bb ce cd 5f bc 7a 50 83 3c 7c d9 8b bb
       -0.00416802 -0.0136599075 0.016029585 -0.0042678695
0000d0 35 e8 46 bd 2b 6c c9 bd 2d 99 40 bd a2 c9 13 3d
       -0.048561294 -0.098350845 -0.04702108 0.036080964
0000e0 eb 52 f6 3c 25 ac 97 bd 58 c4 8c 3d 97 06 fa 3d
       0.030068835 -0.07405881 0.06873387 0.12208288
0000f0 3f 56 1c be 3a 1c 3a bd d1 85 84 3c 5f e1 91 bc
       -0.15267275 -0.045437075 0.01617709 -0.01780766
000100 ad 9b f9 bc a2 86 bd bc 5a 5f 13 3d bf c3 8f 3d
       -0.03046974 -0.023135487 0.035979606 0.070197575
000110 7a ee 29 3d 92 67 38 3e 5b 18 df 3d 39 59 77 3d
       0.041487195 0.18008259 0.10893317 0.060387824
000120 ac a5 01 bd b6 23 12 3d 3d 80 4e 3d 36 93 75 bd
       -0.031652138 0.035678588 0.050415266 -0.059954844
000130 d4 16 2c 3c 4d 9b 67 bd ab 47 af bd 9f b8 b2 bd
       0.0105034895 -0.05654459 -0.085585915 -0.0872662
000140 5e f2 03 be b5 bc 6d be 54 15 be bd 82 34 aa bd
       -0.12885424 -0.23216517 -0.09281412 -0.08310796
000150 03 3b 52 bd ba e2 43 bd c7 33 46 bd 0c d7 ea 3d
       -0.05132581 -0.047823645 -0.048389222 0.11466798
000160 31 cb 8d 3d ac aa a9 bc 37 fa 46 3c ab 9c 0b 3c
       0.06923521 -0.020711266 0.012144617 0.008521239
000170 97 2e 30 3d ad 23 38 bd 4c f3 18 bd 94 5f a0 3d
       0.04301318 -0.044955898 -0.0373414 0.0783073
000180 47 19 49 3d 6f 41 70 ba cf ea b2 3d b5 18 9b bd
       0.049096372 -0.0009165024 0.087361924 -0.07573072
000190 26 53 96 bd 17 5a 67 bb 80 31 5d bd 08 38 e5 ba
       -0.07340078 -0.00353015 -0.054002285 -0.0017488012
0001a0 c1 08 36 3c 7d 91 21 bc 13 e5 c8 3b 95 45 88 3d
       0.0111104855 -0.009861347 0.0061308234 0.06653897
0001b0 57 11 8a be fb b2 b5 bd 76 25 a4 bc a5 aa 57 3c
       -0.26966354 -0.088720284 -0.020037394 0.013163243
0001c0 27 78 9f 3d f3 f5 56 3d ef 98 a9 3d a5 2a e3 3c
       0.07786589 0.05248065 0.08281123 0.027730295
0001d0 a4 01 aa 3b b0 ce c5 bd 93 a6 32 bc ee 76 87 3c
       0.005188184 -0.09658563 -0.010903972 0.016536202
0001e0 b9 f9 e1 bd 7f 3d 01 bd 5b 40 99 bd 9b 01 f2 bd
       -0.11033959 -0.031552788 -0.07482978 -0.118167125
0001f0 11 5b 36 bd 9b 45 6e 3d e0 66 c6 3c 7c df 2a 3d
       -0.04452044 0.05817185 0.024218976 0.041717038
000200 8c 30 ee ba 1a 73 84 3b 02 ae 7b 3c cb df ba 3c
       -0.0018172427 0.0040420415 0.015361311 0.02281179
000210 7a 2b 72 bd e3 51 41 3d 44 46 46 3d e2 10 b6 bc
       -0.059123494 0.047197234 0.048406854 -0.022224847
000220 f4 a0 be 3c 5e 57 fd bc 38 01 61 3c 72 23 65 3b
       0.023270108 -0.030925449 0.013733201 0.0034963754
000230 2a f0 27 3c d4 34 a3 bc 39 22 0b bd 89 69 61 bc
       0.010250131 -0.019922651 -0.033968184 -0.013758072
000240 8f 8b 9f bd 9c a0 7e 3c b3 be 26 3d af 64 a5 bb
       -0.077902906 0.015541222 0.04070921 -0.005047403
000250 ff a7 10 bc a7 d2 09 3c 82 27 45 bc 48 2f 09 bd
       -0.008829116 0.00841204 -0.012033345 -0.033492357
000260 c5 af ad bd fb 17 0d bd 60 96 b1 3d c6 a1 94 bc
       -0.08480791 -0.034446698 0.0867126 -0.018143546
000270 66 18 4a bc f6 c7 e6 bc 5f 7c d9 bb 38 2c 09 bc
       -0.012334919 -0.02817152 -0.0066371406 -0.008372359
000280 d6 d9 0e bd d3 f6 eb bc da e2 52 bd ab bd 8c bd
       -0.034875713 -0.028804218 -0.051485874 -0.06872114
000290 e0 c8 b9 bd cf 1d 4a bd 5e 4c 44 bd be 8e 84 bc
       -0.09071517 -0.049344834 -0.047924392 -0.016181346
0002a0 b8 a4 7c 3d 8d 96 6d 3d 5a 4a 2e 3d bc a8 88 bd
       0.061680526 0.058004905 0.042551376 -0.066728085
0002b0 94 f5 e3 3c 3f 2b 04 3d f4 5a 5a bd 03 cf f0 bc
       0.027827062 0.032267805 -0.053309396 -0.029395586
0002c0 a0 c8 07 3d 07 27 6f bd 2d a1 31 bd 73 e5 67 3c
       0.033150315 -0.05838683 -0.0433666 0.014153826
0002d0 48 00 bf 3d 35 14 bd 3d be 89 b2 3d a2 69 81 bc
       0.093262255 0.0923237 0.087176785 -0.01579744
0002e0 e5 29 1f bd a5 48 32 3d db 30 80 bd ed 4d 06 bb
       -0.038858313 0.04352631 -0.062593184 -0.0020493225
0002f0 71 1e 8e bc 6e b4 e7 bd 34 cb 00 bd c0 26 76 3c
       -0.0173485 -0.11313711 -0.03144379 0.015023887
000300 07 1a 53 bd c1 aa 16 bc 82 d0 c4 3c c1 fc 9f bd
       -0.051538493 -0.009195984 0.024025206 -0.07811881
000310 89 fb 98 bb b1 a8 9f 3b 92 f9 b0 bd 5e 71 1f bd
       -0.004668657 0.0048724045 -0.08641352 -0.038926475
000320 8a 9e c7 bc 96 19 5f bb 1e 7d 12 3d f2 a8 9c 3c
       -0.02436759 -0.003404235 0.035763852 0.019123528
000330 6f 5e af 3b fd bb 21 3d be 8b 7d bd b0 4b ca bd
       0.0053518335 0.03948592 -0.061900847 -0.098777175
000340 2a 55 cd bc 81 5e 6d 3c a8 6d e3 bc b6 d7 0f bd
       -0.025065023 0.0144878635 -0.02776225 -0.035117827
000350 fd f7 0c bd 93 eb 32 bd 64 e8 63 bc 44 3f 64 bd
       -0.034416188 -0.043681692 -0.013910387 -0.055724397
000360 1d 95 d4 bc fb 59 a8 3c 1f d2 a3 3d a3 de 48 bc
       -0.025950009 0.020550719 0.07999062 -0.012260112
000370 39 0c 75 3c f0 09 a2 3d 06 fe b1 bc 72 db 57 3c
       0.014956527 0.07912052 -0.021727573 0.013174878
000380 f7 42 a0 3d 0b 03 41 bc 25 38 9e 3c f3 9b 65 ba
       0.078252725 -0.011780511 0.019313881 -0.0008758895
000390 8f d5 84 bd 26 61 45 bc 10 72 58 3d 07 c3 a6 bc
       -0.064860456 -0.012047088 0.052843153 -0.020356668
0003a0 af d2 9a bc 93 56 6d bc f9 7f b7 3b 1b b7 ad bc
       -0.01889929 -0.014485973 0.0055999723 -0.021205476
0003b0 7b 19 24 bd 06 c9 18 3d 8c 0a 4c bb b9 80 bb bd
       -0.040063363 0.037301086 -0.0031134216 -0.09155411
0003c0 c6 dc 48 3d 92 8c 0e 3d 46 8b c4 bd ce 15 dd bc
       0.04903867 0.034802027 -0.09596877 -0.026987936
0003d0 d2 63 1a 3d b2 ab 37 bd f9 7a 03 3d 1a b1 7e 3d
       0.037692852 -0.044841476 0.032099698 0.062180616
0003e0 f4 87 87 bc 00 24 8a 3d 68 0f 95 3d 35 c5 25 bc
       -0.01654432 0.06745148 0.07278329 -0.010117819
0003f0 35 15 82 3d 8f 64 16 3d 1e ba 52 bc 40 c9 92 3d
       0.06351701 0.036716994 -0.012861757 0.07167292

features.7.bias f4 [64]
000000 94 e3 84 bd 57 ec ca 3c a3 f4 31 3d 32 52 23 bc
       -0.064887196 0.024770899 0.043446194 -0.009968327
000010 d1 56 ce bc 7a 86 41 3c 36 0a 36 bd f9 96 33 bc
       -0.025187882 0.011811847 -0.04444333 -0.010961288
000020 f2 7c 11 3d 72 38 82 bb c4 b5 24 bc fc 88 23 bd
       0.035519548 -0.003974014 -0.010053102 -0.03992556
000030 82 d7 29 bd 78 ab 30 bd 51 f2 0d 3d 57 e2 f5 bc
       -0.04146529 -0.043132275 0.03465492 -0.030015154
000040 00 fe 06 3b 0a 2d a3 3c b4 da 27 3d 1e fb d3 3b
       0.0020598173 0.019918937 0.040980056 0.0064691445
000050 93 62 82 3c d4 73 f6 bc f6 f7 f4 bc d4 f3 f7 3c
       0.015916144 -0.030084528 -0.029903393 0.030267633
000060 21 f9 ac bc a6 ac 93 bc c0 7c b4 bc 1a 3e 4a 3c
       -0.021114888 -0.018026661 -0.022032142 0.012343908
000070 6c f5 87 3d ce 79 b6 3c 06 c1 48 3b 83 a0 41 bd
       0.066386074 0.022274878 0.003063263 -0.047272217
000080 f9 62 31 3d 77 88 2e bd 51 7e 80 3c 86 86 65 bd
       0.04330728 -0.04261061 0.015685232 -0.056036495
000090 f6 42 36 3d 25 1f 0f bd 1b 06 06 3b 75 75 87 bd
       0.044497453 -0.03494181 0.0020450416 -0.066142
0000a0 0a eb 2d bd 83 d9 02 3c 41 58 39 3d 4c 33 43 bd
       -0.04246048 0.007986429 0.04525018 -0.047656342
0000b0 d9 e6 f3 3c 6e d5 d2 bb d3 a8 0e bd b7 71 05 3d
       0.029773163 -0.006434134 -0.034828972 0.03257915
0000c0 25 fc 7e bd aa 06 63 bd cc 71 93 3c 2b 15 21 bc
       -0.062252183 -0.055426277 0.017998599 -0.009831707
0000d0 d4 88 d7 bb c3 8b 11 bd fc de f8 bc ab 64 73 3c
       -0.0065775905 -0.035533678 -0.030379765 0.014855544
0000e0 7e 27 c9 3b a6 a6 c9 3c 71 f0 37 bd ea 5c 63 3c
       0.006138741 0.024615597 -0.044907037 0.013877133
0000f0 c2 4e c4 3b c2 7d 4d bc e1 b8 12 3d 49 41 7c 3c
       0.005990834 -0.01254219 0.035820846 0.015396425

features.8.weight f4 [64]
000000 7f c7 7c 3f a9 4e 85 3f ba c5 5d 3f 1f 23 7b 3f
       0.98741907 1.041463 0.8662983 0.98100466
000010 71 52 6d 3f eb 71 4d 3f f9 58 7f 3f 84 7f 7a 3f
       0.9270392 0.8025195 0.99745136 0.97850823
000020 b5 a9 80 3f ce 08 74 3f 0d 96 65 3f bc 36 79 3f
       1.005179 0.95325935 0.89682084 0.97349143
000030 29 4a 82 3f 6e d7 7f 3f 66 7a 71 3f fc 70 78 3f
       1.0178882 0.99938095 0.9432739 0.970474
000040 05 73 77 3f 2c e2 7b 3f f5 1e 5c 3f 6d 65 49 3f
       0.9665988 0.98391986 0.85984737 0.7867039
000050 01 3e 44 3f 56 ab 37 3f 85 39 7c 3f 2a ce 64 3f
       0.7665711 0.7174581 0.9852527 0.8937708
000060 64 52 64 3f 3c 74 7e 3f 39 e2 6a 3f 66 5f 69 3f
       0.8918822 0.9939611 0.9175144 0.9116119
000070 3d 7e 73 3f 81 bd 77 3f 1c ff 7b 3f 93 85 77 3f
       0.951145 0.96773535 0.9843614 0.96688193
000080 1c b2 81 3f 02 20 8e 3f dc e8 78 3f 39 12 82 3f
       1.013248 1.1103518 0.97230315 1.0161811
000090 73 91 77 3f cf 52 66 3f 08 03 4b 3f b0 a0 82 3f
       0.9670631 0.89970106 0.793015 1.0205288
0000a0 8c 14 58 3f aa b3 69 3f 49 37 77 3f 6b c8 6d 3f
       0.8440635 0.9128977 0.96568733 0.9288394
0000b0 16 f0 4c 3f 9c 0a 72 3f 3e 6e 77 3f a7 e7 71 3f
       0.8005384 0.9454744 0.9665259 0.944941
0000c0 2c 10 78 3f 62 52 42 3f 4f 32 72 3f a1 e3 7b 3f
       0.96899676 0.75906956 0.94608015 0.9839421
0000d0 d5 f1 7e 3f 0b 9f 4f 3f 9d 7f 5b 3f ff 38 45 3f
       0.99587756 0.81102055 0.857416 0.77040094
0000e0 f5 3f 74 3f 4f 7a 7a 3f 77 11 5a 3f e2 c6 71 3f
       0.9541009 0.9784288 0.851829 0.94444096
0000f0 b3 79 75 3f 88 9b 6d 3f 89 50 5c 3f c1 07 7e 3f
       0.95888823 0.92815447 0.86060387 0.9923058

features.8.bias f4 [64]
000000 b1 b7 c2 bd b0 1a 83 be 2f df 9f be 2c de dc bd
       -0.095076926 -0.25606298 -0.31224963 -0.107845634
000010 db 28 b7 be bc 39 f4 be 3e 45 8b be d7 87 99 be
       -0.35773358 -0.47700298 -0.27201265 -0.2998645
000020 87 3c 71 be 84 31 57 be 83 1a 75 be b5 ea a5 be
       -0.23558246 -0.21014982 -0.23935895 -0.3240563
000030 55 fb a6 be a8 9a 91 be 0e bf f1 be 8d 6e 52 be
       -0.32613626 -0.28438306 -0.47216076 -0.20549984
000040 57 80 cc bd 9c 52 90 be 88 04 82 be a3 ba 82 be
       -0.099854164 -0.28188026 -0.25394082 -0.25533018
000050 7b e2 a2 be 6e 85 a5 be fd 3a 85 be ec b8 8a be
       -0.31813416 -0.3232836 -0.26021567 -0.2709421
000060 15 82 b3 be af 59 fe bd ef a3 8c be c7 de 93 be
       -0.35060182 -0.124194495 -0.2746882 -0.28880903
000070 7f 94 1d be 6e f8 95 be f9 e3 a6 be 8b ab 66 be
       -0.15388678 -0.292911 -0.32595804 -0.22526376
000080 27 22 4d be 9a 45 39 be 14 ca b3 be 61 b5 a8 be
       -0.2003256 -0.18092957 -0.3511511 -0.3295088
000090 e2 c2 0b be e8 c8 ea be 07 36 6a be 95 54 8d be
       -0.1364856 -0.45856404 -0.22872172 -0.27603593
0000a0 60 c9 fb bd 1a e1 a0 be 81 a1 5d be 71 27 79 be
       -0.122942686 -0.3142174 -0.2164364 -0.24331452
0000b0 a0 03 9a be 9b b4 d2 bd 19 62 3c be 66 25 b5 be
       -0.3008089 -0.10288354 -0.18396796 -0.35380095
0000c0 e2 e4 d5 be ca 51 a1 be 81 96 43 be 03 72 8c be
       -0.41776186 -0.31507713 -0.19100381 -0.27430734
0000d0 10 76 70 be 63 6f 72 be 94 aa 00 be e5 a3 87 be
       -0.23482537 -0.23675303 -0.1256507 -0.2649223
0000e0 f5 1f 8b be cf aa 90 be 0e 00 77 be 9f 6f 6c be
       -0.2717282 -0.28255317 -0.24121115 -0.23089455
0000f0 8b 7f a7 be 0c bb e5 be 70 04 8d be 76 fb 82 be
       -0.32714495 -0.44869268 -0.27542448 -0.25582474

features.8.running_mean f4 [64]
000000 31 a1 05 bf d6 fc 0d bf 9d 58 24 bf ce af 9a bf
       -0.52199084 -0.5546392 -0.64197713 -1.2084901
000010 7d 22 9f be ad d0 e1 be f8 ca b8 bf 19 d3 31 be
       -0.31081 -0.4410452 -1.4436941 -0.17365684
000020 b4 bd 9f bf 39 57 32 bf 11 ad 70 3e 4c 88 ab bf
       -1.2479768 -0.6966434 0.2350352 -1.340097
000030 84 be 39 be d5 73 87 bf 83 e7 c2 be c1 e5 b5 bf
       -0.18139082 -1.0582224 -0.38067254 -1.421074
000040 29 df d8 be 49 b3 1d bf 95 b2 cf be 76 b4 50 3f
       -0.42357758 -0.6160169 -0.40565935 0.8152536
000050 e2 20 8c be da ec 8d 3f e6 90 fe bd d5 88 2f be
       -0.27368838 1.1087906 -0.12429981 -0.17142041
000060 c6 46 05 bf 78 96 77 bf 06 f3 7b be 1f bd b3 be
       -0.52061117 -0.9671397 -0.24604425 -0.35105225
000070 60 7e a3 3d 7d cf bb bd e7 b4 3c bf 11 fa 79 bf
       0.079830885 -0.091704346 -0.73713535 -0.97647196
000080 76 98 94 be 24 19 89 bf 16 cb 99 be fb e5 23 bf
       -0.29022568 -1.0710797 -0.30037755 -0.640228
000090 1e 34 e2 bd f1 32 19 bf 02 af 32 3e 76 40 8b bf
       -0.11045097 -0.59843355 0.17449573 -1.0879047
0000a0 e7 5a 8a bf 0f fc 5c bf 84 55 0e bf fe 12 8e bf
       -1.0808991 -0.8632211 -0.55599236 -1.1099546
0000b0 a9 a9 87 3f 24 a8 c6 be 7d 3c 81 bf 5f e0 26 bf
       1.0598651 -0.38800156 -1.0096585 -0.65186113
0000c0 b8 65 53 bf b0 19 4d 3f aa bc 29 bf ee 20 53 bf
       -0.82577085 0.8011732 -0.66303504 -0.8247212
0000d0 65 40 fd be ea f6 19 bf ba 70 9f bf 33 d8 7d 3e
       -0.49463192 -0.60142386 -1.2456276 0.24789505
0000e0 56 f6 22 bf 82 f8 f4 be 94 c0 98 3e b3 ba ce bf
       -0.6365713 -0.47845846 0.29834425 -1.6150726
0000f0 77 0e 53 bf 82 46 0e bf cb 57 f7 be df fc 94 bf
       -0.82443947 -0.55576336 -0.48309168 -1.163967

features.8.running_var f4 [64]
000000 4e 32 8c 3f d9 31 6d 3f 27 08 95 3f 3d 8b 63 3f
       1.0952852 0.92654186 1.1643113 0.88884336
000010 7a 19 32 3f 7b 57 ed 3e dc 36 a2 3f 80 b7 0d 3f
       0.69570124 0.46355805 1.2672992 0.55358124
000020 f2 0e 64 3f c7 b7 cb 3f dc 4c 40 3f 1e 9d ad 3f
       0.89085305 1.5915459 0.7511728 1.3563573
000030 a7 b2 9f 3f 4a f3 a1 3f af 93 eb 3e 3a c3 e0 3f
       1.2476395 1.2652371 0.4601111 1.7559578
000040 7d c4 91 3f aa 6d 51 3f 1d af 64 3f 64 42 81 3f
       1.1388088 0.8180796 0.893297 1.0098386
000050 2b 63 1b 3f 1b 5c 56 3f 95 ef 60 3f c0 ae 5a 3f
       0.60698193 0.8373429 0.87865573 0.854229
000060 d5 10 fe 3e 87 30 a0 3f 10 b1 58 3f e9 19 6c 3f
       0.49622217 1.2514809 0.84645176 0.92227036
000070 f2 4f 88 3f 08 9a 69 3f f0 cd 5d 3f ca 19 9a 3f
       1.0649397 0.9125066 0.8664236 1.203912
000080 f8 91 43 3f dc a9 a7 3f e0 ec 26 3f e1 aa 4a 3f
       0.76394606 1.3098712 0.6520519 0.7916699
000090 48 7b 88 3f b3 76 0d 3f e7 3a 27 3f 12 61 82 3f
       1.0662622 0.55259246 0.6532425 1.0185874
0000a0 58 2e 6f 3f 0b 2c c1 3f 44 f0 a5 3f ac dc 9e 3f
       0.9343009 1.5091566 1.2963948 1.2411094
0000b0 53 c0 32 3f 2a d6 8b 3f 38 56 9f 3f ba 82 06 3f
       0.69824713 1.0924733 1.2448187 0.5254322
0000c0 a2 bd 33 3f ea f8 82 3f ac 37 a1 3f 2c a0 67 3f
       0.7021123 1.0232213 1.2595115 0.9047878
0000d0 c0 bf 82 3f 68 0c 9f 3f 4b 71 a5 3f 2e 7c 74 3f
       1.0214767 1.2425661 1.2925199 0.95501983
0000e0 b2 fe 2f 3f 13 6b 3b 3f 63 1d 81 3f bc 17 c2 3f
       0.6874801 0.7321026 1.0087093 1.5163493
0000f0 e1 35 95 3f c9 80 10 3f 69 e5 2b 3f 96 ef 6f 3f
       1.1657068 0.5644651 0.6714693 0.93724954

features.10.weight f4 [64, 64, 3, 3]
000000 ac 05 24 bc d6 97 a4 3c 3e 24 77 3b 85 f6 da 3c
       -0.010011118 0.020091932 0.003771081 0.026728878
000010 e1 74 fb 3b 9a a8 d8 bc 67 e8 01 3b 19 e5 ba bc
       0.007673845 -0.026447583 0.001982236 -0.02281432
000020 6e 60 8d bc 42 bb e4 3a 0e 90 b8 3c 3d 58 93 3c
       -0.017257895 0.0017450827 0.022529628 0.017986411
000030 03 ca 33 3d 8b ae e3 3c 51 17 0e 3d 6b 76 7a 3c
       0.043893825 0.02779319 0.034690205 0.015287022
000040 b2 76 2e 3c 02 74 08 3c ba 76 85 3d 6f cf 2a 3d
       0.010648416 0.00832844 0.06516786 0.04170173
000050 61 90 a8 3d 85 fc be 3d b3 45 88 3d 4e ed b4 3d
       0.08230663 0.09325508 0.06653919 0.08834325
000060 57 54 47 3d 89 fb d0 3c ab fe 92 3d d6 e6 f6 bb
       0.048664417 0.025510566 0.0717748 -0.007534842
000070 6c 9c 35 bc 39 af 04 bd 34 98 e5 bc 9b 26 1e bd
       -0.011084657 -0.032393668 -0.028026678 -0.038611036
000080 68 ea 5e bd aa cd a1 bc 60 9e 79 bd 7e 28 db bc
       -0.054422766 -0.019751389 -0.060942054 -0.026752707
000090 9e 38 ec bc 0e cc 0a bc 62 c8 60 bd 4f 39 8a bc
       -0.02883559 -0.008471502 -0.0548786 -0.01687303
0000a0 f8 fb 9d bc 03 a7 7b bd 6f ce a2 bd a7 e3 5e bd
       -0.019285187 -0.06143857 -0.0794953 -0.054416325
0000b0 f0 d0 cf bd b9 59 a0 bd e1 17 99 bc a6 b6 1d bd
       -0.101472735 -0.07829613 -0.018688144 -0.038504265
0000c0 55 d8 15 bd 95 2a 22 bd b9 d5 82 bd 3a 55 72 bd
       -0.036583263 -0.03959139 -0.063884206 -0.05916331
0000d0 3c ad c1 bc e4 fb 0b bd 28 01 ea bb cf c6 16 bc
       -0.023642175 -0.03417577 -0.007141251 -0.009202673
0000e0 32 a3 95 3b 45 4c 2e 3c 3f 02 15 3d 98 fb 52 3d
       0.0045665735 0.010638301 0.036379095 0.05150947
0000f0 d3 0c 59 3d f0 9c 98 3c d8 49 9f 3d e0 1b e5 3c
       0.052990746 0.018629521 0.077777565 0.027967393
000100 8e ca 29 bb ba fe ae bb 5a e7 68 ba bb 8f 57 3c
       -0.0025908086 -0.0053404244 -0.0008884572 0.013156827
000110 1c c3 39 3c bf 24 2b 3a ad c8 53 bc b4 06 12 3d
       0.011338022 0.0006528608 -0.012926263 0.035650924
000120 95 d7 d7 3d ae 10 82 3d 35 fc 78 3d e4 41 bf 3d
       0.10539166 0.06350838 0.0607874 0.093387395
000130 be 17 04 3e e5 9b e9 3d b6 97 b0 3d 2b 30 71 3d
       0.12899682 0.11406688 0.086226866 0.058883827
000140 46 8d 9d 3d 38 a8 92 bd db bf 87 bc da c3 11 bd
       0.076929614 -0.071609914 -0.016570976 -0.03558717
000150 a8 a8 65 bd 67 b5 58 bd cf 04 49 bd e6 c2 92 bc
       -0.056069046 -0.052907374 -0.04907685 -0.0179152
000160 d2 81 da bc d4 c0 c0 bc 7e 84 a7 3b 5b bc 59 3c
       -0.026673231 -0.023529448 0.00511223 0.013289536
000170 10 86 1a 3d 75 51 01 bc 72 99 5a bb db 9e 8c 3b
       0.03772551 -0.007892956 -0.003335562 0.004291398
000180 e4 73 96 bd 7d eb 26 bd 45 aa e6 bc 07 2b e5 3c
       -0.07346323 -0.040751923 -0.028157363 0.027974619
000190 3b 4b 3e 3c f4 51 61 3d cd 93 a5 3c e8 c5 14 3d
       0.011614616 0.055009797 0.020212078 0.03632155
0001a0 57 ed ff 3c 7e d8 02 bd 40 22 1b 3d 6b 8e 31 3d
       0.031241102 -0.031944744 0.03787446 0.04334871
0001b0 27 7d 72 3d 46 ac 93 3d c5 ff f6 3d 0c 9e 08 3e
       0.059201386 0.07210593 0.12060503 0.1334154
0001c0 b5 6b ac 3d 9f fc c9 3d 82 b8 13 3e 00 ec ab 3d
       0.08418981 0.09862637 0.14425853 0.08394623
0001d0 aa 5f b8 3d 97 91 8e 3c b8 c0 17 3d 5c 2c ba bb
       0.090026215 0.017403407 0.037049025 -0.0056815576
0001e0 f3 a2 6d 3d 31 07 86 3d f4 45 52 3d c1 f8 7a 3d
       0.05801673 0.065443404 0.051336244 0.061272386
0001f0 97 7c 3f 3d bf 7d 3e 3d 15 11 a7 bd 72 10 a2 bc
       0.046749678 0.04650664 -0.08157555 -0.019783232
000200 0e 10 8f bd bb bd c5 bc 17 95 e8 3c 13 92 6b 3c
       -0.06985484 -0.024138322 0.028391404 0.0143780885
000210 84 09 43 bd 09 9e c7 3b 9b 6f 44 bd cb f0 6e bd
       -0.047616497 0.0060918373 -0.047957998 -0.058335107
000220 45 7f 43 bd 70 cc 2d bc 41 fa ba bd cd 46 30 bc
       -0.047728796 -0.010607824 -0.091297634 -0.010759068
000230 b7 17 8d bd b7 35 bf bd 5b 90 07 be a6 b2 f5 bd
       -0.06889289 -0.09336417 -0.13238661 -0.11996965
000240 ab 10 12 bc 7e 47 ef 3b 53 4c 72 bd 6e c6 a8 bc
       -0.008915107 0.0073022237 -0.05915482 -0.020602431
000250 f7 c3 8a 3c 91 7d c1 bd 59 1f 2a bd fa 8a 8a bb
       0.016939146 -0.09447778 -0.0415338 -0.004227993
000260 83 fd 67 bd 9a 64 2c bd c8 80 2e bc 6c 93 93 3b
       -0.056638252 -0.04208813 -0.010650821 0.004503658
000270 53 c3 e1 bc df 5d 1d bb 4b 3d 6e 3b d1 41 d1 3c
       -0.027558958 -0.002401225 0.0036352451 0.025544079
000280 10 3b 8c 3c a1 d6 e9 3b 96 bc 11 3d f3 65 45 3c
       0.017118007 0.0071361815 0.03558024 0.012048232
000290 c9 d7 cb 3b 68 cf 3a 3c 49 f1 8f 3c 6f 53 b8 bb
       0.006220792 0.011401989 0.017571108 -0.0056251804
0002a0 94 b6 0e bd da bd 3b 3b d2 77 8e bb fc 68 b5 3b
       -0.03484209 0.0028647096 -0.00434778 0.0055361968
0002b0 3a 24 50 bc 12 66 d0 bc 61 ab b0 bc af 52 8a 3c
       -0.01270395 -0.025439296 -0.021566095 0.01688513
0002c0 30 d0 ba 3c 73 a9 bb bc d0 9a bf 3c 01 be 30 3d
       0.02280435 -0.022907948 0.02338925 0.04314995
0002d0 8b fc 9c bc 87 ef a6 bc 6f be b4 bc 45 4c 2c 3c
       -0.01916339 -0.020377887 -0.022063462 0.010516231
0002e0 fa 66 48 3d 63 5a f3 3c 5f 19 5a bb a5 63 a2 3b
       0.04892633 0.029706186 -0.0033279283 0.004955726
0002f0 f7 ec e2 3c 0b 91 0c bd 86 ed d9 bc e9 a6 17 3c
       0.027700884 -0.03431801 -0.026602518 0.009256103
000300 a2 0e d9 bb ab 19 05 bd b5 e5 ae bc e5 d2 94 bc
       -0.006624059 -0.032495182 -0.021349767 -0.018166969
000310 2b 6f cd bc 6a 0d 3d bd 08 a2 f2 bc 81 17 9d bc
       -0.025077423 -0.04615537 -0.029618278 -0.019176247
000320 5d 81 04 bd 55 22 c0 3b 9a 40 24 bc 5c 7a fa bc
       -0.032349933 0.0058634677 -0.010025168 -0.030575924
000330 13 54 5a bd bd 17 9a bc c7 59 66 bd 08 c0 1c bb
       -0.053302836 -0.018810147 -0.056237962 -0.002391817
000340 94 43 e1 bc 54 ae 0a bb 40 c2 5f 3c d6 18 85 3c
       -0.027498044 -0.0021161037 0.013657153 0.016247194
000350 db 10 e6 3a e6 32 4c 3d 81 84 eb 3c bf 6d 03 3d
       0.0017552631 0.049853228 0.028749706 0.032087084
000360 de 9c 26 bd 99 66 91 ba 3e ba 01 bd bf ae 23 bc
       -0.040676944 -0.0011093199 -0.031671755 -0.009990393
000370 b6 23 80 3c ff 4a 13 3c b0 6e 50 3b 84 8d ef 3c
       0.015642028 0.008990048 0.0031804256 0.029242285
000380 c1 6a 72 bb 38 56 44 bd 50 44 e8 3a fb 86 e3 bb
       -0.00369899 -0.047933787 0.0017720554 -0.006943581
000390 3b d1 67 bd 60 de c2 bc 36 6c c9 bc 43 4b 47 bd
       -0.056596022 -0.023787677 -0.024587732 -0.04865576
0003a0 26 68 0a bd 0a 00 86 bd 7e fe 04 bd 19 81 24 bd
       -0.03379073 -0.06542976 -0.032469265 -0.04016218
0003b0 d1 19 c2 bc f9 36 fa bc 1c 09 a1 bc 16 5c 5a bc
       -0.02369395 -0.030543791 -0.019657664 -0.013327619
0003c0 18 ab 0b b8 9a c4 1f bc 87 5b 77 3c fe 41 11 3e
       -3.3299526e-05 -0.009751463 0.015097505 0.1418533
0003d0 e1 17 11 3d 39 17 5f 3d 53 14 67 3d 91 2d 9d 3c
       0.035423163 0.054465506 0.056415867 0.019186767
0003e0 88 e2 5c bc f6 5a b9 3d 42 2b f5 3c 5b 73 65 3d
       -0.013481744 0.090505525 0.029927853 0.056018215
0003f0 e8 cd 09 bd 32 8d 00 bd 02 d8 b4 bb 93 16 07 bd
       -0.033643633 -0.031384654 -0.005518914 -0.032980513

features.10.bias f4 [64]
000000 af 42 6c bd 2a 47 81 3c 31 5d b6 3c 08 7a 87 bc
       -0.057680782 0.015781004 0.022261234 -0.016537681
000010 3b f5 88 bc fc 0e f6 bc ee 65 e2 bc b7 17 14 3c
       -0.016718497 -0.030036442 -0.027636494 0.009038857
000020 41 51 d9 bc e0 26 da bb 94 5a 1b 3b 0f cd 8a 3c
       -0.026528003 -0.0066574663 0.0023705112 0.016943483
000030 dd 6d 8a 3b b7 7f f3 bc 75 a7 e3 bc 73 e4 97 bc
       0.0042245225 -0.029723985 -0.02778981 -0.01854155
000040 f4 cc d0 bc c3 4f 85 bd e4 10 25 bc 09 06 3d bc
       -0.025488354 -0.06509354 -0.010074828 -0.011537083
000050 74 ec 85 3b 67 fd 6c bc c0 34 2b 3a a8 1f 65 bd
       0.0040870253 -0.014464713 0.00065309927 -0.055938393
000060 ac 5a e7 3a 7e 38 52 bc 0b 22 56 bc 82 e6 07 bd
       0.0017650924 -0.012830852 -0.01306964 -0.033178814
000070 40 81 b7 bc 87 f2 80 bc 38 ab 71 3c 06 86 ae bd
       -0.022400498 -0.015740646 0.014750294 -0.08521657
000080 98 e5 43 3c 76 7e f9 bc 95 cb 0b bd 0a 48 fc bc
       0.011956595 -0.03045581 -0.034129698 -0.03079607
000090 71 11 9f 3c a8 4f 57 bd 1b 1e 57 bd 5a 2a 19 bd
       0.019417496 -0.0525662 -0.052518945 -0.037393905
0000a0 0d 4b d9 3b c7 b5 0d bd a1 1e 0b bc 61 cd fe bc
       0.006631261 -0.034597185 -0.008491189 -0.031103792
0000b0 45 0c 11 bd 66 2d 36 3c 41 8e be bc 5a a0 e2 bc
       -0.03541209 0.011119222 -0.023261191 -0.027664352
0000c0 26 15 80 3c 9f 0e 33 bd 98 44 f7 bc ef 50 75 bc
       0.015635084 -0.043715116 -0.030184075 -0.014972909
0000d0 c6 fd 2e bd 93 d8 8a bd c1 27 f3 bb 54 25 71 bd
       -0.042722486 -0.067795895 -0.0074205105 -0.05887349
0000e0 e5 4c 68 bb e6 f5 31 bd 65 3c 86 3a 87 05 75 3c
       -0.0035446223 -0.043447398 0.0010241388 0.014954931
0000f0 14 8b df bc e4 1f 70 bd 37 7a 1e bd eb 28 78 bc
       -0.027287997 -0.058624163 -0.038690772 -0.015146474

features.11.weight f4 [64]
000000 89 39 e7 3f fc 0b d2 3f d8 be d0 3f d4 05 cf 3f
       1.8064433 1.6409907 1.6308241 1.6173654
000010 b5 79 e8 3f c2 79 d1 3f ec 63 d0 3f dd 5b d8 3f
       1.8162142 1.6365283 1.6280494 1.6903034
000020 b7 d0 df 3f b5 1e d9 3f 0e 8b d1 3f 58 a2 e2 3f
       1.748557 1.6962496 1.6370561 1.7705793
000030 b1 d6 d5 3f cc 8d d3 3f 58 65 e8 3f 79 ff d5 3f
       1.6706144 1.6527648 1.8155928 1.6718589
000040 30 24 d0 3f de 79 d0 3f 21 85 cc 3f 62 2a c9 3f
       1.6261044 1.6287191 1.5978128 1.5716059
000050 c6 16 ea 3f 42 52 de 3f b6 66 e8 3f de a2 cf 3f
       1.82882 1.7368853 1.8156345 1.6221578
000060 22 3d c6 3f fe 7b c3 3f d6 69 d7 3f 9a 77 d7 3f
       1.5487406 1.5272214 1.6829174 1.6833375
000070 6e da dc 3f 1e 04 c5 3f c5 f0 c4 3f 75 24 cc 3f
       1.725416 1.5391881 1.5385977 1.5948626
000080 43 22 cf 3f ae 3c ed 3f 33 df d3 3f b1 a6 d9 3f
       1.6182331 1.8534143 1.655249 1.7003995
000090 69 81 d1 3f 94 57 cf 3f b6 40 e1 3f c5 70 d3 3f
       1.6367618 1.6198602 1.7597873 1.651879
0000a0 1b 9d cd 3f 0d 0e e3 3f 64 af db 3f 8f 7a de 3f
       1.606357 1.7738663 1.71629 1.7381152
0000b0 72 ca eb 3f 7c 4b e7 3f 04 57 c7 3f 58 fd e4 3f
       1.8421156 1.8069911 1.557343 1.7889814
0000c0 e0 38 cb 3f f9 0e dc 3f 64 3b df 3f 1d d7 db 3f
       1.5876732 1.7192069 1.744 1.7175022
0000d0 88 98 cc 3f bf 21 da 3f f9 ab df 3f 7b a8 de 3f
       1.5984049 1.7041548 1.7474357 1.7395166
0000e0 e3 a0 c3 3f e9 0c e7 3f d0 d3 db 3f a4 d3 ce 3f
       1.5283474 1.8050815 1.7174015 1.6158338
0000f0 ed 37 dc 3f 87 bc d7 3f 13 69 d3 3f c4 b4 d3 3f
       1.7204567 1.6854409 1.6516441 1.653954
