qt_digit_recognize/mnist-code/mnist_cnn_Fashion_model.pth (torch, 290665 bytes, 20 tensors)

cnn1.weight f4 [16, 1, 5, 5]
0	0x3e47ebb7	0.19523512
1	0x3d9142ae	0.07092796
2	0xbe4e5000	-0.20147705
3	0xbd41215c	-0.047150955
4	0xbdd2042f	-0.10254704
5	0xb9a6f1fa	-0.00031842274
6	0xbdf4b0b9	-0.1194777
7	0x3c747d80	0.0149225
8	0xbdef331f	-0.116796724
9	0xbd404a6c	-0.046945974
10	0x3d4c513b	0.049882155
11	0x3e1d30d1	0.15350653
12	0x3d25ea37	0.040506568
13	0x3d126ca4	0.03574814
14	0x3dbc9189	0.09207446
15	0x3da8d0ba	0.082429364
16	0x3df49ebd	0.119443394
17	0xbdbffda4	-0.0937455
18	0x3e211b7e	0.15733144
19	0x3e2db023	0.16961722
20	0x3e23ff8d	0.16015454
21	0x3e2013ba	0.15632525
22	0xbd883e18	-0.066524684
23	0x3cc738c9	0.02431907
24	0x3de0da31	0.10979117
25	0x3c05ac5d	0.00815877
26	0x3db5d715	0.08878914
27	0xbd978e32	-0.074001685
28	0xbdb93497	-0.09043234
29	0xbe12cc3f	-0.14335726
30	0x3e2bccb7	0.16777311
31	0xbe17f342	-0.14838889
32	0x3ca6ac87	0.02034594
33	0xbe4a779c	-0.1977219
34	0x3d3ea028	0.046539456
35	0x3ddc3155	0.10751597
36	0x3e38a6a1	0.18032314
37	0xbe17c96d	-0.14822932
38	0xbe37a32d	-0.1793334
39	0xbd29fd9a	-0.04150162
40	0xbd509461	-0.050922755
41	0x3e196ac0	0.14982128
42	0xbd8ea1fc	-0.0696449
43	0xbde17d55	-0.11010233
44	0x3e14c5ec	0.14528626
45	0x3e2980c4	0.16553026
46	0xbe3c0797	-0.1836227
47	0x3e40bae7	0.18821298
48	0xbd44ac80	-0.04801607
49	0x3e0e23f9	0.1388091
50	0xbdcda755	-0.10041682
51	0xbd6ab2c5	-0.057299394
52	0x3e245902	0.16049579
53	0x3e0a8379	0.13526715
54	0xbd931522	-0.07181765
55	0x3df3881c	0.11891195
56	0x3d35c3fb	0.044376355
57	0x3df94dbe	0.12173031
58	0x3d9c0f59	0.07620115
59	0x3d02fa70	0.031977117
60	0xbe4fc374	-0.20289403
61	0xbd9a35fc	-0.07529828
62	0xbdf4667a	-0.11933608
63	0x3d2d3842	0.04228998
64	0x3e2df2ff	0.16987227
65	0xbdef1370	-0.11673629
66	0x3d603288	0.05473569
67	0xbdc39e51	-0.09551681
68	0x3e296a43	0.16544442
69	0xbd90c4ea	-0.070688084
70	0x3bb7571f	0.0055951024
71	0xbe3b2b65	-0.18278272
72	0x3e1c13bf	0.15241908
73	0xbda43425	-0.08017758
74	0x3d172709	0.03690246
75	0x3e07490e	0.13211462
76	0xbd998a8b	-0.07497128
77	0xbde8cbab	-0.113669716
78	0xbd987b90	-0.07445443
79	0x3d76e1c0	0.060273886
80	0x3dca74aa	0.09885533
81	0xbe4782e3	-0.19483523
82	0x3e2f7071	0.17132737
83	0xbd56b56e	-0.05241912
84	0x3dbea66b	0.093090855
85	0x3e19fc9b	0.15037768
86	0x3dd4a061	0.10382152
87	0x3b773b96	0.0037724725
88	0xbde35170	-0.11099517
89	0x3cabb9a8	0.020962551
90	0x3e495aa8	0.19663489
91	0xbe106996	-0.14102778
92	0xbdf997e4	-0.12187174
93	0xbd82ce53	-0.063870095
94	0x3e18224b	0.14856832
95	0x3ddfa120	0.10919404
96	0x3d871b29	0.06596977
97	0xbd9cdfae	-0.07659851
98	0xbdad7102	-0.0846882
99	0xbd10a0b7	-0.03530952
100	0xbe4ad2cc	-0.19806975
101	0xbd82e8e6	-0.06392078
102	0x3de1444f	0.10999357
103	0x3ccee7d5	0.02525703
104	0xbbf0940f	-0.0073418687
105	0xbe04f704	-0.12984854
106	0xbe25c3e7	-0.16188012
107	0x3ad22284	0.0016032015
108	0xbe259df8	-0.16173542
109	0xbdd37e79	-0.10326857
110	0xbd55f395	-0.05223425
111	0x3e1a5319	0.15070762
112	0xbdbb2771	-0.09138382
113	0x3d3b993c	0.045800433
114	0xbda65d90	-0.081233144
115	0xbbe4e07e	-0.0069847694
116	0x3e21cf6e	0.15801784
117	0x3df136d3	0.11778035
118	0xbd5b9e00	-0.053617477
119	0x3d4c3198	0.049851984
120	0x3e06da15	0.13169129
121	0xbe05787d	-0.13034244
122	0x3df2490c	0.11830339
123	0x3cf16941	0.029469134
124	0x3e2efd66	0.17088851
125	0xbd1ff2fa	-0.03905008
126	0x3d75b9b5	0.059991557
127	0xbd60f418	-0.054920286
128	0x3e03f6c6	0.12887105
129	0x3dc89aed	0.09795175
130	0x3e15a2b8	0.14612854
131	0x3e1a7024	0.15081841
132	0x3e16a1f2	0.14710215
133	0x3e1bc3a4	0.1521135
134	0x3cb7ec1d	0.022451455
135	0xbe58f8aa	-0.21188608
136	0xbda5ad4f	-0.080896966
137	0xbe042557	-0.12904869
138	0xbe0329dd	-0.12808938
139	0xbd1d4d30	-0.03840369
140	0x3bd7f006	0.0065898923
141	0xbdc8c131	-0.09802473
142	0xbe0e23d7	-0.1388086
143	0xbe472d74	-0.19450933
144	0xbd900831	-0.070328124
145	0xbceac1a2	-0.028656784
146	0xbe2884f2	-0.16456965
147	0xbd0b04cd	-0.033940125
148	0x3dab36ab	0.083600365
149	0x3b42d79c	0.0029730564
150	0xbd734717	-0.05939397
151	0x3dd0fd1d	0.102045275
152	0x3d80a049	0.06280572
153	0xbde9a699	-0.11408729
154	0xbc8e3ff8	-0.017364487
155	0x3d876b92	0.06612314
156	0x3d93b639	0.072124906
157	0xbe38467c	-0.17995638
158	0xbe23b74d	-0.15987892
159	0x3ae841b5	0.0017719778
160	0xbda47edc	-0.08032009
161	0xbe52bf6d	-0.20580836
162	0x3dda9e89	0.106747694
163	0x3e1a5f1f	0.15075348
164	0xbc9eb43f	-0.019373057
165	0x3d8b6eec	0.06808266
166	0x3dba01a3	0.090823434
167	0x3e4220a6	0.18957767
168	0x3e18a22f	0.14905618
169	0x3e38c1bf	0.18042658
170	0xbda2400d	-0.07922373
171	0x3df91ef8	0.1216411
172	0xbe69f4c7	-0.22847281
173	0xbe01db94	-0.12681419
174	0xbd3b6009	-0.045745883
175	0xbbaca5d7	-0.005268793
176	0x3d90deb3	0.070737265
177	0xbe1e9b97	-0.1548904
178	0xbdc3ecd7	-0.09566658
179	0x3c984373	0.01858685
180	0x3d4f777c	0.05065106
181	0xbd3b3818	-0.045707792
182	0x3e51d8ca	0.20492855
183	0xbdb4ee96	-0.08834569
184	0xbdc31c68	-0.095269024
185	0x3e239fa0	0.15978861
186	0x3d604214	0.054750517
187	0xbc4ef17a	-0.012630815
188	0xbe4e5b6a	-0.20152059
189	0xbd90d511	-0.07071889
190	0x3db815db	0.089885436
191	0x3d7dd800	0.06197357
192	0x3e18a157	0.14905296
193	0x3dbd0059	0.09228582
194	0x3dfeab43	0.12435009
195	0x3e07cc29	0.13261475
196	0xbc783f58	-0.015151821
197	0xbdb79911	-0.08964742
198	0xbd8a67c4	-0.06758073
199	0xbdcedb37	-0.10100406
200	0xbe042be8	-0.12907374
201	0x3d20cb94	0.039256647
202	0x3e06d124	0.13165718
203	0xbd48c655	-0.04901727
204	0x3e00b0af	0.125674
205	0xbd9a2873	-0.07527246
206	0x3e336936	0.17520604
207	0xbd1861e3	-0.037202727
208	0x3e23e39f	0.160048
209	0x3d3e0e3a	0.046400286
210	0x3d8e0e7a	0.06936355
211	0xbe16f89b	-0.14743273
212	0x3c622cb5	0.013804604
213	0x3e5be6d1	0.21474768
214	0xbd11c7ab	-0.03559081
215	0x3cbd14a2	0.023081128
216	0xbe0f32ea	-0.13984266
217	0xbe4b3deb	-0.19847839
218	0x3d7bc5d7	0.06146797
219	0x3e4963f5	0.19667037
220	0x3e173b09	0.14768614
221	0xbc234f28	-0.009967603
222	0x3d482588	0.048863918
223	0x3d9e1c37	0.07720225
224	0x3e0212a7	0.12702428
225	0x3e0f578f	0.13998245
226	0x3e379d3a	0.17931071
227	0x3e47af8a	0.19500557
228	0x3dc6d2e1	0.09708191
229	0xbc89253d	-0.01674139
230	0xbe0cebf2	-0.13761881
231	0x3d94e9b1	0.072711356
232	0xbe29b00b	-0.16571061
233	0xbc9e35ad	-0.019312704
234	0x3d9e1a12	0.07719816
235	0x3ce08a36	0.027409654
236	0xbe3fc197	-0.18726192
237	0xbd00196a	-0.031274237
238	0xbd808392	-0.06275095
239	0x3cf93f05	0.030425558
240	0xbc12b34d	-0.008953881
241	0xbdc2d134	-0.095125586
242	0x3d3e96a5	0.046530385
243	0xbdf9db33	-0.12200012
244	0xbe23ef44	-0.16009241
245	0x3e487252	0.1957486
246	0xbe473d4b	-0.19456975
247	0xbd9c3492	-0.076272145
248	0x3e2558d0	0.1614716
249	0xbdaf174f	-0.08549368
250	0x3e101b81	0.14072992
251	0xbd0e9d96	-0.034818254
252	0xbd531a35	-0.051538665
253	0xbd87c58b	-0.06629475
254	0xbd2c9c97	-0.042141523
255	0x3e2882d7	0.16456161

cnn1.bias f4 [16]
0	0x3e26e750	0.16299176
1	0x3d7ad42e	0.061237507
2	0xbd29d33a	-0.041461207
3	0x3e2ebe57	0.17064796
4	0x3d897a0e	0.06712733
5	0x3da0ace7	0.078454785
6	0xbdcaafb6	-0.098967955
7	0x3d8ce458	0.068794906
8	0xbde984bd	-0.11402271
9	0x3e33edd2	0.1757119
10	0x3b32b28c	0.0027267067
11	0x3d937768	0.07200509
12	0x3db2315e	0.08700822
13	0x3c40362a	0.011731664
14	0xbe1f4dba	-0.15556994
15	0xb989ddf3	-0.0002629604

conv1_bn.weight f4 [16]
0	0x3f7f9f40	0.9985237
1	0x3f7f24e3	0.9966566
2	0x3f7f01cb	0.9961211
3	0x3f7eb735	0.994983
4	0x3f7ea9ed	0.99478036
5	0x3f821dca	1.0165341
6	0x3f80505b	1.0024523
7	0x3f7d9d0c	0.9906776
8	0x3f7ed04b	0.9953658
9	0x3f7e2267	0.99271244
10	0x3f8152b4	1.0103364
11	0x3f8020de	1.001003
12	0x3f80294c	1.0012603
13	0x3f802559	1.0011398
14	0x3f808008	1.0039072
15	0x3f80420c	1.0020156

conv1_bn.bias f4 [16]
0	0xbbb71924	-0.005587714
1	0x3a90baf0	0.001104204
2	0x3bc46c54	0.005994359
3	0xba732c22	-0.00092762907
4	0xb9525487	-0.0002005865
5	0xbbbff916	-0.005858551
6	0xbbb0f9ff	-0.0054008956
7	0xbc02dc13	-0.00798704
8	0xbba906ea	-0.005158295
9	0xbbcfba5a	-0.0063393535
10	0x3bd194f2	0.0063959295
11	0x3c1c11bd	0.0095257135
12	0xbbd23f39	-0.006416228
13	0x3bdd1b2c	0.006747624
14	0x3b003738	0.0019564163
15	0x3ae59d5b	0.0017518209

conv1_bn.running_mean f4 [16]
0	0x3e8d62c5	0.27614418
1	0x3dbe60ec	0.0929583
2	0x3d18eee3	0.037337195
3	0x3e5027e6	0.2032772
4	0x3db20e76	0.086941645
5	0x3dad500a	0.08462532
6	0x3c58a352	0.013222532
7	0x3ddfa0a0	0.10919309
8	0x3da22dfe	0.079189286
9	0x3e343170	0.17596984
10	0x3d03caa6	0.032175682
11	0x3d5f3929	0.05449787
12	0x3dc7b61b	0.09751531
13	0x3d4b4b57	0.049632397
14	0x3cf3b112	0.02974752
15	0x3ce38aa5	0.027776072

conv1_bn.running_var f4 [16]
0	0x3d56e05d	0.052460063
1	0x3c3ef73b	0.011655624
2	0x3c25c4a6	0.010117685
3	0x3c6d0524	0.014466558
4	0x3c1b6a17	0.009485743
5	0x3c1e652b	0.009667675
6	0x3b480d5e	0.0030525546
7	0x3c8bbbab	0.01705726
8	0x3ce9d4f5	0.028543929
9	0x3c605b11	0.013693587
10	0x3c078219	0.008270764
11	0x3b170b31	0.0023047442
12	0x3c0597e6	0.008153891
13	0x3bed302b	0.007238408
14	0x3bfb0efe	0.0076616993
15	0x3bea4067	0.0071487906

cnn2.weight f4 [32, 16, 5, 5]
0	0x3d48da1f	0.04903614
1	0xbd3d6c29	-0.046245728
2	0x3d11a631	0.035558883
3	0x3cf7a89d	0.030231768
4	0x3d17aa56	0.03702768
5	0xbb48332b	-0.0030548077
6	0x3d356380	0.044284344
7	0x3d29b6e4	0.041434184
8	0x3d2930a4	0.041306153
9	0x3d11aa1b	0.035562616
10	0x39673a09	0.00022051496
11	0x3cc2b277	0.02376674
12	0x3c782190	0.015144721
13	0xbd2a3a55	-0.041559536
14	0x3be0c7dd	0.006859763
15	0x3c9072de	0.017632898
16	0xbc5a0403	-0.0133066205
17	0x3bff6b69	0.0077947867
18	0xbcb0a96c	-0.021565162
19	0xbca34ed1	-0.019935044
20	0xbd13159b	-0.035909276
21	0x3c45b21e	0.012066392
22	0xbcea8a09	-0.028630273
23	0x3ae9333d	0.001779176
24	0xbcbdaa71	-0.023152562
25	0x3ce1f5ba	0.027582992
26	0xb8677b3c	-5.5189463e-05
27	0xbca15c89	-0.019697445
28	0xbce614d2	-0.0280861
29	0xbd2a76bd	-0.041617144
30	0x3d5400c0	0.051758528
31	0xbd216883	-0.03940631
32	0xbc5eb295	-0.013592382
33	0x3be4b664	0.0069797505
34	0xbd2f25a3	-0.042760503
35	0xbd39348d	-0.045216132
36	0xbd2e84c2	-0.042607076
37	0xbd41fbcc	-0.047359273
38	0xbc97979e	-0.018504914
39	0xbcf1c33f	-0.029512046
40	0xbcd8ee9e	-0.026480969
41	0xbc97a4e2	-0.01851124
42	0x3c60e23b	0.013725813
43	0x3c29eaf8	0.010370962
44	0xbd62047f	-0.05518007
45	0xbd20a065	-0.039215464
46	0xbb839f37	-0.0040167826
47	0xbcaaac4b	-0.020834109
48	0x3cb61718	0.022227809
49	0x3c1597e3	0.009130451
50	0x3cb41aa8	0.021985367
51	0x3ce29f1f	0.027663765
52	0x3d1438f6	0.036187135
53	0x3c0fe6a1	0.008783014
54	0xbc7ecc86	-0.015551692
55	0x3bebc340	0.0071949065
56	0x3cbb3c62	0.022855941
57	0x3c9bad62	0.019003574
58	0xbc4ba846	-0.012430256
59	0x3d067414	0.032825544
60	0x3d3f6b0f	0.04673296
61	0xbbab6072	-0.005230003
62	0xbc7b3d93	-0.015334505
63	0xbcdd33e1	-0.027002277
64	0x3cc60e92	0.02417687
65	0x3d306c78	0.043072194
66	0x3d1d34b5	0.038380343
67	0xbd5945af	-0.05304497
68	0xbd1fbcf6	-0.038998567
69	0xbcaf89f7	-0.021428091
70	0xbd2022ac	-0.039095566
71	0x3c537a69	0.012907603
72	0xbd462f3a	-0.048384883
73	0x3ce70efe	0.028205391
74	0x3d134599	0.035955045
75	0x3c9fa3f9	0.019487368
76	0xbc3f69c0	-0.011682928
77	0xbcafcbf6	-0.02145956
78	0x3cb8c36f	0.022554127
79	0xbbd88524	-0.0066076685
80	0x3cc80b76	0.024419528
81	0x3be8ad09	0.0071007055
82	0xbc2acbfd	-0.010424611
83	0xbd3903cf	-0.045169648
84	0xbc319f05	-0.010841136
85	0xbd0352e2	-0.032061465
86	0xbc1c8252	-0.009552555
87	0xbcbe1859	-0.02320497
88	0x3ccdb733	0.02511177
89	0xbd430d17	-0.047619905
90	0xbc545eb2	-0.01296203
91	0x3d08fa6c	0.033441946
92	0xbcf03af2	-0.029324982
93	0x3d3e40fd	0.046448696
94	0xbbe84adb	-0.0070890016
95	0x3bb270b3	0.0054455637
96	0xbc84d131	-0.016213031
97	0x3b4528a4	0.0030084038
98	0x3c1f6164	0.00972781
99	0xbd057671	-0.032583658
100	0xbc1e1191	-0.009647743
101	0xbd38e8e3	-0.045143973
102	0x3d163982	0.036675937
103	0xbd3382df	-0.04382598
104	0x3cac68c3	0.021046048
105	0x3d033252	0.03203041
106	0xbbb5d87d	-0.005549489
107	0x3d31f585	0.043447036
108	0xbbcbeead	-0.0062235207
109	0x3ca0ef93	0.019645488
110	0x3c74778a	0.014921078
111	0xbcbf9df2	-0.023390744
112	0xbd0015cf	-0.0312708
113	0x3ce44529	0.02786501
114	0x3c7d91bb	0.015476639
115	0xbd1bbd79	-0.038022492
116	0x3c353fb6	0.011062553
117	0xbc37dcbe	-0.011222063
118	0x3d0c247b	0.034214478
119	0x3bf086e3	0.0073402985
120	0x3c8a73fa	0.016901005
121	0x3c9f910b	0.019478342
122	0x3d3494cc	0.044087216
123	0xbcf2aa4d	-0.029622221
124	0x3d1722ad	0.036898304
125	0x3cbe0302	0.023194794
126	0xbcc5fe01	-0.02416897
127	0x3cb9c054	0.022674717
128	0x3cab6f81	0.020927193
129	0x3b69063a	0.003555669
130	0xbd73ffc4	-0.05957009
131	0xbd190a14	-0.037363127
132	0x3b9b8d01	0.0047470336
133	0x3c67fc0f	0.014159217
134	0x3d2ed0ad	0.042679477
135	0xbd0137ca	-0.031547345
136	0x3d2d903c	0.04237388
137	0xbcdc0eb2	-0.026862476
138	0xbbaa2a14	-0.0051930044
139	0xbd30ef5b	-0.043197017
140	0x3d6e6a4e	0.05820685
141	0x3c5c6654	0.013452131
142	0xbc29a0b6	-0.010353258
143	0xbd1a3e37	-0.03765699
144	0xbb2cee47	-0.0026387142
145	0x3d0a40cb	0.033753198
146	0x3d150544	0.036381975
147	0x3ca8fd0e	0.020628478
148	0xbd73a12c	-0.059479877
149	0xbd551b44	-0.052027956
150	0xbc4e2339	-0.01258164
151	0xbbb59c03	-0.0055422797
152	0x3d2f13b8	0.042743415
153	0x3d27f859	0.041008327
154	0x3d21af2d	0.0394737
155	0x3ca6aad6	0.020345133
156	0xbd0d699d	-0.03452455
157	0x3d502c72	0.050823636
158	0x3d23deb6	0.040007316
159	0xbc12c279	-0.008957499
160	0xbcb4c2bf	-0.022065518
161	0xbbdf495c	-0.006814165
162	0xba572456	-0.00082070136
163	0xbd3f7388	-0.04674104
164	0x3ac44633	0.0014974534
165	0xbc32f569	-0.010922768
166	0xbc231c88	-0.009955533
167	0x3cf07c78	0.029356226
168	0xbd3a5194	-0.045487955
169	0xbc8d86b7	-0.017276151
170	0xbcfa14ab	-0.030527433
171	0xbac80d23	-0.0015262704
172	0xbc90a34b	-0.01765599
173	0x3cd26373	0.025682187
174	0x3ca686e7	0.020327998
175	0xbb3a62dc	-0.0028440272
176	0x3cf4c278	0.029877886
177	0xbc2917c3	-0.010320607
178	0xbb18ece9	-0.0023334569
179	0xbb88667e	-0.0041626086
180	0x3d384c3f	0.04499459
181	0x3d0b1800	0.033958435
182	0xbbedaecb	-0.007253503
183	0xbcd1262e	-0.0255309
184	0xbc7f1b0a	-0.015570411
185	0xbcae2eb0	-0.021262497
186	0xbd064870	-0.032783926
187	0xbc9bf0f9	-0.019035803
188	0xbcd4b2a9	-0.025964098
189	0x3b85f4a6	0.0040880023
190	0xbb0a380d	-0.0021090538
191	0xbc889b41	-0.016675593
192	0xbc33550b	-0.010945569
193	0xbb786fef	-0.0037908514
194	0xbb597e8b	-0.0033186998
195	0x3b40ee34	0.0029438855
196	0xbcc16292	-0.023606572
197	0xbca5fbcd	-0.02026167
198	0xbd13ee23	-0.036115777
199	0xb897b7b9	-7.234462e-05
200	0x3d3d01b1	0.04614419
201	0x3d433327	0.047656205
202	0x3b260ed0	0.0025338419
203	0xbc45ec9a	-0.012080336
204	0xbbc97abc	-0.0061486643
205	0xbbdf2760	-0.006810114
206	0x3d035559	0.032063816
207	0xbb8b87f5	-0.0042581507
208	0x3d1148a5	0.03546967
209	0x3d16b64b	0.036794942
210	0xbca6cbc1	-0.02036083
211	0xbc9c2564	-0.019060798
212	0x3c9a088c	0.018802904
213	0xbd4b7215	-0.049669344
214	0x3ce1aa95	0.02754716
215	0x3cafcf3d	0.021461124
216	0x3ce9052d	0.02844485
217	0x3c0bc003	0.008529666
218	0x3b5a65af	0.0033324768
219	0x3cc82d90	0.024435788
220	0xbd27419f	-0.040834066
221	0xbb711528	-0.0036786292
222	0x38c9dd95	9.6257e-05
223	0xbacef74e	-0.0015790255
224	0x3cbf8a23	0.023381298
225	0xbc60904d	-0.013706279
226	0xbd37cada	-0.04487119
227	0xbd0a939e	-0.033832185
228	0xbaa29acf	-0.0012405756
229	0xba5fc717	-0.00085364416
230	0x3cc6e7e1	0.02428049
231	0x3d1e6cce	0.038677983
232	0x3a24c15a	0.0006284915
233	0x3c17e094	0.009269852
234	0x3b6745dc	0.0035289442
235	0x3b31e207	0.002714278
236	0x3d2b1603	0.04176904
237	0x3b0ac6ec	0.0021175696
238	0xbbcc23e1	-0.006229863
239	0x3ca6644e	0.0203115
240	0xbcb637d3	-0.022243416
241	0x3c711460	0.01471433
242	0xbcd86222	-0.02641398
243	0x3ced1d9d	0.028944785
244	0xbc30a698	-0.010781907
245	0x3cd1b144	0.025597222
246	0xbb3889e2	-0.0028158356
247	0xbc33e1aa	-0.0109790955
248	0xbd2d03fe	-0.042240135
249	0xbd52984a	-0.051414765
250	0xbd17a959	-0.037026737
251	0xbd4b7048	-0.049667627
252	0x3c4348be	0.011919199
253	0xbce8368d	-0.028346324
254	0xbd2d7533	-0.042348098
255	0xbcbc63e5	-0.022996852

cnn2.bias f4 [32]
0	0xbb7a4834	-0.003819001
1	0x3ce71875	0.028209904
2	0xbd3bf0b6	-0.045883857
3	0x3d14f583	0.03636695
4	0xbd2363b0	-0.03988999
5	0x3cf05258	0.02933614
6	0x3d4aac1d	0.049480546
7	0x3c45065f	0.012025445
8	0x3c8a4f15	0.016883412
9	0xbd3052bc	-0.04304765
10	0xbd137d74	-0.036008313
11	0x3c993aa2	0.018704716
12	0xbd554b8e	-0.052074008
13	0xbd45ed0f	-0.04832178
14	0x3b39ca6d	0.0028349415
15	0x3d2f9d89	0.042874847
16	0x3c1f913b	0.0097392155
17	0x3a227d89	0.0006198516
18	0xbcd40a1a	-0.025883723
19	0xbb562edd	-0.0032681741
20	0xbccd8e98	-0.025092408
21	0xbcfd7997	-0.030941768
22	0x3ae426e9	0.0017406616
23	0xbcb9dca0	-0.02268821
24	0xbbd3ea1d	-0.0064671175
25	0xbd2d1d06	-0.042264007
26	0x3d01c56e	0.031682424
27	0x3a144248	0.00056556286
28	0x3d1df300	0.03856182
29	0x3d346c54	0.044048622
30	0x3d0a8cfb	0.033825856
31	0x3c61569a	0.013753558

conv2_bn.weight f4 [32]
0	0x3f7eb1ad	0.9948986
1	0x3f7e9429	0.99444824
2	0x3f7ee4d3	0.9956791
3	0x3f7faf67	0.9987702
4	0x3f804f1d	1.0024143
5	0x3f80bab7	1.0056981
6	0x3f808a6f	1.0042247
7	0x3f803a8a	1.0017865
8	0x3f7fbe7f	0.9990005
9	0x3f7dc64d	0.9913071
10	0x3f7e2302	0.9927217
11	0x3f7fdc2c	0.9994533
12	0x3f807074	1.0034318
13	0x3f80aba5	1.0052382
14	0x3f801e4a	1.0009243
15	0x3f803891	1.0017263
16	0x3f7f21c7	0.99660915
17	0x3f80e81d	1.0070835
18	0x3f7f7fc7	0.9980435
19	0x3f7efed5	0.9960759
20	0x3f80097a	1.0002892
21	0x3f7e860d	0.99423295
22	0x3f80a378	1.0049887
23	0x3f829e53	1.0204567
24	0x3f7fcac8	0.99918795
25	0x3f7f6d95	0.99776584
26	0x3f7fae03	0.99874896
27	0x3f7eb97d	0.9950178
28	0x3f809177	1.0044392
29	0x3f7e7137	0.993915
30	0x3f7e63ee	0.9937123
31	0x3f80be85	1.0058142

conv2_bn.bias f4 [32]
0	0x3bc6efed	0.006071082
1	0xb9df438b	-0.00042584198
2	0x3b4b1b22	0.0030991514
3	0xbba4cf92	-0.005029627
4	0x3ba8798f	0.005141444
5	0x3bebbff7	0.007194515
6	0x3bc54a2f	0.0060208063
7	0x396315ec	0.00021656574
8	0x3c2bf625	0.010495697
9	0xbb061e5a	-0.0020464868
10	0x3c01f180	0.007931113
11	0x38da1cd7	0.00010400422
12	0x3bb463ee	0.0055050766
13	0xba09f525	-0.00052626646
14	0x3ad31916	0.0016105499
15	0xbb1c3a6a	-0.0023838528
16	0x3b808d2c	0.003923079
17	0x3bd75647	0.0065715644
18	0x3bc08d80	0.005876243
19	0x3ba042fc	0.0048907977
20	0x3b5dbf56	0.003383597
21	0x3b8bd6ce	0.00426755
22	0x3c3678c7	0.011137194
23	0x3c32f843	0.010923448
24	0x3c083967	0.008314467
25	0x3a1e5b8d	0.0006040864
26	0x3c6c7a21	0.014433415
27	0x3c01376b	0.007886748
28	0x3b35bcdc	0.0027730977
29	0x39d053c1	0.00039735253
30	0x3b158f28	0.0022820923
31	0x3c1ba2af	0.009499236

conv2_bn.running_mean f4 [32]
0	0x3e6efc6d	0.2333848
1	0x3eb5bc48	0.3549521
2	0x3e198bc3	0.14994721
3	0x3ec57ad8	0.38570285
4	0x3e1d178b	0.15341012
5	0x3e5645bb	0.20925038
6	0x3e8f43f3	0.2798153
7	0x3e747bfb	0.2387542
8	0x3e9328e8	0.28742146
9	0x3eefac50	0.46811152
10	0x3eb5cdc6	0.35508555
11	0x3e8c536d	0.274074
12	0x3e1a8f25	0.15093668
13	0x3ea73d57	0.32663986
14	0x3e9fc42a	0.3120435
15	0x3ec2cc71	0.380466
16	0x3ed096fa	0.40740186
17	0x3ea718f7	0.32636234
18	0x3e4f03ce	0.20216295
19	0x3e91ca0a	0.28474456
20	0x3e33a716	0.17544207
21	0x3f0ba5d1	0.5454989
22	0x3e722eb3	0.23650627
23	0x3e2ece90	0.17070985
24	0x3e5c459d	0.2151093
25	0x3e41fb37	0.18943487
26	0x3e8e0e81	0.2774544
27	0x3ec6cc04	0.38827527
28	0x3ea45d00	0.32102203
29	0x3e7c65ff	0.24648283
30	0x3e9a1e4e	0.30101246
31	0x3e8c8cff	0.2745132

conv2_bn.running_var f4 [32]
0	0x3e681d18	0.22667348
1	0x3ec1eda5	0.3787662
2	0x3de3489e	0.11097835
3	0x3ebb621a	0.36598283
4	0x3e05ba01	0.13059236
5	0x3e2dc035	0.16967852
6	0x3e16ad5f	0.14714573
7	0x3e4a6050	0.19763303
8	0x3e8886b6	0.26665276
9	0x3f144ab3	0.5792648
10	0x3ebe656a	0.37186748
11	0x3e337a38	0.17527092
12	0x3dfa045f	0.12207865
13	0x3e6bd8b2	0.23031881
14	0x3e705892	0.23471287
15	0x3ec775e2	0.38957125
16	0x3edaaf17	0.42711708
17	0x3e5dfdc7	0.2167884
18	0x3e2bf282	0.16791728
19	0x3e5eb6d4	0.21749431
20	0x3e148f94	0.14507896
21	0x3f0beb9f	0.54656404
22	0x3e0443af	0.12916444
23	0x3d994d0d	0.074853994
24	0x3e07a55c	0.13246673
25	0x3e478f71	0.19488312
26	0x3e88dde6	0.26731795
27	0x3ec00053	0.37500247
28	0x3ecb9cb1	0.39767984
29	0x3e386fc2	0.18011382
30	0x3e7f3809	0.2492372
31	0x3e08d8cb	0.1336395

cnn3.weight f4 [64, 32, 5, 5]
0	0x3c8d5423	0.017252034
1	0xbc844fdd	-0.016151363
2	0x3c133331	0.008984373
3	0x3c8d39a9	0.017239409
4	0xbc6433bf	-0.013928353
5	0xbaf9f84b	-0.001907119
6	0xbbf1221f	-0.007358804
7	0x39746950	0.00023308885
8	0x3af9d92e	0.0019061917
9	0x3c40f0a1	0.01177612
10	0x3c7928f7	0.015207521
11	0xbcbac2d0	-0.022797972
12	0xbbec9185	-0.0072194957
13	0x3c5b193b	0.013372715
14	0xbc8c5232	-0.017129038
15	0x3d0b8a4a	0.03406743
16	0xbceb9e51	-0.028762015
17	0x3c7aff3c	0.015319642
18	0xbc09e855	-0.008417209
19	0x3c4d1a07	0.012518412
20	0x3d09d3f1	0.03364939
21	0x3cd76bcf	0.026296524
22	0x3cfd292d	0.030903423
23	0x3c04c3cc	0.008103322
24	0xbc5a6837	-0.013330511
25	0xbbe8e9a0	-0.0071079284
26	0xbce0b1cf	-0.027428536
27	0x3ce244e0	0.027620733
28	0x3d0d17e4	0.034446612
29	0x3be3be2b	0.00695016
30	0xbc0c2e51	-0.008555965
31	0x3ccd1310	0.025033504
32	0xbcdcbd1f	-0.026945649
33	0xbc90be27	-0.017668797
34	0x3c269ed2	0.010169702
35	0xbcfbfabc	-0.030759208
36	0xbbc8eb49	-0.006131564
37	0xbd109ddc	-0.035306796
38	0x3cf67eab	0.030089697
39	0xbb95a22c	-0.0045664515
40	0x3caf4ef2	0.021399949
41	0xbce895d0	-0.028391749
42	0xbcb62710	-0.022235423
43	0xbca13ccc	-0.01968231
44	0xbaea8139	-0.0017891295
45	0x3c352179	0.011055344
46	0x3c96424e	0.018342163
47	0x3ba91794	0.0051602814
48	0x3bc5b1fc	0.0060331803
49	0xbd22f93f	-0.03978848
50	0x3ccb5cad	0.024824465
51	0xbb3169a6	-0.0027071028
52	0x3cda0d15	0.026617566
53	0x3cc3d1e0	0.023903787
54	0xbc9497ff	-0.018138884
55	0x3b677ccc	0.0035322187
56	0xbc91149f	-0.017710028
57	0x3c7481f2	0.0149235595
58	0xbccbd4f4	-0.024881817
59	0xbbd80cf2	-0.00659334
60	0x3d2be79b	0.041968923
61	0xbc81cbbf	-0.015844224
62	0x3d122781	0.035682205
63	0x3bec47d7	0.0072107124
64	0x3ce2cd6d	0.027685845
65	0xba397fbc	-0.0007076224
66	0xbc786c8b	-0.015162597
67	0x3c25f61b	0.010129477
68	0x3c898416	0.016786616
69	0xbcc53671	-0.024073811
70	0xbce74223	-0.028229779
71	0x3c3d0346	0.011536425
72	0x3c1e2eb7	0.009654692
73	0x3ca8631a	0.020555068
74	0x3c6435d1	0.013928846
75	0x3c64c3dd	0.013962713
76	0x3c3c0cbe	0.011477647
77	0x3cc6894d	0.024235392
78	0xbbd78425	-0.006577032
79	0x3c8e0304	0.017335422
80	0xbcd7258f	-0.026263027
81	0xbb9a9136	-0.0047170175
82	0x3baf42da	0.0053485455
83	0xbd0f4d5f	-0.034985896
84	0xbccbbf53	-0.024871504
85	0x3ca5cb3d	0.020238513
86	0x3c7d68be	0.015466867
87	0xbc82b577	-0.01595567
88	0xbd209fd1	-0.039214913
89	0xbd14937c	-0.036273465
90	0xbbbeb87e	-0.005820333
91	0x3ca8a6fc	0.020587437
92	0x3b74a867	0.003733182
93	0xbabca95a	-0.0014393732
94	0x3c0842c4	0.008316699
95	0xbcbf6764	-0.02336473
96	0xba7fe0e3	-0.0009760989
97	0xbc5041ba	-0.012710983
98	0x3a8aab78	0.0010579666
99	0x3cf225fc	0.029559128
100	0x3d0fbaf4	0.0350904
101	0xbcfaee05	-0.030631075
102	0x3c9beb28	0.01903303
103	0xbae4f5a7	-0.001746823
104	0xbce186f8	-0.027530178
105	0xbd078f6f	-0.033095773
106	0x3c753658	0.01496657
107	0x3ca1424a	0.01968493
108	0x3d155a7f	0.036463257
109	0x3bb13e9c	0.005409075
110	0x3d302e1f	0.043012735
111	0xbb3c7a9b	-0.0028759602
112	0x3cf56789	0.029956596
113	0x3c872bf7	0.016500456
114	0x3c882871	0.016620846
115	0xbbeaef42	-0.007169635
116	0xbcaa9fad	-0.020828092
117	0x3ad9582f	0.0016582067
118	0xbad1756a	-0.0015980427
119	0xbc385ae9	-0.011252143
120	0xbcd76756	-0.026294392
121	0xbcbfc00f	-0.02340701
122	0x3ab5a64e	0.0013858767
123	0x3ca8b912	0.02059606
124	0xbc42b199	-0.011883163
125	0x3ca10058	0.019653484
126	0x3ab44186	0.0013752438
127	0x3bd49b00	0.006488204
128	0x3bd073a9	0.006361444
129	0xbbbfcfa9	-0.0058536124
130	0xbc0e78cc	-0.008695792
131	0xbce739a2	-0.028225724
132	0x3c4ba20b	0.012428771
133	0x3cc18736	0.023624044
134	0xbcf512c9	-0.029916184
135	0xbaf4a748	-0.0018665576
136	0xbc425c44	-0.011862818
137	0x3bfd8846	0.0077371923
138	0xbc17e1e2	-0.009270163
139	0x3c49de84	0.012321118
140	0x3c95f5aa	0.018305618
141	0x3c1168f4	0.00887512
142	0xbcc74dc9	-0.024329083
143	0xbcae2209	-0.021256464
144	0x3b18ba14	0.002330427
145	0xbd1423ab	-0.036166828
146	0xbd048202	-0.032350548
147	0xbcc74e28	-0.02432926
148	0xbc924cc7	-0.017858876
149	0x3bc65c8a	0.006053512
150	0xbbb02c34	-0.005376363
151	0x3caf4409	0.021394746
152	0x3bc6ef75	0.006071026
153	0xbaff2f17	-0.001946899
154	0x3c31a2c6	0.010842031
155	0x39c00cb0	0.00036630547
156	0xbcad9076	-0.021187048
157	0x3b881bd4	0.004153708
158	0xbd11dc8e	-0.035610728
159	0x3c5c0c59	0.013430678
160	0x3a0c3bb3	0.0005349472
161	0xbceef098	-0.029167458
162	0xbc3d8a0f	-0.01156856
163	0x3d008ce3	0.03138436
164	0x3c9f92ff	0.019479273
165	0xb9d1d331	-0.00040020936
166	0xbcec93c0	-0.028879046
167	0x3d1066f3	0.03525443
168	0xbce297de	-0.027660307
169	0xbbd8f973	-0.0066215335
170	0xbcf87859	-0.030330824
171	0x3a3bb070	0.0007159775
172	0xbc50077a	-0.012697095
173	0xbd24dc36	-0.040249072
174	0xbcf0fb3c	-0.029416673
175	0x3d01bd13	0.031674456
176	0xbc29535d	-0.010334817
177	0x3cca19ec	0.024670564
178	0x3bea648c	0.0071530994
179	0xbcbc80f1	-0.023010703
180	0x3ccd4894	0.025059022
181	0x3c41e30c	0.011833917
182	0x3c91b821	0.017787995
183	0xbc68447e	-0.014176486
184	0xbcfa3533	-0.030542945
185	0x3c961ad3	0.018323338
186	0x3b130433	0.0022432923
187	0xbce87301	-0.02837515
188	0xbc8c48b6	-0.017124515
189	0x3b809269	0.0039237035
190	0xbcc2e76f	-0.023791997
191	0xbcfd3715	-0.030910054
192	0xbcdb4d57	-0.026770277
193	0x3ca01e13	0.01954559
194	0xbd052560	-0.032506347
195	0x3c2b53bb	0.010456975
196	0xbcb0374e	-0.021510746
197	0xbabbf779	-0.001434072
198	0xbc815507	-0.015787615
199	0xbd0a1f51	-0.033721272
200	0xbb92e759	-0.004483145
201	0xbc25852c	-0.010102551
202	0xbc19788f	-0.009367122
203	0xbc13a701	-0.009011985
204	0xbc6f5fdc	-0.014610257
205	0xbc3373fd	-0.010952947
206	0x3c98a571	0.018633576
207	0x3b95640d	0.004559046
208	0x39801066	0.0002442628
209	0xbc59ff35	-0.013305475
210	0x3c94518f	0.018105296
211	0x3ca990dd	0.020698959
212	0x3cec4e5b	0.028845957
213	0xbc81d84f	-0.015850214
214	0x3c862fe4	0.016380258
215	0xbc9d5e48	-0.019209996
216	0x3c9d5252	0.019204292
217	0x3c096299	0.008385324
218	0x3c0cecbc	0.008601364
219	0xbce8021d	-0.02832132
220	0x3c5d0588	0.013490088
221	0x3cc6d964	0.024273582
222	0x3c913b11	0.01772836
223	0x3c10f968	0.008848526
224	0x3c2f672b	0.0107057495
225	0xbbb8d2e6	-0.0056403754
226	0xbc86846d	-0.016420567
227	0x3d13c85d	0.036079753
228	0x3bebcf45	0.0071963393
229	0x3be8f947	0.0071097943
230	0x3d06674b	0.03281335
231	0xb96ceb3f	-0.0002259435
232	0xbcb4a809	-0.022052782
233	0xbb851b01	-0.004062057
234	0xba19d4c8	-0.00058681937
235	0xbc9e3aed	-0.019315207
236	0xbcba3bb2	-0.022733543
237	0xbb315168	-0.0027056579
238	0xbcee6dcb	-0.029105088
239	0xbb1889d0	-0.0023275502
240	0xbcacee91	-0.021109851
241	0xbce37d4e	-0.02776971
242	0x3b12cee5	0.002240115
243	0x3c91527b	0.017739525
244	0x3cb20473	0.021730637
245	0x3cf2a23b	0.029618373
246	0x3bcf5e76	0.0063283993
247	0xba6006ce	-0.0008545936
248	0xbc598854	-0.013277132
249	0xbb07a261	-0.002069615
250	0x3d07a526	0.033116482
251	0xbc87d563	-0.016581243
252	0xbcf76f2f	-0.030204384
253	0xbd188890	-0.03723961
254	0x3cdc8f3e	0.026923772
255	0x3c071243	0.0082441

cnn3.bias f4 [64]
0	0xbcdad1e9	-0.026711421
1	0xbd245bb1	-0.040126506
2	0x3c57bf4d	0.013168168
3	0x3c4d7d20	0.012542039
4	0xbccd2d2b	-0.025045952
5	0xbcc31723	-0.023814743
6	0xbd237411	-0.03990561
7	0xbd036a45	-0.03208377
8	0x3c6a92cd	0.014317227
9	0xbd1df1a0	-0.03856051
10	0x3bc64be2	0.0060515264
11	0xbc4fe333	-0.012688446
12	0xbc52d728	-0.01286868
13	0xbc93d0ec	-0.018043958
14	0xba140130	-0.0005645929
15	0xbc802ffa	-0.015647877
16	0x3bb15281	0.0054114466
17	0x3b875606	0.004130128
18	0xbcede7c1	-0.029041173
19	0xbc09c20d	-0.008408082
20	0x3cdedf7f	0.02720618
21	0xbca2d879	-0.019878613
22	0x3ca6b145	0.0203482
23	0xbd181c6c	-0.03713648
24	0xbc006923	-0.007837567
25	0x3c5bbc6e	0.013411624
26	0x3b0993f8	0.0020992737
27	0xbc0a6cac	-0.008448761
28	0xbd14d11a	-0.036332227
29	0x3b2b1e78	0.002611069
30	0xbcb9e6d2	-0.022693072
31	0xbc318a28	-0.010836162
32	0x3c7feb7d	0.01562011
33	0x3cb75cda	0.022383142
34	0x3c1f7d33	0.00973444
35	0x3c6a179d	0.014287856
36	0x3cb4bef9	0.02206372
37	0x3cd6e50f	0.02623227
38	0xbbee2647	-0.0072677466
39	0xbd1dec62	-0.03855551
40	0xbd0357d9	-0.0320662
41	0xbc8d6ce2	-0.017263833
42	0x3aaf5df1	0.0013379437
43	0x38ef48dc	0.00011409979
44	0xbd2b81af	-0.041871723
45	0xbc886cc9	-0.016653435
46	0xbc0dd569	-0.008656838
47	0xbcca31a5	-0.024681875
48	0xbce03b53	-0.027372038
49	0x3c8bbab5	0.017056802
50	0xbbab36b3	-0.0052250265
51	0xbc0e5f58	-0.008689724
52	0x3b936c46	0.004498991
53	0x3c8606af	0.016360609
54	0x3c463234	0.01209693
55	0xbce329ff	-0.027729986
56	0xbc0f49a1	-0.008745582
57	0xbd2fe90d	-0.042946864
58	0x3c810136	0.015747648
59	0xbc7a728a	-0.015286097
60	0xbc686fc6	-0.014186805
61	0xbc21a9e4	-0.009867165
62	0x3cc5e2b3	0.02415595
63	0x3cb56e69	0.022147374

conv3_bn.weight f4 [64]
0	0x3f82923f	1.0200881
1	0x3f81f1e4	1.0151944
2	0x3f811433	1.0084289
3	0x3f83b92e	1.0290887
4	0x3f841487	1.0318764
5	0x3f823fb9	1.0175697
6	0x3f80bf55	1.005839
7	0x3f829765	1.0202452
8	0x3f84c568	1.0372744
9	0x3f84b465	1.0367552
10	0x3f833528	1.0250597
11	0x3f82b03d	1.0210034
12	0x3f82c39a	1.0215943
13	0x3f84098a	1.0315411
14	0x3f8333c3	1.0250171
15	0x3f83772a	1.0270741
16	0x3f83ed65	1.0306822
17	0x3f834a39	1.0257026
18	0x3f821562	1.0162776
19	0x3f824038	1.0175848
20	0x3f820160	1.015667
21	0x3f83474d	1.0256134
22	0x3f829316	1.0201137
23	0x3f8379c5	1.0271536
24	0x3f817e02	1.011658
25	0x3f847ec8	1.035119
26	0x3f837b05	1.0271918
27	0x3f835fb2	1.0263579
28	0x3f8434b4	1.0328584
29	0x3f8267ae	1.018789
30	0x3f83b8bf	1.0290755
31	0x3f83df59	1.0302535
32	0x3f80f23e	1.0073926
33	0x3f82a3bf	1.0206221
34	0x3f809f47	1.0048608
35	0x3f81c495	1.0138117
36	0x3f832755	1.0246378
37	0x3f813413	1.0094017
38	0x3f82b7cf	1.0212344
39	0x3f8389e5	1.0276457
40	0x3f818537	1.0118779
41	0x3f8478d3	1.0349373
42	0x3f82a04c	1.0205169
43	0x3f81cc3e	1.0140455
44	0x3f831fac	1.024404
45	0x3f835e6f	1.0263194
46	0x3f847338	1.0347662
47	0x3f856e22	1.0424235
48	0x3f82d00c	1.0219741
49	0x3f8333d5	1.0250193
50	0x3f826607	1.0187386
51	0x3f83c5be	1.0294721
52	0x3f81d755	1.0143839
53	0x3f84b4bc	1.0367656
54	0x3f822724	1.0168195
55	0x3f821d5f	1.0165213
56	0x3f827528	1.0192003
57	0x3f83d267	1.0298585
58	0x3f82ea7d	1.022781
59	0x3f826f9f	1.0190314
60	0x3f82e1c9	1.0225154
61	0x3f835dea	1.0263035
62	0x3f829854	1.0202737
63	0x3f831e2a	1.024358

conv3_bn.bias f4 [64]
0	0x38f13b87	0.00011502863
1	0xba386c2e	-0.0007035163
2	0xbab8102b	-0.0014042904
3	0x39ff6324	0.00048711256
4	0x3837ed07	4.385135e-05
5	0x39f88189	0.00047398757
6	0xba0212d4	-0.0004961912
7	0xb8aa1b66	-8.111335e-05
8	0x390202cc	0.00012398808
9	0x39b40550	0.00034336234
10	0xba50e5c5	-0.00079688086
11	0xba88ff7d	-0.0010452118
12	0xb999c4ec	-0.00029329152
13	0xb96ff9d2	-0.00022885881
14	0x3934a234	0.00017226563
15	0x39aa87b9	0.00032526048
16	0x39c7f116	0.0003813586
17	0xb9f09e00	-0.00045894086
18	0xba820895	-0.000992077
19	0x388ade0d	6.621713e-05
20	0x3a2a4f31	0.0006496786
21	0xba3b2abc	-0.0007139852
22	0xb8f16215	-0.00011510045
23	0x39eb031e	0.00044825015
24	0xba993b29	-0.0011690605
25	0x39612e36	0.00021474887
26	0xb9b71096	-0.00034916837
27	0x389f7d09	7.6050004e-05
28	0x39bd38ae	0.0003609112
29	0xba6233d2	-0.00086289376
30	0xb6ee3024	-7.098557e-06
31	0xba3ba885	-0.0007158595
32	0xb9ea09f1	-0.00044639365
33	0xb884e310	-6.336544e-05
34	0xba8999e9	-0.0010498139
35	0xbaa00ba1	-0.0012210497
36	0x3a355b92	0.0006918247
37	0xba465d49	-0.0007567001
38	0xba4b1648	-0.00077471556
39	0x39a11a2f	0.0003072782
40	0xba9115c5	-0.001106911
41	0xba1658dc	-0.0005735287
42	0xb9cc9d40	-0.00039027072
43	0xba54a623	-0.00081119145
44	0xb9dfdf9f	-0.00042700485
45	0xba8a8cf4	-0.0010570572
46	0x37327be8	1.0638476e-05
47	0xba8e24b4	-0.0010844679
48	0xb9ab2b2f	-0.00032647836
49	0xba344cf0	-0.00068779197
50	0xba038ef8	-0.00050185574
51	0x38cb6dfb	9.70028e-05
52	0xb8d2ebbc	-0.00010057489
53	0xba6525f9	-0.0008741315
54	0xba479a4b	-0.0007614239
55	0xba4c50e5	-0.00077940366
56	0xbaa4ee95	-0.001258331
57	0xbae21d92	-0.0017251244
58	0x3a34dcfb	0.0006899384
59	0xbaac6967	-0.0013153971
60	0xba88ae07	-0.0010427841
61	0x39069f09	0.00012838481
62	0xba5e4bd1	-0.00084799255
63	0xb9a61bd2	-0.00031682715

conv3_bn.running_mean f4 [64]
0	0x3dbb2eb1	0.09139765
1	0x3d89431d	0.06702254
2	0x3e13fcf1	0.14451958
3	0x3c845342	0.016152982
4	0x3c98f69d	0.018672282
5	0x3d4b68fe	0.049660675
6	0x3d63f4d7	0.05565342
7	0x3da971aa	0.08273633
8	0x3d1123ce	0.035434537
9	0x3cc0d18a	0.023537416
10	0x3d0799c2	0.03310562
11	0x3d4bcd89	0.04975656
12	0x3d096bc2	0.03355003
13	0x3cd4622d	0.02592572
14	0x3cbb0cec	0.02283331
15	0x3d7f245d	0.062290538
16	0x3d13a0fd	0.036042202
17	0x3ce577ea	0.028011281
18	0x3d31e02e	0.043426685
19	0x3dcc3019	0.099701114
20	0x3cebd6a0	0.028788865
21	0x3ccf0f75	0.025275925
22	0x3cd90895	0.02649335
23	0x3d381178	0.044938534
24	0x3dade046	0.084900424
25	0x3d66f63e	0.05638718
26	0x3cb84950	0.022495896
27	0x3ca5fb06	0.020261299
28	0x3c7b3f86	0.015334969
29	0x3d1c6d6d	0.038190294
30	0x3d301884	0.04299213
31	0x3d13b39d	0.036059964
32	0x3e8a6e9a	0.27037507
33	0x3d92e547	0.071726374
34	0x3eb31008	0.34973168
35	0x3d65dfb8	0.056121558
36	0x3cb4cd7c	0.022070639
37	0x3da1c0a9	0.07898075
38	0x3d9c3a35	0.076282896
39	0x3c955428	0.018228605
40	0x3d23ab43	0.03995825
41	0x3ce6cea9	0.028174715
42	0x3da696d1	0.08134235
43	0x3e03c23c	0.12867063
44	0x3d2e19cf	0.04250508
45	0x3c9a52d6	0.018838327
46	0x3ccb46f7	0.024814112
47	0x3cbed836	0.023296457
48	0x3d214e1c	0.03938113
49	0x3d012214	0.03152664
50	0x3d1e3b5b	0.038630825
51	0x3d0b2e5c	0.03397976
52	0x3dd6ced4	0.10488668
53	0x3c8590c6	0.016304385
54	0x3d971fc5	0.073791064
55	0x3d00a45b	0.03140674
56	0x3d90905a	0.07058783
57	0x3ce773b5	0.028253416
58	0x3d010f0d	0.031508494
59	0x3d59534c	0.053057954
60	0x3cd8b228	0.026452139
61	0x3cb42245	0.021988997
62	0x3ced7ddb	0.028990677
63	0x3d5c3e57	0.05377039

conv3_bn.running_var f4 [64]
0	0x3d7aafbe	0.061202757
1	0x3d1f1b6f	0.038844522
2	0x3da5d33d	0.08096931
3	0x3bd8348c	0.006598061
4	0x3c4fca08	0.012682445
5	0x3cdc8547	0.02691902
6	0x3d068998	0.032846063
7	0x3d7302ad	0.059328724
8	0x3c97d150	0.018532425
9	0x3c581900	0.013189554
10	0x3c97ffd5	0.018554607
11	0x3cd7358d	0.026270652
12	0x3c9e290e	0.019306686
13	0x3c7b49ee	0.01533745
14	0x3c2ab3b1	0.010418818
15	0x3d33f64c	0.04393606
16	0x3c95a36b	0.0182664
17	0x3c858e55	0.01630322
18	0x3caea88f	0.02132061
19	0x3d806a3f	0.06270265
20	0x3c4e2a08	0.012583263
21	0x3c4188ac	0.01181237
22	0x3c702ed3	0.014659601
23	0x3cdb0a57	0.026738329
24	0x3d550da6	0.05201497
25	0x3d472855	0.048622448
26	0x3c3b3309	0.011425742
27	0x3c1a6dd7	0.009425602
28	0x3c068d8d	0.008212459
29	0x3c99efd6	0.01879112
30	0x3ce327b4	0.027728893
31	0x3ca8cffb	0.020606985
32	0x3e4a584f	0.1976025
33	0x3d3ca38e	0.046054415
34	0x3e806e37	0.25084087
35	0x3cf7169e	0.030162152
36	0x3c76c407	0.015061385
37	0x3d2119bd	0.039331187
38	0x3d44fcd6	0.048092686
39	0x3c1213b4	0.00891583
40	0x3cdcc5d7	0.026949806
41	0x3cb3e513	0.021959817
42	0x3d4ebad4	0.050471142
43	0x3da25b76	0.07927601
44	0x3cb69f9e	0.022292908
45	0x3c28b922	0.010298045
46	0x3c81b181	0.01583171
47	0x3c525d30	0.0128396
48	0x3ca98363	0.020692533
49	0x3c7d0743	0.015443626
50	0x3c9dd294	0.01926545
51	0x3cb56a96	0.02214555
52	0x3d774e0a	0.06037716
53	0x3c1442fe	0.009049175
54	0x3d34bfa8	0.04412809
55	0x3ca3f53c	0.020014398
56	0x3d1a2559	0.037633274
57	0x3c85af94	0.016319074
58	0x3c7e510b	0.015522252
59	0x3ce9fc0f	0.028562574
60	0x3c42eca5	0.011897241
61	0x3c2d896a	0.010591844
62	0x3c6dcef5	0.014514674
63	0x3cfa3eff	0.030547617

fc1.weight f4 [10, 576]
0	0xbd1a28c4	-0.037636533
1	0x3d3443f5	0.04401012
2	0x3d79d7cc	0.060996816
3	0x3d5f8507	0.054570224
4	0xbd9ce11c	-0.07660124
5	0x3cde17b8	0.02711092
6	0x3d0c00cc	0.034180447
7	0x3b7adf15	0.003827994
8	0x3d009fbe	0.031402342
9	0xbce0b721	-0.027431073
10	0x3d075f81	0.033050064
11	0x3d03d973	0.032189798
12	0xbc8f4884	-0.017490633
13	0x3c08668b	0.008325229
14	0x3d1e64cd	0.03867035
15	0xbc4abe54	-0.012374479
16	0x3d1296ed	0.035788465
17	0x3caee113	0.021347558
18	0x3c98b090	0.018638879
19	0xbd3a704a	-0.045517243
20	0xbc886f33	-0.016654586
21	0xbd0f885e	-0.03504216
22	0xbd1c5570	-0.038167417
23	0xbd097950	-0.03356296
24	0xbd2610a0	-0.0405432
25	0x3d2a480a	0.041572608
26	0xbcdf014d	-0.0272223
27	0xbca97274	-0.020684458
28	0xbd47cf85	-0.04878189
29	0x3cd4b13a	0.025963414
30	0xbc7d90f2	-0.015476452
31	0xbc0fa1e5	-0.008766626
32	0xbceac149	-0.028656619
33	0xbd3574e6	-0.044300936
34	0x3d46c48a	0.048527278
35	0xbcfc9077	-0.030830605
36	0x3c756765	0.014978264
37	0xbd0fd9b6	-0.035119735
38	0x3c077030	0.008266494
39	0x3d0869fa	0.033304192
40	0x3d1447d5	0.036201317
41	0xbcdeecdc	-0.027212553
42	0x3cfa0032	0.030517671
43	0x3dd90e5e	0.105984434
44	0xbd871412	-0.06595625
45	0xbcf3df26	-0.029769491
46	0x3c9982ee	0.01873919
47	0xbc00e324	-0.007866655
48	0x3d29238c	0.041293666
49	0xbd21c9a9	-0.03949896
50	0x3d410829	0.047126923
51	0xbd1fe962	-0.03904093
52	0x3d3b69b8	0.045755118
53	0xbcd60f87	-0.02613045
54	0x3cff5bc5	0.031171689
55	0x3cbe91fd	0.023262972
56	0xbb4a8399	-0.0030901192
57	0xbcd97502	-0.026545051
58	0x3c154df3	0.009112823
59	0xba4c1a36	-0.0007785888
60	0x3c97338d	0.018457199
61	0xbd3eab8c	-0.04655032
62	0x3a2b4d17	0.00065346196
63	0xbc70e284	-0.014702443
64	0xbd163572	-0.036672063
65	0x3d20fce2	0.039303668
66	0xbd4c273b	-0.0498421
67	0x3cf3afe3	0.029746955
68	0xbc6f550f	-0.014607682
69	0x3c43cd43	0.011950794
70	0x3d831fb0	0.06402528
71	0xbc8e811a	-0.017395545
72	0xbcee1892	-0.02906445
73	0x3d109607	0.035299327
74	0xbcaed330	-0.021340936
75	0x3b2ffaf6	0.0026852465
76	0x3d5e8dff	0.054334637
77	0x3d0f3b46	0.034968637
78	0x3cebd903	0.028790003
79	0x3a86b6ef	0.0010277907
80	0xba1d4b1f	-0.00060002686
81	0xbd637e2d	-0.055540252
82	0x3d3e3ea3	0.046446454
83	0x3cd06f49	0.02544369
84	0x3c232dc4	0.009959642
85	0xbd13983e	-0.03603386
86	0xbc4f1c95	-0.012641092
87	0x3d39564f	0.045248326
88	0xbcd67a55	-0.02618138
89	0x3d16fee9	0.036864195
90	0xbba425f9	-0.0050094095
91	0x3b917b13	0.0044397204
92	0xbc9bea62	-0.01903266
93	0xbd127a47	-0.035761144
94	0xbd2b49b2	-0.04181833
95	0xbc101853	-0.008794862
96	0x3b22c534	0.002483678
97	0xbc50f1be	-0.012752948
98	0x3d310975	0.04322191
99	0x3d29f5ee	0.041494302
100	0x3d019095	0.031632025
101	0x3c23a292	0.00998749
102	0xbcbd684f	-0.023121027
103	0xbcabb09c	-0.020958237
104	0xbb877707	-0.004134062
105	0x3c51dc73	0.012808907
106	0xbc994d61	-0.018713655
107	0x3c8ff63d	0.01757347
108	0x3c55c879	0.013048285
109	0xbc56cc26	-0.013110196
110	0x3cc6961f	0.024241505
111	0x3c964d3c	0.018347375
112	0x3d3c4384	0.045962825
113	0xbd1e095a	-0.038583137
114	0x3d149c81	0.036282066
115	0xbca53fb9	-0.020171987
116	0x3ca8e6b5	0.020617822
117	0xbd0fe3a6	-0.03512921
118	0xbd0ff225	-0.035143036
119	0xbd61da5c	-0.055139884
120	0xbd034785	-0.03205063
121	0x3d1c18f7	0.038109746
122	0xbd9f5536	-0.077799246
123	0x3cf6ca3d	0.030125732
124	0x3cf0f53d	0.029413814
125	0x3d271411	0.04079062
126	0x3d24bbf4	0.04021831
127	0x3cad8a30	0.021184057
128	0x3d10c45a	0.035343505
129	0xbc9ab5af	-0.018885462
130	0xbb54ff97	-0.0032500976
131	0x3cbc1503	0.022959238
132	0xbc356454	-0.011071283
133	0xbd011c09	-0.031520877
134	0x3c3b170b	0.011419068
135	0xbc968c55	-0.018377462
136	0xbd48c0b6	-0.04901191
137	0x3c7c6c33	0.015406656
138	0x3d38c97b	0.04511402
139	0x3d8c655e	0.06855272
140	0x3bcc7bee	0.0062403595
141	0xbd3a176d	-0.045432497
142	0x3b934068	0.004493762
143	0xbd612dec	-0.054975435
144	0x3b1593fb	0.00228238
145	0x3ce3be78	0.027800784
146	0xbc9efdae	-0.019408073
147	0xbcb41d81	-0.021986725
148	0x3d2967d0	0.04135877
149	0x3d3e23e9	0.046420965
150	0xbc45e48c	-0.012078416
151	0x3cea4bd1	0.028600605
152	0xbbdcddf5	-0.0067403265
153	0xbd01e93e	-0.031716578
154	0x3d09f007	0.033676174
155	0xbb2feb51	-0.002684314
156	0xb95f72fe	-0.00021309775
157	0x3c530599	0.012879753
158	0x3ca803c3	0.020509606
159	0xbd6272d3	-0.055285286
160	0xbc5c4000	-0.013442993
161	0x3c5aac1d	0.013346699
162	0x3b8e6d9c	0.0043465625
163	0xbd1dff93	-0.038573813
164	0x3d0fdda7	0.035123494
165	0xbc9654b4	-0.018350936
166	0xbd357e48	-0.044309884
167	0x3c9bc593	0.01901511
168	0xbc35cf71	-0.011096821
169	0xbcacd0a0	-0.021095574
170	0x3d0d4e41	0.034498457
171	0xb9e75675	-0.0004412417
172	0x3b645570	0.0034840964
173	0xbd505dd5	-0.050870735
174	0x3d25bbb6	0.04046222
175	0x3c6adc53	0.014334756
176	0xbcc1712a	-0.023613531
177	0x3d5999f7	0.053125348
178	0xbcdafc28	-0.026731566
179	0x3c6688e0	0.0140707195
180	0x3c896c55	0.01677529
181	0xbd0ec954	-0.03485997
182	0x3ce623ce	0.028093245
183	0x3d16442a	0.0366861
184	0x3d10a645	0.035314817
185	0xbd1b9387	-0.03798249
186	0x3cb06aa5	0.021535227
187	0x3d22fe40	0.039793253
188	0xbd407ba3	-0.04699291
189	0x3d1a7037	0.037704673
190	0x3ce6f3b7	0.028192384
191	0x3cb8eb0d	0.022573018
192	0x3d1836e7	0.037161734
193	0xbc65280a	-0.013986597
194	0x3d287fdf	0.041137572
195	0x3b43207c	0.0029774
196	0x3d2f382c	0.04277818
197	0xbc5e8380	-0.013581157
198	0xbcabedc1	-0.020987393
199	0xbd056b6c	-0.03257315
200	0xbcb0e3fa	-0.021593083
201	0xbd0ee45a	-0.03488574
202	0xbd46bb25	-0.04851832
203	0xbd29f5d5	-0.04149421
204	0xbc5003f9	-0.01269626
205	0x3c221e87	0.009894974
206	0xbd1a10b0	-0.03761357
207	0x3bf3450c	0.0074240025
208	0xbd438b5a	-0.047740318
209	0xbd18b0a8	-0.037277848
210	0x3cdfe5f2	0.027331326
211	0x3c90c52d	0.017672146
212	0xbc283063	-0.010265443
213	0xbba00210	-0.0048830584
214	0xb9b50865	-0.00034529265
215	0x3d89bb29	0.06725151
216	0xbc286981	-0.01027906
217	0x3d01f257	0.031725254
218	0x3d526f33	0.05137558
219	0xbd288013	-0.041137766
220	0xbc9f9a54	-0.01948277
221	0x3b40525d	0.0029345967
222	0xbb8cc9d5	-0.004296521
223	0xbc41fdd0	-0.011840299
224	0xbc499b7d	-0.012305138
225	0x3ca8d3e4	0.02060885
226	0xbd1b5ae9	-0.037928496
227	0x3c95cc40	0.01828587
228	0xbd0fedaf	-0.035138782
229	0xbd2b46a6	-0.041815422
230	0xbd37a49a	-0.04483471
231	0x3be691f0	0.00703644
232	0x3dea31f5	0.1143531
233	0xbc5dc6ae	-0.013536138
234	0x3cb92fd0	0.022605807
235	0xba97fcf9	-0.0011595777
236	0xbd0dbd2e	-0.034604244
237	0xbcac672e	-0.021045294
238	0xbd242f83	-0.040084373
239	0x3cc93577	0.024561627
240	0xbb3abbc8	-0.0028493274
241	0x3bd82e35	0.006597305
242	0xbd0cf186	-0.034410022
243	0x3d3213b6	0.04347583
244	0xbd2c0693	-0.041998457
245	0xbce26c5f	-0.027639566
246	0x3c32f59a	0.010922814
247	0x3d40c791	0.04706532
248	0xbd02a77e	-0.031898014
249	0x3b1db53d	0.0024064325
250	0xbabe4d5f	-0.0014518908
251	0xbcf1ec2e	-0.029531565
252	0x3ce17ba1	0.027524771
253	0x3d4b61a9	0.049653683
254	0xbcf86000	-0.030319214
255	0xbd5253b2	-0.05134935

fc1.bias f4 [10]
0	0x3cc39d01	0.023878576
1	0xbcf9397f	-0.030422924
2	0xbc7afbdb	-0.015318836
3	0xbca59f18	-0.020217463
4	0xbba6cced	-0.005090347
5	0x3c827d0b	0.015928766
6	0x3959e1f5	0.00020778908
7	0xbc8b9b45	-0.017041812
8	0xbca0e3fe	-0.019639965
9	0x3bb9aa8c	0.0056660827
